model/epoch_2.pth (torch_old, 344967 bytes, 8 tensors)

conv1.weight f4 [16, 1, 3, 3]
000000 24 d2 08 be 61 2f 86 be 50 90 19 be a6 99 3e be
       -0.13361412 -0.26208022 -0.14996457 -0.186133
000010 5b 08 d4 be c7 2a 25 be 99 79 ed be 86 34 4d bd
       -0.41412625 -0.161296 -0.46381834 -0.05009892
000020 2e b2 c1 be 87 cd 67 3e e9 36 45 3e 3e fe b7 bc
       -0.37831253 0.22636996 0.19259228 -0.0224601
000030 f8 3f 91 3e bb 9a e1 3e 86 48 73 be 9e a3 1a bf
       0.28369117 0.44063362 -0.23758134 -0.6040591
000040 07 0b ab be b0 1b 0b bc 39 b6 8b bd 3b fe 46 3e
       -0.3340685 -0.008490488 -0.068218656 0.19432919
000050 4b 5b 02 3f 6b 88 58 be 2c 3b a4 3e 0e 50 34 3e
       0.5092055 -0.2114579 0.32076395 0.17608663
000060 fd 13 8b 3e 0d 67 97 3e 63 d8 c9 3e 8a ad 5e 3d
       0.27163687 0.2957081 0.39422902 0.05436472
000070 62 92 c1 3e 3f c2 9e 3e f1 11 19 be 0e 15 c9 bd
       0.37806994 0.31007573 -0.1494825 -0.09818469
000080 58 a8 8b 3e 4e c2 b4 3b 7b 5e dd be 87 fd f1 bd
       0.27276874 0.005516327 -0.43236145 -0.11815935
000090 d3 df d3 be c5 1a 30 be 66 aa 81 be d8 37 c3 be
       -0.41381702 -0.17197712 -0.25325316 -0.38128543
0000a0 dc fd 02 be 7c 00 2b be cb 46 98 3e 39 32 a0 3d
       -0.12792152 -0.16699404 0.2974151 0.07822079
0000b0 e6 69 09 bd 80 80 fb bc d0 9c cc 3e dc 89 c3 3e
       -0.03354826 -0.030700922 0.39963388 0.38191116
0000c0 d1 21 3d be fe c2 17 3c b5 bb 30 ba ae 61 dd be
       -0.18469931 0.009262798 -0.0006741838 -0.43238586
0000d0 f2 54 5c 3e f0 09 d3 bd 2a a0 72 3e 63 65 60 be
       0.21516779 -0.1030463 0.2369391 -0.21913676
0000e0 7b 2a c4 be 6e c5 46 bd 59 07 03 3e 0c 25 ab 3e
       -0.3831366 -0.048528127 0.12795772 0.33426702
0000f0 71 a7 b0 bd fa 63 ef 3e f1 25 d3 bb a9 d5 ee 3d
       -0.08625687 0.46755964 -0.006443732 0.11661846
000100 f9 a3 0d 3e bb a0 5e 3e d7 af 31 3e c4 a7 8b 3e
       0.13832082 0.21741001 0.17352234 0.27276433
000110 6a 4d 93 be 32 26 b4 3e f1 6c c0 3e 58 bd 2a bf
       -0.2877 0.3518539 0.37583116 -0.66695166
000120 07 5c d0 be c7 be ce 3d 5c 05 ef 3e fd 1e b5 be
       -0.4069521 0.10094982 0.46683776 -0.35375205
000130 a2 fa 69 be a6 94 01 3e 04 37 e1 3d fd d9 96 3d
       -0.22849515 0.12654361 0.109968215 0.07365797
000140 cd bd ee 3e a8 2a 2f 3e 0e f4 d7 be e0 72 54 3e
       0.46629182 0.17106116 -0.42178386 0.20746946
000150 39 21 45 be 83 07 e8 be f4 53 cb 3d b5 4a 9a bd
       -0.19250955 -0.4531823 0.09928122 -0.075337805
000160 85 38 95 3e 36 9c f3 3e 39 e4 67 3e 63 37 f2 3d
       0.29144683 0.47580117 0.22645654 0.118269704
000170 5f 28 c3 3e 51 63 b2 3e e7 fd a3 bc fc d7 61 ba
       0.38116738 0.34841397 -0.020018531 -0.0008615253
000180 8d 1a 5b bc ef f2 a0 be 8e 0e 9d be 47 19 46 bd
       -0.013373029 -0.31435344 -0.30675167 -0.04836395
000190 4a 12 03 be ed 15 0f 3f 33 fe af 3d 52 21 9a be
       -0.12799945 0.5589283 0.085934065 -0.30103546
0001a0 1d c8 6e 3e 68 76 1e 3e 6b 8b 48 be 04 f3 c2 be
       0.23318525 0.15474856 -0.19584434 -0.3807603
0001b0 fd 7b c6 be d5 44 1f be f5 04 86 3d d6 14 41 be
       -0.3876647 -0.15553601 0.06543914 -0.18855605
0001c0 66 8d c1 be 6f 35 7f 3e f3 25 54 be 82 b3 86 be
       -0.3780319 0.24922727 -0.20717601 -0.2630883
0001d0 57 b0 86 3e af 45 a0 be 2a 63 8f 3e d8 cb 12 3e
       0.26306412 -0.31303164 0.28005344 0.14335573
0001e0 8d 1a de be ab 10 7d bb 51 d5 44 be dc 7e 9b 3e
       -0.43379632 -0.0038614671 -0.19221999 0.30370224
0001f0 ca 0c 33 3d bd 7a fa 3e 53 ca 1c 3e dc 37 8c 3e
       0.04371337 0.48921767 0.15311556 0.27386367
000200 91 3e 2e 3e ac 7e 5f 3e 98 e3 a4 3e 81 67 0e 3e
       0.17016055 0.21825665 0.3220489 0.13906671
000210 1f 51 06 bf bf 62 52 3e 0a 0b be 3e 7d e0 b9 3e
       -0.5246753 0.20545481 0.37117797 0.36304083
000220 f5 b5 93 3e 3d f9 cc 3e 9c 4a 7d be 7b a6 3c bd
       0.2884976 0.40033904 -0.24735492 -0.046057206
000230 2d b5 b3 be ac 1a 3a 3e da 53 ee be 78 8c 50 3e
       -0.35099164 0.18174237 -0.4654835 0.20366085

conv1.bias f4 [16]
000000 a6 7c 94 3e 72 64 bb bd 8f 3a 97 bd 6e 65 7e 3e
       0.2900135 -0.09150018 -0.07384216 0.2484338
000010 21 41 8a 3e 60 a9 5a 3e 20 11 ca 3e bf 2b 34 3d
       0.27002814 0.21353674 0.3946619 0.043987032
000020 71 fd a0 3e 0a a7 53 3d a7 bc d6 3e c4 72 f2 bc
       0.3144336 0.051672973 0.41940805 -0.02959574
000030 dd 54 aa bd 54 ef 9c 3e bf df 9b 3e 56 ec 66 3e
       -0.08316968 0.30651343 0.30444142 0.22551093

conv2.weight f4 [32, 16, 3, 3]
000000 97 9e 3e bd d0 d9 19 be db 41 09 be 5d a6 0d 3c
       -0.04653796 -0.15024495 -0.13404028 0.008645621
000010 20 da 84 bc a6 90 be 3d ab c8 21 3e 82 ed 15 3e
       -0.016217291 0.09304933 0.15799205 0.14641383
000020 2c d0 01 3e f8 64 32 be 00 83 30 3a 91 cc 16 bc
       0.12677068 -0.17421329 0.00067333877 -0.009204046
000030 a6 50 7d 3e 96 c6 72 3e d3 c3 8a 3e de 8f c8 3d
       0.24737796 0.23708567 0.27102527 0.097930655
000040 ca 7e 9c bd e3 0a 2e be 72 97 54 3e 3c c5 fe 3d
       -0.076413706 -0.1699634 0.20760897 0.12439963
000050 f2 a8 1a 3e a4 82 b6 3d a3 9b 00 be 9c 79 21 be
       0.1510351 0.089116365 -0.1255937 -0.15769047
000060 44 d1 85 be 6d 45 7b be 03 9d 39 be 8e 21 d0 bd
       -0.2613622 -0.24538203 -0.18126301 -0.1016265
000070 aa cd b9 bd f7 a0 98 bc c9 e7 50 3e 88 60 c7 3d
       -0.090724304 -0.018631442 0.20400919 0.09735209
000080 d4 ad 0b 3e a7 99 be 3c dd d6 a8 3b e0 17 d9 bd
       0.13640529 0.023266627 0.005152567 -0.10600257
000090 c4 7e 36 3d 69 0d 07 bd c2 65 b2 bc 0c 0e e0 bd
       0.044554487 -0.032971773 -0.021777038 -0.10940179
0000a0 62 0a 10 be 02 2b 0f bc 5a 9a 78 3d 2a ad 6b 3d
       -0.1406646 -0.008738281 0.060694076 0.05753819
0000b0 ce 28 e2 3d fe c6 4e bd 02 29 5f 3d a1 8f d6 3d
       0.11042939 -0.050482742 0.054482467 0.10476614
0000c0 01 f7 3c 3e 57 ee 0a 3e 8c ca a2 3d 98 ac 97 3d
       0.184536 0.13567482 0.07948789 0.074059665
0000d0 dc 4f be bd cf 50 07 be 89 25 b7 3d ba 77 1d 3e
       -0.09292576 -0.1321442 0.08942706 0.15377703
0000e0 e2 cc e1 3d 6c 93 7a bd 90 04 0b be 32 3b f1 bd
       0.110254064 -0.06117575 -0.13575959 -0.11778869
0000f0 e9 12 25 be 6d e4 57 be b8 1f 05 be 32 4e 8a bc
       -0.16120495 -0.21083231 -0.13000381 -0.01688299
000100 a7 a0 b9 3d 8d d3 1b 3e 9f 50 0b 3c 3e 84 22 3d
       0.09063845 0.15217419 0.008503108 0.039676897
000110 e3 be 75 3d f6 f1 27 be 75 6e 6a be 79 c6 a6 be
       0.059996497 -0.16400895 -0.22893699 -0.32573298
000120 23 a8 19 3d 3e 0d 50 bd 2b 31 6f bd 81 c1 1b be
       0.037513863 -0.05079388 -0.0583965 -0.15210535
000130 1f c6 a0 bd 52 35 25 be 71 95 54 be cc 39 e7 bd
       -0.078502886 -0.16133621 -0.20760132 -0.11290321
000140 8b 58 d8 bd 3d 26 19 3d 8f a7 f4 3c e4 75 19 3e
       -0.10563763 0.037389982 0.029865054 0.14986378
000150 58 42 64 be 6d bb 32 be 56 9d 66 be 26 ab eb bd
       -0.22290933 -0.1745431 -0.22520956 -0.11507253
000160 80 24 cb bd 65 29 0f be 5c 40 cf bb 3d 1a fd 3d
       -0.09919071 -0.13980635 -0.006324811 0.1235852
000170 d9 a6 44 3e db 53 18 3e 8b 29 ed 3d eb 0a c3 3d
       0.19204272 0.14875738 0.11580189 0.09523567
000180 76 84 b8 3d d2 eb f2 3c ac 3e dd bd 26 89 cf bd
       0.0900964 0.029653464 -0.10802969 -0.10133581
000190 7b 9a a1 bd a8 7e b2 3d 8c 5b 64 3e d1 59 0d 3e
       -0.07890793 0.08715564 0.22300547 0.13803793
0001a0 73 6c 1b 3e 1e 46 3b bc 3a d9 61 be 55 ff 83 be
       0.15178089 -0.011430291 -0.22055522 -0.2578074
0001b0 58 21 df bb b3 2d d2 bc 93 77 c5 bd 50 f1 1b be
       -0.006809395 -0.025656557 -0.096419476 -0.15228772
0001c0 f8 45 ae bd de 64 5e bd 53 8f e8 3c 8d 8e 8c 3d
       -0.08509439 -0.054295413 0.028388655 0.06863127
0001d0 e8 47 4a 3c df 2f 03 3e cd d8 08 3d ec 56 cf 3d
       0.012346245 0.1281123 0.033409882 0.10124001
0001e0 8c 5e a3 bd f3 d1 e9 bd 2f 65 99 bd 3a 48 bd bd
       -0.07977018 -0.11416998 -0.07490002 -0.09242292
0001f0 02 85 0d be b0 1f 3e bd b5 77 e8 3c b2 7d 3c 3d
       -0.1382027 -0.04641694 0.028377393 0.04601831
000200 7f 60 cc 3d 83 49 31 3e 05 c2 5a 3d 0f 72 b3 3d
       0.09979343 0.17313199 0.053407688 0.08761989
000210 b1 c7 6f be 78 28 84 be ba 2e 80 be a6 82 1a ba
       -0.2341602 -0.25812125 -0.2503565 -0.0005894102
000220 cd 06 90 bb 0e 0c 91 3c 74 db f7 3d 99 b2 5e 3e
       -0.004395342 0.017705943 0.12102404 0.21747817
000230 75 61 67 3e d1 ac c1 3d 18 f3 ff 3c 1b 48 7b bd
       0.2259577 0.0945679 0.031243846 -0.061348062
000240 cb 6f 8f bd fc fd ab bc 12 5a 66 bd 90 fb b1 bb
       -0.07003745 -0.020995133 -0.05623824 -0.0054316
000250 4d ea 48 3d fb 77 d4 bc be db b3 bd 83 99 1f bd
       0.04905157 -0.025936117 -0.08782147 -0.03896476
000260 55 7e 66 3c 2a ee 9e bd 29 83 b8 bd a9 05 6c 3c
       0.014068206 -0.0776027 -0.09009392 0.014405646
000270 a1 e0 8d 3d 1e e7 f2 bc df d8 04 bd 62 bd 82 bd
       0.0692761 -0.02965122 -0.032433387 -0.06383778
000280 67 6d 9c 3d e3 e7 86 3d ba 76 7f 3b 2f e2 d5 bc
       0.07638054 0.06587198 0.0038980679 -0.02610883
000290 04 ce 4f 3c 9f 33 42 3d ed 31 7b 3d 29 64 05 3d
       0.012683395 0.04741251 0.06132691 0.032566223
0002a0 ac 99 8e bd e0 12 4b bd 95 95 1d 3d 49 8c 5d bd
       -0.06962904 -0.049578547 0.03847273 -0.054088864
0002b0 b5 85 84 bd 02 02 14 3d df 0e b2 bb 29 6e ab bd
       -0.06470815 0.036134727 -0.0054339017 -0.08370621
0002c0 c8 28 44 3d 4e f2 7a bd 5a 1d 7d bc a3 dc 6d bd
       0.047890455 -0.061266236 -0.0154488925 -0.058071744
0002d0 e4 60 80 bc 28 3a ff 39 95 7e 84 3d 29 79 fb bc
       -0.015671201 0.0004868072 0.06469456 -0.030697422
0002e0 57 8a 7a 3d a7 22 38 bd e0 5c 39 bb 40 15 17 bd
       0.061167087 -0.044954922 -0.0028284118 -0.0368855
0002f0 50 56 29 bd 4e 3f 9b 3d 35 5c 34 3d 89 f5 84 3d
       -0.04134208 0.07580434 0.044033248 0.064921446
000300 33 ce a9 bd d2 c2 af bd 36 cf 80 3d e8 99 b6 bc
       -0.082912825 -0.08582081 0.06289522 -0.022290185
000310 4c 14 4c bd c3 17 01 3d 9c db a3 3b e6 ee 19 3d
       -0.049824044 0.0315168 0.0050005447 0.037581347
000320 73 d8 a1 3b 6d 93 a2 bd f8 44 b8 3c 30 b7 a1 bc
       0.004939133 -0.079382755 0.022493824 -0.01974067
000330 3e f0 10 bd c0 fd 54 bd 68 43 78 3c 3f d3 9c bd
       -0.035385363 -0.051999807 0.01515279 -0.076574795
000340 75 b8 2b bd a1 6e 4d bd e2 8b 72 3d 59 59 85 bd
       -0.04192396 -0.050154332 0.059215434 -0.06511182
000350 e7 8b 00 bd b1 0b 2a bd 0b ff a5 bd 6f 23 67 ba
       -0.03138342 -0.041515056 -0.08105286 -0.00088172307
000360 d8 18 d8 3c df 59 c5 bc ec 5b af bd 0f a9 68 bd
       0.026379034 -0.024090705 -0.085624546 -0.05680185
000370 9e d3 49 bd e9 d9 80 bd d6 88 86 3d 34 f6 8f bd
       -0.04927408 -0.06291563 0.06569068 -0.070293814
000380 bb de 8e 3d fa a2 64 bd 90 67 7a 3d 56 76 83 bd
       0.06976076 -0.05581949 0.06113392 -0.06419055
000390 3d ca 23 3d 8d 11 a8 3c 37 f7 c1 3c 14 fe 49 bd
       0.03998779 0.020516181 0.023677452 -0.049314573
0003a0 81 00 b4 bd b3 02 ef bc 89 ab c3 3c 7a c9 87 3d
       -0.087891586 -0.029176092 0.023885505 0.066302255
0003b0 d1 be 53 bc 91 06 c6 bc 9a aa 7e 3d af 6d 9b 3d
       -0.012923912 -0.024173053 0.062174417 0.0758928
0003c0 63 db ca bc 08 29 83 ba 86 60 93 3c 87 a3 88 3d
       -0.024762815 -0.0010006735 0.017990362 0.06671815
0003d0 c0 68 53 bd be 25 3c 3c 46 00 9c 3c d6 04 d5 3c
       -0.05161357 0.011483608 0.0190431 0.026003283
0003e0 4c ec 85 3d ab 02 13 3d 33 41 b7 bd da 2c b2 3c
       0.06539211 0.035891216 -0.08947983 0.021749903
0003f0 3f b1 79 bd d7 32 89 3c a9 a1 9a bb ff 8f 6b 3d
       -0.06096005 0.016747875 -0.0047189784 0.057510372

conv2.bias f4 [32]
000000 d1 66 9c 3c 50 45 9f bd 0f 77 87 bd fe ff f2 3b
       0.019091995 -0.07776892 -0.066145055 0.0074157706
000010 fb ac 7d 3d 61 a4 57 bd 3a 70 64 39 4a 04 cf 3c
       0.061932545 -0.052647 0.00021785582 0.0252706
000020 55 54 ba 3c 4e 0e 6a 3c 95 fd 95 bd fb ff 7f 3d
       0.02274529 0.014285637 -0.073237576 0.06249998
000030 e4 59 91 bc ed c8 c9 bd a0 c7 4c bc a0 85 3a bd
       -0.017743059 -0.09852777 -0.012498766 -0.04553759
000040 bb 4a 37 3d 49 50 60 bd a5 d2 75 3d 44 1f 84 bd
       0.044749003 -0.054764066 0.06001534 -0.06451276
000050 30 54 cc bd 37 94 bf bc f8 a9 a0 3a c0 8f a4 3d
       -0.09976995 -0.023386104 0.0012257686 0.08035231
000060 3c a4 81 3d 6e e6 14 3d a5 2e 3d 3c 82 a9 8a bd
       0.06330153 0.036352567 0.011546765 -0.06770612
000070 97 92 24 3d df 87 0f bd d2 6c 4b 3d 64 f5 aa b9
       0.04017886 -0.035041686 0.049664326 -0.00032607757

fc1.weight f4 [100, 800]
000000 70 26 a3 3b 01 55 8a 3c a2 ad e7 3c 62 35 f0 3c
       0.0049789473 0.016886236 0.028281037 0.02932233
000010 51 e4 f9 bc 26 08 20 bd 27 11 5d bc a2 f3 1c bd
       -0.030504378 -0.03907027 -0.013492859 -0.038318284
000020 c5 ae 11 bd 53 47 a5 3b 1a 23 a2 bc 81 a0 ff bc
       -0.035567064 0.005043903 -0.019792128 -0.031204464
000030 9d af 3c bc f3 9b c4 3b 20 88 b6 3c c6 85 50 3c
       -0.011516479 0.006000036 0.022281706 0.012727207
000040 22 be b3 bc da 08 d5 3b d8 36 1c bd 1b d6 91 3c
       -0.021941248 0.0065012993 -0.03813824 0.017802289
000050 3e 82 75 bc 4d c2 44 bc 5f 1e 18 bd a2 d9 95 bc
       -0.014984665 -0.012009216 -0.03713834 -0.018292252
000060 af d6 bf 3c b6 d2 f2 3c 00 93 9f 3c df 4d 00 3d
       0.023417799 0.02964149 0.019479275 0.031324264
000070 4c d7 06 bd f9 e4 e1 bc 8c 11 b9 3c 81 dd 8a 3c
       -0.032920167 -0.027575003 0.022591375 0.016951324
000080 1f 10 18 bb 1e 46 0a bd 45 95 00 3d 42 0b 90 3c
       -0.0023202968 -0.033758275 0.031392355 0.017583493
000090 15 c3 8c 3c fa 0d 98 3c 59 73 e2 3c ca 9e e9 bc
       0.017182866 0.018561352 0.027642893 -0.0285181
0000a0 c0 02 bd 3a 3e 2a 07 3c de 71 b7 3b 4c 28 8a 3c
       0.0014420375 0.008249817 0.005598291 0.016864918
0000b0 17 2e bd 3c fe ae 07 bc 52 3f 85 3c 53 3e a9 3c
       0.023093266 -0.0082814675 0.016265545 0.020659601
0000c0 dc c9 49 3c fd bf 13 bb 5f d8 8f bc 44 23 3d ba
       0.012316193 -0.0022544854 -0.017559228 -0.0007215033
0000d0 50 32 a7 bc 94 8b b9 bc 46 56 b1 bc da 71 52 3c
       -0.020409733 -0.022649564 -0.021647584 0.012844527
0000e0 60 ab 2f bc 42 83 6e bb 1e 99 6d bc a4 78 9a 3c
       -0.010722011 -0.0036394154 -0.014501838 0.018856354
0000f0 c0 bd e7 bc 2d b9 1e 3c c8 62 4f bc cc d9 92 3c
       -0.028288722 0.009687704 -0.012657829 0.01792612
000100 02 49 eb 3c 0e 9f 95 3b f4 06 18 3c 66 d7 bb 3c
       0.028721336 0.00456608 0.0092790015 0.022929858
000110 e0 ff 23 bd ae b3 29 ba 5c dc 1b bc 80 1e cb 3c
       -0.040038943 -0.0006473613 -0.009512987 0.024794817
000120 18 1a 6e 3b 24 dc 86 3c 85 1a 94 ba 56 4f d8 3c
       0.003633147 0.016462393 -0.0011299407 0.026405018
000130 ba 83 13 bd 12 b1 13 3c cf 5e 2f 3b 91 60 bb bc
       -0.036014296 0.009014385 0.0026759391 -0.022873195
000140 a4 c0 ad bc 0e 30 19 bc a3 79 0f bc 6d e5 0c bd
       -0.021210022 -0.009349836 -0.008757028 -0.034398485
000150 db ee 62 3c f7 bf 3b bc a2 7f d2 3c 6d 2d b7 3c
       0.013850893 -0.011459342 0.025695626 0.022360528
000160 be 1d 55 bc 62 eb 9d bc 29 89 d1 bc d8 50 bd 3c
       -0.013007579 -0.019277278 -0.025578098 0.023109838
000170 55 28 0e bd 7c 41 e4 bc 84 a8 79 bb a8 c0 d2 3b
       -0.034706432 -0.027863257 -0.0038094828 0.006431658
000180 f7 80 f7 3b af ef 80 3c 23 93 bb bc 0c 11 59 bc
       0.0075532156 0.01573929 -0.022897309 -0.013248693
000190 a5 66 8a 3c a2 d7 dc 3b df d0 82 3c 00 41 28 bd
       0.016894648 0.0067395726 0.015968738 -0.041077614
0001a0 30 f0 14 bd 3b 8e 9a 3b c2 84 0f 3c e1 9d 83 3c
       -0.036361873 0.004716662 0.008759679 0.016066493
0001b0 98 13 7b 3c 99 dd 89 3c 43 ae 46 bc b2 60 8a 3c
       0.015324496 0.016829299 -0.012126508 0.016891811
0001c0 5a 42 a2 3b 9e eb a5 3c 0a 03 60 bc ee d0 91 bb
       0.0049517574 0.020253953 -0.0136726 -0.004449955
0001d0 10 a2 22 bc d6 56 4f 3c ef 14 f3 ba 3c 6e 76 bc
       -0.009926334 0.012654981 -0.0018545667 -0.01504093
0001e0 f2 20 a5 3c 9d c7 53 ba fb f2 56 3c 91 be a6 bc
       0.020157311 -0.0008078756 0.0131194545 -0.020354541
0001f0 79 6e 99 3c b0 6c 67 ba fa 2a c0 3b 25 77 be 3c
       0.018729435 -0.00088281464 0.005864498 0.023250172
000200 75 f1 09 bc 5b 04 b1 bc ac db 19 bd 09 a3 d3 3c
       -0.008419384 -0.021608522 -0.03756301 0.025834577
000210 ff 29 b3 3c b0 e9 08 bd 7d 1a 91 3c 34 64 f9 3b
       0.021870611 -0.033425987 0.017712826 0.007610822
000220 55 e1 a3 3c d6 7a f1 bc 98 3d 99 bb 92 86 75 3b
       0.020004908 -0.029477518 -0.004676532 0.0037464243
000230 ac a6 65 bc d5 0d 79 3c f9 7a d4 bc 16 bc a9 3b
       -0.014016788 0.015201052 -0.025937544 0.0051798923
000240 20 f7 00 3c 5a 47 b2 bc 40 66 f8 bc fb cf a4 bc
       0.007871419 -0.021762539 -0.030322194 -0.020118704
000250 c4 94 aa 3c e8 60 8c bc b9 43 1d bc 3b 78 8a bc
       0.02082289 -0.017136052 -0.009598666 -0.016903033
000260 9f 0a 93 3c 64 4d 69 3a ae 7e 0c bd 8b 54 90 3c
       0.0179494 0.0008899777 -0.0343005 0.017618438
000270 fe a4 14 bd bb 89 15 bd de 9f 2e bc c0 a8 a4 3c
       -0.03629016 -0.036508303 -0.0106582325 0.020099998
000280 22 6a 54 3c f2 40 48 bc 1d c3 8e 3c 83 b8 f2 bc
       0.012964757 -0.012222515 0.017427022 -0.029628998
000290 e8 7f 1b bd 46 91 8c bc 05 ee 0b bd 18 70 93 3c
       -0.037963778 -0.017159116 -0.03416254 0.017997786
0002a0 7b 9a 88 3c 4f 02 97 bc 35 7f 14 bd d0 2e 80 bc
       0.016675225 -0.018433718 -0.036254127 -0.015647322
0002b0 14 8e 67 bc fd 40 ed bb 13 d4 ec bc d2 39 36 bc
       -0.014132995 -0.007240413 -0.028909719 -0.011122184
0002c0 ae 09 01 bd 31 02 18 bd 59 59 e2 bc c3 42 c6 3c
       -0.031503372 -0.037111465 -0.027630495 0.024201756
0002d0 45 ff 10 bd 26 60 a2 3c 20 68 92 3b 33 d6 25 3c
       -0.035399694 0.019821238 0.004467979 0.01012187
0002e0 c0 bc f4 3a 34 6a b7 bc 55 88 16 bc 57 1d d6 3c
       0.0018671975 -0.022389509 -0.0091877775 0.026137037
0002f0 8b 72 99 3c 36 cc 0a bd 49 56 ab ba 30 b0 79 3a
       0.018731376 -0.033886157 -0.001307198 0.000952485
000300 0a 86 c1 3c 05 d9 b9 bc 2c 6c d6 3c e6 0b ab 3b
       0.023623485 -0.02268649 0.026174627 0.0052199243
000310 0c b2 09 bd 56 88 c9 3a a1 f4 f5 3b eb 0b b3 3b
       -0.033617064 0.0015375714 0.0075059687 0.005464067
000320 38 50 e8 3c f0 76 0f bc e4 3a a8 ba b2 3e 12 bd
       0.028358564 -0.008756384 -0.0012834934 -0.035704322
000330 43 b8 06 bc d8 03 16 bc e2 21 cc 3c 0b ad 54 bc
       -0.008222642 -0.00915619 0.0249185 -0.01298071
000340 92 d4 bb bb c3 6c e4 3c 0b cb 80 3c c6 13 1a bc
       -0.0057321275 0.027883893 0.015721818 -0.009404128
000350 8a 36 ea 3c 77 05 18 bb 39 1f ab 3c 06 30 b5 3c
       0.02859046 -0.0023196617 0.020888912 0.022117626
000360 21 53 be bc 0a 9e 0b 3c c6 02 a5 3c 07 dd fc bc
       -0.023232998 0.008521566 0.020142924 -0.030867113
000370 d5 94 de 3c 22 2a f3 3a 7a ca 9e b9 7c 87 42 3b
       0.027170578 0.0018551985 -0.00030286965 0.0029682806
000380 d2 e4 a2 bc 26 82 ba bb 1b 77 f7 3b c1 d1 fe bc
       -0.0198845 -0.0056917844 0.0075520403 -0.031105878
000390 de ba 98 bb 1c 3a 1d bd 4e a0 27 3c 50 48 d0 3c
       -0.004660948 -0.038385496 0.010231091 0.025425106
0003a0 e9 cc 49 bb 4c 26 6d b9 d5 e8 20 bc e7 28 37 3b
       -0.0030792302 -0.00022616348 -0.0098211365 0.0027947964
0003b0 23 46 e2 bc 7e 0f a9 bc 03 c3 1f ba 6d 8d a6 bc
       -0.027621334 -0.02063727 -0.00060944277 -0.020331109
0003c0 97 20 88 bc ef 83 67 3b 83 cf 30 3c cf 2a 3e bc
       -0.016617103 0.0035326441 0.010791662 -0.011606886
0003d0 a6 80 ff bc 6e f3 bc 3c 5a 36 03 bd 5a 92 db bc
       -0.031189274 0.023065295 -0.032034256 -0.026803184
0003e0 cb c5 20 bd 66 12 9b bc 6e ce 74 3c 2d 01 43 3b
       -0.03925113 -0.018929671 0.014941795 0.002975534
0003f0 a5 62 b2 3c 6d a3 71 bc cd 4d 74 3c 75 77 f4 bb
       0.021775553 -0.014748436 0.014911127 -0.0074605295

fc1.bias f4 [100]
000000 44 09 1c bd 88 13 96 ba cc 3b bd 3c 3b 57 02 bd
       -0.038094774 -0.0011449913 0.023099802 -0.03182147
000010 fe ce fd bb 89 42 ab 3c e4 63 14 bc 2f 7b 0a bd
       -0.0077456227 0.02090575 -0.009057019 -0.033808883
000020 8d a6 36 3d 03 14 16 3d a3 0b e3 3b 6d 83 eb 3c
       0.04459243 0.03664018 0.0069288774 0.028749192
000030 ea df 51 3c ee 35 74 bb 43 7a 3c bc 7b e5 ac 3c
       0.012809733 -0.003726359 -0.011503759 0.021105519
000040 80 b4 01 bc 04 66 f3 bc d8 25 69 3c e6 00 6f bc
       -0.00791657 -0.02971173 0.014230214 -0.014587617
000050 94 63 09 3d 15 27 8e bc d9 79 26 bc 15 20 8e 3b
       0.03354223 -0.01735262 -0.010160887 0.0043373206
000060 75 82 ae bb 31 d3 9c bb ff 27 c4 3c 1d 94 ad 3c
       -0.0053256103 -0.004785918 0.023944853 0.02118879
000070 08 52 99 bc 87 f8 16 bd f7 4d bc 3c 33 a5 4d 3b
       -0.018715873 -0.036858108 0.022986395 0.0031378984
000080 48 50 f7 bc ab 3c 64 3c 50 c3 90 bc b0 15 00 3d
       -0.030189648 0.01393048 -0.017671257 0.031270683
000090 92 3b 27 3c de 81 2e 3b 13 b7 b8 bc 3d 7a 80 3b
       0.010207074 0.00266277 -0.022548234 0.003920822
0000a0 60 30 6e ba c0 5b e3 bc aa 77 ef bc 5f c7 f9 bc
       -0.0009086188 -0.02775371 -0.029231865 -0.030490575
0000b0 83 b1 47 3d af 06 af bb de 5c 18 bd 21 c6 05 3d
       0.048753273 -0.005341373 -0.03719794 0.032659654
0000c0 dd a6 e0 3b d1 17 39 3c ef c2 d8 bc 8e 9f cd 3b
       0.006855829 0.011297182 -0.02646014 0.006275124
0000d0 2d 20 b7 3c 7f 63 93 3c 8c 0b 14 bd 94 94 36 3c
       0.02235421 0.01799178 -0.036143824 0.011143822
0000e0 b3 7a 3d bc b3 87 c5 3c 8f 34 17 bd dc 39 22 bd
       -0.011564898 0.024112558 -0.03691536 -0.03960596
0000f0 1c 65 38 bd a4 2c 76 b9 81 3a 2c 3d 3c 92 1d 3c
       -0.0450183 -0.00023477018 0.04204798 0.0096173845
000100 1f dc bd bc a9 ae cc bc 2d b3 34 3d 38 5a 8f 3c
       -0.023176251 -0.024985628 0.044116188 0.017499074
000110 d4 f2 c1 bc e3 ad e2 3c 6f da fb bc 97 d9 e5 3c
       -0.02367536 0.027670806 -0.030743806 0.028057856
000120 0f 5b a1 3a 79 5d 6f 3c a4 b6 0e bd b0 02 5f bb
       0.0012310463 0.014609688 -0.03484215 -0.0034028701
000130 c1 e1 e6 3b 61 d4 e3 ba 8f ad e7 bb b0 62 1b bd
       0.007045955 -0.001738202 -0.0070702503 -0.037935913
000140 f5 f8 c8 3c 2a fd c5 bb ee 70 f2 3a ca 2a c2 bc
       0.024532774 -0.0060421424 0.001849679 -0.023702044
000150 71 b3 cf bc 11 6a ca 3c 37 95 0b bc 15 9c 81 3c
       -0.025354119 0.02470878 -0.008519462 0.015821496
000160 a3 d9 a7 3c f7 2e be 3b d6 71 1f 3a 13 c9 2a 3c
       0.02048952 0.0058039385 0.00060823315 0.010423916
000170 fd 0d 2f 3d 6d 00 4b 3c d4 ef a8 3c 88 78 86 3d
       0.04273795 0.012390238 0.020622171 0.06565958
000180 3f 40 ad bc 44 c1 09 bd de 52 a9 bc df 76 4f 3c
       -0.021148799 -0.033631578 -0.020669397 0.012662618

fc2.weight f4 [10, 100]
000000 5c e7 a8 3d 9e 4d 99 3d 5e 58 dc 3c 46 fe 96 3d
       0.08247253 0.074855074 0.026897606 0.073727176
000010 79 ef 5e 3d 8e 5f 8e bd d2 d3 0f be 01 06 c9 bc
       0.054427598 -0.06951819 -0.14045647 -0.024538996
000020 45 8b 41 3d 9b e1 ab bd d3 fe 67 3d c8 45 91 bb
       0.04725196 -0.0839264 0.056639504 -0.0044333674
000030 b4 a2 e2 3c d3 0c 1d bd 21 c5 77 3c d7 73 84 bc
       0.027665474 -0.03834231 0.015122683 -0.016168518
000040 3a 53 09 3e b6 d5 b3 3c fd cf d5 3c 09 fe 17 bd
       0.13410655 0.021952491 0.026100153 -0.0371075
000050 92 2f 28 3c e1 38 a1 bd 70 ce 29 39 82 fd 0e 3c
       0.010265248 -0.07872177 0.00016194 0.008727433
000060 ca 04 ad 3c 03 36 33 be c1 1b 80 3c 35 8c a7 bd
       0.021120448 -0.17501073 0.015638234 -0.08181039
000070 92 c5 bc bd 1d b5 b2 3d de 98 af bd d2 c1 67 bd
       -0.09217371 0.08725951 -0.08574079 -0.056581326
000080 ea 22 ab bd 13 74 c1 bc 18 22 49 bd d9 90 cd bc
       -0.08356269 -0.023614919 -0.04910478 -0.025093483
000090 e2 8e ff 3d 2a 1e c5 bd ab 0e 5b bb b3 f1 91 bd
       0.124784246 -0.09624894 -0.003342549 -0.071261786
0000a0 22 61 19 3d 5c 84 a3 bd 66 20 bb bd 6a 98 7b bd
       0.03744615 -0.0798423 -0.09137039 -0.06142465
0000b0 51 1f a8 3d 92 4a 31 3c d8 92 f7 3c 9e a3 bd 3d
       0.08209098 0.010821002 0.030221388 0.09259723
0000c0 77 54 b2 3d b9 67 f3 3d 2f 1f a4 bd 40 19 d0 3d
       0.08707517 0.11885018 -0.0801376 0.10161066
0000d0 24 e9 2d 3e 6c ca 50 3d c1 64 02 be cf e5 ee bb
       0.16983467 0.050974295 -0.12733747 -0.007290579
0000e0 5c b9 b2 3d 39 05 b1 bb b2 2f bc bd f7 16 27 bd
       0.08726761 -0.005402234 -0.09188785 -0.040793385
0000f0 5f b8 2a bb 8a 49 9f bd 4e fe e2 bd 73 84 52 bd
       -0.0026049835 -0.07777698 -0.11083661 -0.051395845
000100 15 c3 55 3d 28 51 03 3e 49 9f ae 3d 02 42 cb 3d
       0.052187998 0.12823927 0.08526475 0.09924699
000110 3a 16 0e be c6 ac 3b bd d4 24 0d bd ce 7f 10 be
       -0.13875666 -0.045819066 -0.03445895 -0.14111254
000120 f6 29 58 bc 8d f0 62 3d 29 8d 4e bc aa 40 3d bb
       -0.013193598 0.05540519 -0.012606897 -0.0028877654
000130 8e 14 89 3c 01 73 c0 3d a3 20 bd 3d fd f1 f6 3c
       0.016733434 0.09396935 0.092347406 0.030144686
000140 3f aa aa 3d 5b ea 20 3c df ce 3f bd 77 5d 91 bd
       0.08333253 0.0098215 -0.046828147 -0.07097905
000150 ab 49 5a 3d 25 38 c4 bc f6 b4 e3 bd 1a 7a cc bd
       0.05329291 -0.023952553 -0.111185 -0.099842265
000160 af 4e a6 bd 8b 2d 1d 3c 44 34 3a be 10 95 d5 3d
       -0.081204765 0.009593378 -0.18184 0.10428822
000170 dd 70 b0 3c ee e4 6f bd 65 b0 36 bb 57 3b 39 3d
       0.021538192 -0.058567934 -0.0027876135 0.045222607
000180 1e e0 06 be c1 3f 93 3d 70 f2 b8 3d bd 23 a7 3d
       -0.13171431 0.071898945 0.09030616 0.081611134
000190 b1 f4 bd 3d 27 cd 2b bd 12 8a 8b bc 66 9a 5a 3d
       0.09275187 -0.041943695 -0.01703361 0.053369902
0001a0 62 dc 04 be 35 2c 00 be 59 a1 76 3d aa ed 90 3d
       -0.12974694 -0.12516864 0.060212467 0.07076581
0001b0 32 30 4f bd 7a 0e 10 3e 18 bc b1 bd 5d d2 8f 3d
       -0.050583072 0.14068022 -0.08678454 0.070225455
0001c0 59 91 7e 3b 4c f7 a0 39 23 02 3c 3d bb 7a 83 bd
       0.0038843958 0.0003070183 0.045900475 -0.06419893
0001d0 5f e1 dd 3d 67 77 1f 3b c5 e8 09 3c d8 3e 5c bd
       0.10834002 0.0024332644 0.008417313 -0.05377087
0001e0 cb 62 c9 bd 94 10 62 3d 95 21 19 be 4b a9 0a 3d
       -0.098332964 0.05519159 -0.14954217 0.033852857
0001f0 b2 45 14 3e 11 de 95 3d 95 90 e1 bc 38 50 e0 bd
       0.14479712 0.073177464 -0.027534762 -0.109528005
000200 44 7f 81 3d da b1 88 bb 4a 21 88 3d c5 42 fd bd
       0.06323102 -0.004171592 0.066469744 -0.12366251
000210 8e 53 e0 bc ca d0 8f bd e3 4c 5b bb 33 23 fa 3d
       -0.027383592 -0.07022245 -0.0033462576 0.12213745
000220 cd 7e bc bd bd e4 b1 3d 89 a4 47 bb b1 05 ad bd
       -0.09203873 0.086862065 -0.003046306 -0.08448351
000230 c5 1b b2 3d 08 10 1e bc 42 50 c4 bd 40 02 8b bc
       0.08696703 -0.009647377 -0.095856205 -0.016968846
000240 8f 4b 26 bd ee b2 32 be f9 67 b7 3d 71 59 cd 3c
       -0.040599402 -0.17451069 0.08955378 0.025067063
000250 47 7e c7 3d 78 a3 0b be 39 a0 0b be 29 01 e3 3c
       0.09740882 -0.13636577 -0.13635339 0.027710514
000260 73 79 10 3d d7 1b 00 3e 72 04 0a be 5c 24 96 bc
       0.035272073 0.1251062 -0.13478258 -0.018327884
000270 f3 a8 a2 bd 08 9b 3f be 9a 8b 88 bd 06 68 97 bd
       -0.07942381 -0.18711483 -0.06667252 -0.07392888
000280 6c aa 8d bc 1d 93 9e 3d e3 0b 1e 3b 92 9c 2e bd
       -0.017293178 0.077429034 0.0024115972 -0.042629786
000290 16 35 18 bd a4 b2 ef bd 2d f5 11 3d 37 15 7d 3d
       -0.03716 -0.11703995 0.03563421 0.06178781
0002a0 11 1b 2c 3e 1c 8c 05 bd 68 e3 7f 3c b8 a3 b4 3d
       0.168072 -0.03260432 0.015618183 0.088202894
0002b0 61 9b 54 3d 7a 27 39 be c4 cb 22 3d 53 68 1c bc
       0.051905993 -0.18081465 0.039745107 -0.009546357
0002c0 d7 46 b5 3d 3a 6c e6 bd 05 45 db 3c ad 24 1f 3d
       0.08851402 -0.11251111 0.02676631 0.038853336
0002d0 70 fa bc bb 91 93 20 3e 70 2f a3 bd 81 e2 32 3d
       -0.005767159 0.15681292 -0.07968032 0.043673042
0002e0 cd 44 93 3d 9c 1d ac bd 4d 15 41 bc 77 cc fa 3c
       0.07190857 -0.08404085 -0.011784864 0.030615075
0002f0 e2 92 22 bd f7 26 92 3d 47 e9 29 be f3 2f c2 bd
       -0.03969086 0.07136338 -0.16592894 -0.09481802
000300 f0 13 33 3d 9b 92 da 3d a9 6a 2a be 9f cc 2c 3e
       0.043720186 0.10672494 -0.1664225 0.16874932
000310 41 f3 4d 3d 2d ca fd bd 97 75 90 3b 43 9d f0 bd
       0.050280813 -0.123920776 0.004408549 -0.11748745
000320 0f 19 6c 3d 4b 8c 96 bd 67 9a d1 bc d6 2c 32 3d
       0.057641085 -0.073509775 -0.02558632 0.04349979
000330 51 fc c3 3c 37 61 e0 3c 5c e0 14 be 25 90 52 bd
       0.023924025 0.027390106 -0.14538711 -0.051407
000340 c0 32 94 3d 83 4e e7 bd 10 48 8e 3c bc cc 32 be
       0.07236242 -0.11294272 0.017368346 -0.17460912
000350 d7 89 25 3d da b7 82 3c 19 d5 c1 3d 58 67 f5 3d
       0.040414657 0.015956808 0.09464473 0.11982602
000360 1b f8 28 3e 52 df 31 bd fd d0 ea 3c 1f 95 8d bc
       0.16500895 -0.043425865 0.028664107 -0.01728302
000370 8d ac 41 3d ee 79 70 3d f1 7d 00 3e 8e 55 5d 3d
       0.047283698 0.05871003 0.12548043 0.05403667
000380 e1 f1 87 3d ef ce d1 bd e3 d3 6e bb ba cd 2f 3c
       0.066379316 -0.102445476 -0.0036442212 0.010730201
000390 6e a5 25 3d 71 18 65 3c 62 66 25 3d 7a 56 1b bd
       0.04044097 0.013982878 0.040380843 -0.037924267
0003a0 88 0c c0 bd 19 a6 11 be 2e 90 1c bd 87 95 04 be
       -0.0937739 -0.14223517 -0.038223438 -0.12947665
0003b0 59 b9 73 3c 33 df 67 3c e5 d1 fa ba dd 92 9a 3c
       0.014875733 0.014152336 -0.001913604 0.018868858
0003c0 bb ed 6f 3d 8e 0f 8f bd 79 da 8a 3d 8b 30 c9 bd
       0.058576327 -0.06985389 0.067799516 -0.09823712
0003d0 37 20 94 bd 5a 83 cc 3d 8e b2 bb bd 54 d6 57 3d
       -0.07232707 0.09985991 -0.09164916 0.052694634
0003e0 7d 19 18 bd 10 b1 f8 3c 0d 0e ed 3c 98 ac 11 be
       -0.037133683 0.030357867 0.028937364 -0.14225996
0003f0 64 d5 14 3c bc a4 9b 3d 0f f3 97 3d b0 02 3e 3d
       0.009084079 0.0759978 0.074194066 0.04638928

fc2.bias f4 [10]
000000 25 22 ae bd 60 b9 ea 3d 45 ad 4a 3d 59 03 78 bd
       -0.08502606 0.11461139 0.04948165 -0.060550068
000010 c1 6c 96 bd 1f a1 dd bd f5 55 6a 3d 45 b1 de 3d
       -0.07344962 -0.10821747 0.05721088 0.10873655
000020 d6 74 85 bd 34 ae 88 bd
       -0.06516425 -0.066738516
