model/epoch_1.pth (torch_old, 344967 bytes, 8 tensors)

conv1.weight f4 [16, 1, 3, 3]
-0.108951636 -0.25164422 -0.122325435 -0.16029742 -0.41341552 -0.12715313 -0.426802 -0.0057610287
-0.3375633 0.2328846 0.1969949 -0.0132672675 0.29968172 0.44118127 -0.24871632 -0.509658
-0.26243216 0.014815588 -0.04329189 0.15302926 0.47193003 -0.19977626 0.28057972 0.16012543
0.26682422 0.26775414 0.39992878 0.032047197 0.34126356 0.2693625 -0.12735647 -0.09455951
0.24212152 0.038411025 -0.41542682 -0.11152847 -0.38379502 -0.14496897 -0.22012451 -0.36454076
-0.11311297 -0.1556722 0.27662674 0.062270198 -0.07775466 -0.019467747 0.3765316 0.349209
-0.14358959 0.0110031525 -0.027205976 -0.41483492 0.21257885 -0.12577705 0.22739863 -0.18520433
-0.30687034 -0.062172167 0.11124695 0.3321177 -0.07074413 0.4562592 -0.007331508 0.15062764
0.10945733 0.2265116 0.13251528 0.22700177 -0.18380214 0.30452907 0.37744874 -0.56133187
-0.38464564 0.09157141 0.44679725 -0.32868484 -0.22013786 0.07661929 0.13364564 0.078699745
0.4394916 0.16201374 -0.39060315 0.2180106 -0.17880404 -0.4098414 0.06269861 -0.06922542
0.2867332 0.42402622 0.22653903 0.09590837 0.3737233 0.3268099 -0.037422594 0.006560926
-0.007821825 -0.2966945 -0.2689295 -0.010499623 -0.1416477 0.49397692 0.10091327 -0.29297674
0.20435812 0.1424417 -0.18845885 -0.3694604 -0.37907603 -0.14554383 0.053463228 -0.1798421
-0.37520215 0.22274631 -0.18244624 -0.25813296 0.21552768 -0.29551575 0.2699261 0.15010849
-0.40980956 -0.001107055 -0.21680367 0.29957345 0.03217102 0.4603703 0.14539698 0.26452106
0.22418118 0.22062597 0.28679794 0.11649094 -0.493962 0.19216743 0.32463405 0.36037266
0.26422188 0.39033103 -0.23475228 -0.03014316 -0.31677443 0.19332278 -0.4617021 0.22455533
00000000: 0922 dfbd 83d7 80be c285 fabd 0225 24be
00000010: 33ab d3be 6e34 02be cb85 dabe 03c7 bcbb
00000020: 19d5 acbe 4d79 6e3e 08b9 493e f45e 59bc
00000030: e26f 993e 83e2 e13e 7eaf 7ebe f278 02bf
00000040: 825d 86be 14bd 723c d652 31bd b4b3 1c3e
00000050: d0a0 f13e 2692 4cbe 25a8 8f3e ecf7 233e
00000060: 2f9d 883e 1217 893e 77c3 cc3e ec43 033d
00000070: 19ba ae3e e2e9 893e bc69 02be 6ba8 c1bd
00000080: b4ee 773e e154 1d3d d3b2 d4be 0a69 e4bd
00000090: c880 c4be bf72 14be 5268 61be 16a5 babe
000000a0: c6a7 e7bd 8868 1fbe 05a2 8d3e 090f 7f3d
000000b0: d63d 9fbd d37a 9fbc c0c8 c03e 86cb b23e
000000c0: 2609 13be 9146 343c 11df debc 3e65 d4be
000000d0: 45ae 593e b3cb 00be 30db 683e 34a6 3dbe
000000e0: 1c1e 9dbe 3ea8 7ebd 71d5 e33d 550b aa3e
000000f0: 4ce2 90bd ce9a e93e 263d f0bb 223e 1a3e
00000100: 2a2b e03d a8f2 673e 16b2 073e 2773 683e
00000110: a136 3cbe 3ceb 9b3e f640 c13e 72b3 0fbf
00000120: 46f0 c4be cb89 bb3d 9cc2 e43e 6149 a8be
00000130: d26b 61be 93ea 9c3d 67da 083e 552d a13d
00000140: 0b05 e13e eee6 253e 23fd c7be 2c3e 5f3e
00000150: 6818 37be bbd6 d1be 2168 803d 0fc6 8dbd
00000160: b2ce 923e f719 d93e d9f9 673e 9c6b c43d
00000170: a958 bf3e a153 a73e 6f48 19bd 09fd d63b
00000180: 1d27 00bc 57e8 97be 21b1 89be 9c06 2cbc
00000190: 180c 11be 8bea fc3e 9eab ce3d 0c01 96be
000001a0: 4143 513e 3ddc 113e 5bfb 40be ea29 bdbe
000001b0: 4116 c2be 7109 15be 42fc 5a3d 8728 38be
000001c0: 7f1a c0be 9c17 643e 30d3 3abe 012a 84be
000001d0: 4ab3 5c3e d74d 97be c133 8a3e 0ab6 193e
000001e0: 8fd2 d1be 9a1a 91ba c801 5ebe b161 993e
000001f0: c2c5 033d a8b5 eb3e f2e2 143e 4e6f 873e
00000200: c08f 653e c6eb 613e 2ed7 923e cd92 ee3d
00000210: 96e8 fcbe 8ac7 443e 6f36 a63e c482 b83e
00000220: 1748 873e 78d9 c73e e762 70be caee f6bc
00000230: 4230 a2be 68f6 453e 3864 ecbe d5f1 653e

conv1.bias f4 [16]
0.30062863 -0.124285676 -0.09579118 0.25807095 0.28065774 0.2105715 0.3687657 0.017007092
0.31165338 0.041022137 0.4149539 -0.032436997 -0.08305219 0.28428847 0.27538866 0.2213586
00000000: ffeb 993e 7d89 febd 2b2e c4bd e021 843e
00000010: 5fb2 8f3e 0ea0 573e dcce bc3e 7552 8b3c
00000020: 0891 9f3e d406 283d d674 d43e a8dc 04bd
00000030: 4417 aabd 428e 913e beff 8c3e d4ab 623e

conv2.weight f4 [32, 16, 3, 3]
-0.031262215 -0.14611816 -0.1419277 0.0038340427 -0.016238797 0.08173458 0.15025105 0.13873498
0.12251161 -0.15266149 0.021257898 0.011740793 0.2154646 0.19979905 0.2539163 0.122982934
-0.089017205 -0.14365804 0.1831915 0.124112405 0.13331176 0.085286714 -0.13212088 -0.15186673
-0.2344273 -0.21076392 -0.18618965 -0.08520405 -0.052761063 -0.009840245 0.16822296 0.09150012
0.15349656 0.027856505 0.0068428842 -0.048942667 0.050325025 -0.03243523 -0.025692537 -0.09515153
-0.13136543 -0.012942684 0.04918568 0.052952 0.10545803 -0.052524973 0.087462164 0.12040507
0.1539351 0.12778491 0.091724694 0.082753606 -0.08374305 -0.07173558 0.079017766 0.14888398
0.122580044 -0.034169484 -0.12828232 -0.05881397 -0.13016663 -0.17678545 -0.11757921 -0.0132016735
0.07156807 0.15487552 0.027358325 0.030014956 0.04892366 -0.12260939 -0.19300282 -0.2736315
0.029999295 -0.03498305 -0.06575991 -0.14505433 -0.063690305 -0.12228867 -0.19484982 -0.09185722
-0.0700185 0.034389764 0.030475356 0.13624604 -0.18771005 -0.14070024 -0.20159037 -0.097756796
-0.09034654 -0.13270535 0.0062120124 0.12842847 0.18343298 0.13307805 0.10061125 0.081052214
0.1064514 0.032490082 -0.062003262 -0.060376067 -0.026296744 0.08402667 0.20014317 0.14470181
0.1776444 0.0024846718 -0.19677958 -0.16026187 -0.0003108018 -0.015135771 -0.1119248 -0.14996448
-0.08140597 -0.047429696 0.026374772 0.06653037 0.015591396 0.112172216 0.03771128 0.10607617
-0.066785224 -0.106514394 -0.037760355 -0.08675626 -0.1210954 -0.022649936 0.003366713 0.058194995
0.11769811 0.15312853 0.047115333 0.12326929 -0.19880754 -0.22303437 -0.22011374 0.03177818
0.023659777 0.030635523 0.097405 0.20516407 0.21807146 0.097215496 0.018979479 -0.021968968
-0.07003745 -0.020995133 -0.05623824 -0.0054316 0.04905157 -0.025936117 -0.08782147 -0.03896476
0.014068206 -0.0776027 -0.09009392 0.014405646 0.0692761 -0.02965122 -0.032433387 -0.06383778
0.07638054 0.06587198 0.0038980679 -0.02610883 0.012683395 0.04741251 0.06132691 0.032566223
-0.06962904 -0.049578547 0.03847273 -0.054088864 -0.06470815 0.036134727 -0.0054339017 -0.08370621
0.047890455 -0.061266236 -0.0154488925 -0.058071744 -0.015671201 0.0004868072 0.06469456 -0.030697422
0.061167087 -0.044954922 -0.0028284118 -0.0368855 -0.04134208 0.07580434 0.044033248 0.064921446
-0.082912825 -0.08582081 0.06289522 -0.022290185 -0.049824044 0.0315168 0.0050005447 0.037581347
0.004939133 -0.079382755 0.022493824 -0.01974067 -0.035385363 -0.051999807 0.01515279 -0.076574795
-0.04192396 -0.050154332 0.059215434 -0.06511182 -0.03138342 -0.041515056 -0.08105286 -0.00088172307
0.026379034 -0.024090705 -0.085624546 -0.05680185 -0.04927408 -0.06291563 0.06569068 -0.070293814
0.06976076 -0.05581949 0.06113392 -0.06419055 0.03998779 0.020516181 0.023677452 -0.049314573
-0.087891586 -0.029176092 0.023885505 0.066302255 -0.012923912 -0.024173053 0.062174417 0.0758928
-0.024762815 -0.0010006735 0.017990362 0.06671815 -0.05161357 0.011483608 0.0190431 0.026003283
0.06539211 0.035891216 -0.08947983 0.021749903 -0.06096005 0.016747875 -0.0047189784 0.057510372
00000000: cf0c 00bd 00a0 15be 7f55 11be 9044 7b3b
00000010: 3a07 85bc 7664 a73d 69db 193e 8b10 0e3e
00000020: 5ee7 fa3d 4b53 1cbe 0b25 ae3c 745c 403c
00000030: c1a2 5c3e 1f98 4c3e 5101 823e 7ade fb3d
00000040: a74e b6bd 181b 13be 8d96 3b3e a52e fe3d
00000050: e182 083e cdaa ae3d b24a 07be f482 1bbe
00000060: b60d 70be 7fd2 57be 80a8 3ebe 767f aebd
00000070: fc1b 58bd fb38 21bc a442 2c3e 6a64 bb3d
00000080: 342e 1d3e 5333 e43c 463a e03b 1b78 48bd
00000090: 9d21 4e3d ceda 04bd 2879 d2bc cede c2bd
000000a0: a984 06be 8d0d 54bc ec76 493d 32e4 583d
000000b0: 61fa d73d 6d24 57bd 5d1f b33d ef96 f63d
000000c0: 2aa1 1d3e 0cda 023e 28da bb3d b97a a93d
000000d0: 7a81 abbd 1bea 92bd 11d4 a13d 0b75 183e
000000e0: 3f0b fb3d 4df5 0bbd 715c 03be ebe6 70bd
000000f0: 674a 05be 3f07 35be 5ecd f0bd d54b 58bc
00000100: 4892 923d b097 1e3e 911e e03c ede1 f53c
00000110: 2d64 483d a21a fbbd 88a2 45be 6e19 8cbe
00000120: 15c1 f53c 634a 0fbd 22ad 86bd 1f89 14be
00000130: 1070 82bd 7b72 fabd b686 47be a31f bcbd
00000140: dc65 8fbd 48dc 0c3d 74a7 f93c 1584 0b3e
00000150: 1037 40be b913 10be b56d 4ebe b734 c8bd
00000160: 9b07 b9bd e9e3 07be 238e cb3b c182 033e
00000170: dbd5 3b3e 9d45 083e 450d ce3d b4fe a53d
00000180: 3103 da3d 5214 053d 22f7 7dbd e54c 77bd
00000190: 456c d7bc 2d16 ac3d 55f2 4c3e b62c 143e
000001a0: 6ae8 353e e0d5 223b 9680 49be b01b 24be
000001b0: 1df3 a2b9 06fc 77bc d438 e5bd 4a90 19be
000001c0: 2cb8 a6bd a445 42bd e80f d83c 1341 883d
000001d0: 0e73 7f3c 8cba e53d 2577 1a3d 773e d93d
000001e0: b1c6 88bd 3824 dabd 9aaa 1abd 44ad b1bd
000001f0: dd00 f8bd 5c8c b9bc 12a4 5c3b e05d 6e3d
00000200: b50b f13d bacd 1c3e 02fc 403d 9c74 fc3d
00000210: 3494 4bbe 1f63 64be 7f65 61be d629 023d
00000220: 26d2 c13c 59f7 fa3c 467c c73d 8816 523e
00000230: 204e 5f3e eb18 c73d da7a 9b3c 44f8 b3bc
00000240: cb6f 8fbd fcfd abbc 125a 66bd 90fb b1bb
00000250: 4dea 483d fb77 d4bc bedb b3bd 8399 1fbd
00000260: 557e 663c 2aee 9ebd 2983 b8bd a905 6c3c
00000270: a1e0 8d3d 1ee7 f2bc dfd8 04bd 62bd 82bd
00000280: 676d 9c3d e3e7 863d ba76 7f3b 2fe2 d5bc
00000290: 04ce 4f3c 9f33 423d ed31 7b3d 2964 053d
000002a0: ac99 8ebd e012 4bbd 9595 1d3d 498c 5dbd
000002b0: b585 84bd 0202 143d df0e b2bb 296e abbd
000002c0: c828 443d 4ef2 7abd 5a1d 7dbc a3dc 6dbd
000002d0: e460 80bc 283a ff39 957e 843d 2979 fbbc
000002e0: 578a 7a3d a722 38bd e05c 39bb 4015 17bd
000002f0: 5056 29bd 4e3f 9b3d 355c 343d 89f5 843d
00000300: 33ce a9bd d2c2 afbd 36cf 803d e899 b6bc
00000310: 4c14 4cbd c317 013d 9cdb a33b e6ee 193d
00000320: 73d8 a13b 6d93 a2bd f844 b83c 30b7 a1bc
00000330: 3ef0 10bd c0fd 54bd 6843 783c 3fd3 9cbd
00000340: 75b8 2bbd a16e 4dbd e28b 723d 5959 85bd
00000350: e78b 00bd b10b 2abd 0bff a5bd 6f23 67ba
00000360: d818 d83c df59 c5bc ec5b afbd 0fa9 68bd
00000370: 9ed3 49bd e9d9 80bd d688 863d 34f6 8fbd
00000380: bbde 8e3d faa2 64bd 9067 7a3d 5676 83bd
00000390: 3dca 233d 8d11 a83c 37f7 c13c 14fe 49bd
000003a0: 8100 b4bd b302 efbc 89ab c33c 7ac9 873d
000003b0: d1be 53bc 9106 c6bc 9aaa 7e3d af6d 9b3d
000003c0: 63db cabc 0829 83ba 8660 933c 87a3 883d
000003d0: c068 53bd be25 3c3c 4600 9c3c d604 d53c
000003e0: 4cec 853d ab02 133d 3341 b7bd da2c b23c
000003f0: 3fb1 79bd d732 893c a9a1 9abb ff8f 6b3d

conv2.bias f4 [32]
0.02059424 -0.07776892 -0.049613014 0.008306475 0.06130375 -0.056422994 0.0036741926 0.031823777
0.02860151 0.018943597 -0.06768055 0.06682021 -0.021652538 -0.093996115 -0.01068726 -0.03378017
0.05421797 -0.05320897 0.06836629 -0.06563719 -0.09976995 -0.021532279 0.012428606 0.080158256
0.059450954 0.038111873 0.010470689 -0.061694417 0.041808084 -0.028313084 0.05434174 -0.0010362013
00000000: 40b5 a83c 5045 9fbd 0437 4bbd e217 083c
00000010: a419 7b3d cc1b 67bd b9ca 703b a659 023d
00000020: b74d ea3c 9a2f 9b3c 1a9c 8abd 09d9 883d
00000030: aa60 b1bc 0981 c0bd 9e19 2fbc 135d 0abd
00000040: aa13 5e3d a6f1 59bd a003 8c3d cb6c 86bd
00000050: 3054 ccbd 7664 b0bc 5aa1 4b3c 032a a43d
00000060: d882 733d 321b 1c3d 418d 2b3c 49b3 7cbd
00000070: f43e 2b3d d7f0 e7bc 7295 5e3d 25d1 87ba

fc1.weight f4 [100, 800]
0.0049789473 0.016886236 0.028281037 0.02932233 -0.030504378 -0.03907027 -0.013492859 -0.038318284
-0.035567064 0.005043903 -0.019792128 -0.031204464 -0.011516479 0.006000036 0.022281706 0.012727207
-0.021941248 0.0065012993 -0.03813824 0.017802289 -0.014984665 -0.012009216 -0.03713834 -0.018292252
0.023417799 0.02964149 0.019479275 0.031324264 -0.032920167 -0.027575003 0.022591375 0.016951324
-0.0023202968 -0.033758275 0.031392355 0.017583493 0.017182866 0.018561352 0.027642893 -0.0285181
0.0014420375 0.008249817 0.005598291 0.016864918 0.023093266 -0.0082814675 0.016265545 0.020659601
0.012316193 -0.0022544854 -0.017559228 -0.0007215033 -0.020409733 -0.022649564 -0.021647584 0.012844527
-0.010722011 -0.0036394154 -0.014501838 0.018856354 -0.028288722 0.009687704 -0.012657829 0.01792612
0.028721336 0.00456608 0.0092790015 0.022929858 -0.040038943 -0.0006473613 -0.009512987 0.024794817
0.003633147 0.016462393 -0.0011299407 0.026405018 -0.036014296 0.009014385 0.0026759391 -0.022873195
-0.021210022 -0.009349836 -0.008757028 -0.034398485 0.013850893 -0.011459342 0.025695626 0.022360528
-0.013007579 -0.019277278 -0.025578098 0.023109838 -0.034706432 -0.027863257 -0.0038094828 0.006431658
0.0075532156 0.01573929 -0.022897309 -0.013248693 0.016894648 0.0067395726 0.015968738 -0.041077614
-0.036361873 0.004716662 0.008759679 0.016066493 0.015324496 0.016829299 -0.012126508 0.016891811
0.0049517574 0.020253953 -0.0136726 -0.004449955 -0.009926334 0.012654981 -0.0018545667 -0.01504093
0.020157311 -0.0008078756 0.0131194545 -0.020354541 0.018729435 -0.00088281464 0.005864498 0.023250172
-0.008419384 -0.021608522 -0.03756301 0.025834577 0.021870611 -0.033425987 0.017712826 0.007610822
0.020004908 -0.029477518 -0.004676532 0.0037464243 -0.014016788 0.015201052 -0.025937544 0.0051798923
0.007871419 -0.021762539 -0.030322194 -0.020118704 0.02082289 -0.017136052 -0.009598666 -0.016903033
0.0179494 0.0008899777 -0.0343005 0.017618438 -0.03629016 -0.036508303 -0.0106582325 0.020099998
0.012964757 -0.012222515 0.017427022 -0.029628998 -0.037963778 -0.017159116 -0.03416254 0.017997786
0.016675225 -0.018433718 -0.036254127 -0.015647322 -0.014132995 -0.007240413 -0.028909719 -0.011122184
-0.031503372 -0.037111465 -0.027630495 0.024201756 -0.035399694 0.019821238 0.004467979 0.01012187
0.0018671975 -0.022389509 -0.0091877775 0.026137037 0.018731376 -0.033886157 -0.001307198 0.000952485
0.023623485 -0.02268649 0.026174627 0.0052199243 -0.033617064 0.0015375714 0.0075059687 0.005464067
0.028358564 -0.008756384 -0.0012834934 -0.035704322 -0.008222642 -0.00915619 0.0249185 -0.01298071
-0.0057321275 0.027883893 0.015721818 -0.009404128 0.02859046 -0.0023196617 0.020888912 0.022117626
-0.023232998 0.008521566 0.020142924 -0.030867113 0.027170578 0.0018551985 -0.00030286965 0.0029682806
-0.0198845 -0.0056917844 0.0075520403 -0.031105878 -0.004660948 -0.038385496 0.010231091 0.025425106
-0.0030792302 -0.00022616348 -0.0098211365 0.0027947964 -0.027621334 -0.02063727 -0.00060944277 -0.020331109
-0.016617103 0.0035326441 0.010791662 -0.011606886 -0.031189274 0.023065295 -0.032034256 -0.026803184
-0.03925113 -0.018929671 0.014941795 0.002975534 0.021775553 -0.014748436 0.014911127 -0.0074605295
00000000: 7026 a33b 0155 8a3c a2ad e73c 6235 f03c
00000010: 51e4 f9bc 2608 20bd 2711 5dbc a2f3 1cbd
00000020: c5ae 11bd 5347 a53b 1a23 a2bc 81a0 ffbc
00000030: 9daf 3cbc f39b c43b 2088 b63c c685 503c
00000040: 22be b3bc da08 d53b d836 1cbd 1bd6 913c
00000050: 3e82 75bc 4dc2 44bc 5f1e 18bd a2d9 95bc
00000060: afd6 bf3c b6d2 f23c 0093 9f3c df4d 003d
00000070: 4cd7 06bd f9e4 e1bc 8c11 b93c 81dd 8a3c
00000080: 1f10 18bb 1e46 0abd 4595 003d 420b 903c
00000090: 15c3 8c3c fa0d 983c 5973 e23c ca9e e9bc
000000a0: c002 bd3a 3e2a 073c de71 b73b 4c28 8a3c
000000b0: 172e bd3c feae 07bc 523f 853c 533e a93c
000000c0: dcc9 493c fdbf 13bb 5fd8 8fbc 4423 3dba
000000d0: 5032 a7bc 948b b9bc 4656 b1bc da71 523c
000000e0: 60ab 2fbc 4283 6ebb 1e99 6dbc a478 9a3c
000000f0: c0bd e7bc 2db9 1e3c c862 4fbc ccd9 923c
00000100: 0249 eb3c 0e9f 953b f406 183c 66d7 bb3c
00000110: e0ff 23bd aeb3 29ba 5cdc 1bbc 801e cb3c
00000120: 181a 6e3b 24dc 863c 851a 94ba 564f d83c
00000130: ba83 13bd 12b1 133c cf5e 2f3b 9160 bbbc
00000140: a4c0 adbc 0e30 19bc a379 0fbc 6de5 0cbd
00000150: dbee 623c f7bf 3bbc a27f d23c 6d2d b73c
00000160: be1d 55bc 62eb 9dbc 2989 d1bc d850 bd3c
00000170: 5528 0ebd 7c41 e4bc 84a8 79bb a8c0 d23b
00000180: f780 f73b afef 803c 2393 bbbc 0c11 59bc
00000190: a566 8a3c a2d7 dc3b dfd0 823c 0041 28bd
000001a0: 30f0 14bd 3b8e 9a3b c284 0f3c e19d 833c
000001b0: 9813 7b3c 99dd 893c 43ae 46bc b260 8a3c
000001c0: 5a42 a23b 9eeb a53c 0a03 60bc eed0 91bb
000001d0: 10a2 22bc d656 4f3c ef14 f3ba 3c6e 76bc
000001e0: f220 a53c 9dc7 53ba fbf2 563c 91be a6bc
000001f0: 796e 993c b06c 67ba fa2a c03b 2577 be3c
00000200: 75f1 09bc 5b04 b1bc acdb 19bd 09a3 d33c
00000210: ff29 b33c b0e9 08bd 7d1a 913c 3464 f93b
00000220: 55e1 a33c d67a f1bc 983d 99bb 9286 753b
00000230: aca6 65bc d50d 793c f97a d4bc 16bc a93b
00000240: 20f7 003c 5a47 b2bc 4066 f8bc fbcf a4bc
00000250: c494 aa3c e860 8cbc b943 1dbc 3b78 8abc
00000260: 9f0a 933c 644d 693a ae7e 0cbd 8b54 903c
00000270: fea4 14bd bb89 15bd de9f 2ebc c0a8 a43c
00000280: 226a 543c f240 48bc 1dc3 8e3c 83b8 f2bc
00000290: e87f 1bbd 4691 8cbc 05ee 0bbd 1870 933c
000002a0: 7b9a 883c 4f02 97bc 357f 14bd d02e 80bc
000002b0: 148e 67bc fd40 edbb 13d4 ecbc d239 36bc
000002c0: ae09 01bd 3102 18bd 5959 e2bc c342 c63c
000002d0: 45ff 10bd 2660 a23c 2068 923b 33d6 253c
000002e0: c0bc f43a 346a b7bc 5588 16bc 571d d63c
000002f0: 8b72 993c 36cc 0abd 4956 abba 30b0 793a
00000300: 0a86 c13c 05d9 b9bc 2c6c d63c e60b ab3b
00000310: 0cb2 09bd 5688 c93a a1f4 f53b eb0b b33b
00000320: 3850 e83c f076 0fbc e43a a8ba b23e 12bd
00000330: 43b8 06bc d803 16bc e221 cc3c 0bad 54bc
00000340: 92d4 bbbb c36c e43c 0bcb 803c c613 1abc
00000350: 8a36 ea3c 7705 18bb 391f ab3c 0630 b53c
00000360: 2153 bebc 0a9e 0b3c c602 a53c 07dd fcbc
00000370: d594 de3c 222a f33a 7aca 9eb9 7c87 423b
00000380: d2e4 a2bc 2682 babb 1b77 f73b c1d1 febc
00000390: deba 98bb 1c3a 1dbd 4ea0 273c 5048 d03c
000003a0: e9cc 49bb 4c26 6db9 d5e8 20bc e728 373b
000003b0: 2346 e2bc 7e0f a9bc 03c3 1fba 6d8d a6bc
000003c0: 9720 88bc ef83 673b 83cf 303c cf2a 3ebc
000003d0: a680 ffbc 6ef3 bc3c 5a36 03bd 5a92 dbbc
000003e0: cbc5 20bd 6612 9bbc 6ece 743c 2d01 433b
000003f0: a562 b23c 6da3 71bc cd4d 743c 7577 f4bb

fc1.bias f4 [100]
-0.038094774 -0.0011449913 0.022609686 -0.03082657 -0.005522611 0.019741906 -0.006368868 -0.033808883
0.04508177 0.033504426 0.018367898 0.026181756 0.012809733 -0.003726359 -0.011892696 0.022192547
-0.00803994 -0.02971173 0.025495728 -0.014587617 0.031931687 0.0032601496 -0.011100514 0.0043373206
-0.0070430916 -0.0032693252 0.023944853 0.02022912 -0.018715873 -0.036858108 0.022986514 0.009847153
-0.029381748 0.016849648 -0.01769934 0.029904144 0.005432824 0.001747942 -0.022548234 0.003920822
-0.0009086188 -0.02775371 -0.029231865 -0.030490575 0.042293392 -0.005637884 -0.03719794 0.033601105
0.00509352 0.0103730075 -0.024863437 0.00032038812 0.011630826 0.014121249 -0.036092516 0.011143822
-0.01277046 0.024439987 -0.03691536 -0.036007605 -0.0450183 0.0052864715 0.038969006 0.0096173845
-0.02430552 -0.02670247 0.03811747 0.013825695 -0.027301727 0.027670806 -0.030743806 0.028286956
0.0035273896 0.015950592 -0.03484215 -0.0034028701 0.007045946 0.00459209 -0.0070702503 -0.037935913
0.022426601 -0.010166357 0.001849679 -0.023702044 -0.025354119 0.02470878 -0.005304096 0.017659925
0.02048952 0.0058039385 0.008011762 0.007314804 0.03858779 0.0076366332 0.022368355 0.057130057
-0.02333553 -0.03015123 -0.020669397 0.013462975
00000000: 4409 1cbd 8813 96ba f337 b93c 0188 fcbc
00000010: 05f7 b4bb c7b9 a13c f0b1 d0bb 2f7b 0abd
00000020: a9a7 383d f03b 093d 4678 963c 1f7b d63c
00000030: eadf 513c ee35 74bb 95d9 42bc 25cd b53c
00000040: f4b9 03bc 0466 f3bc 6bdc d03c e600 6fbc
00000050: cdca 023d 3ca8 553b eede 35bc 1520 8e3b
00000060: bcc9 e6bb 2d42 56bb ff27 c43c 8ab7 a53c
00000070: 0852 99bc 87f8 16bd 374e bc3c f455 213c
00000080: feb1 f0bc 4608 8a3c 35fe 90bc 89f9 f43c
00000090: d505 b23b 331b e53a 13b7 b8bc 3d7a 803b
000000a0: 6030 6eba c05b e3bc aa77 efbc 5fc7 f9bc
000000b0: d63b 2d3d 00be b8bb de5c 18bd 50a1 093d
000000c0: 8be7 a63b 8cf3 293c 68ae cbbc c4f9 a739
000000d0: 388f 3e3c d05c 673c bfd5 13bd 9494 363c
000000e0: 313b 51bc 5e36 c83c 8f34 17bd b67c 13bd
000000f0: 1c65 38bd 233a ad3b f79d 1f3d 3c92 1d3c
00000100: 5f1c c7bc 23bf dabc 1021 1c3d 2b85 623c
00000110: dfa7 dfbc e3ad e23c 6fda fbbc 0cba e73c
00000120: c72b 673b d1aa 823c a4b6 0ebd b002 5fbb
00000130: aee1 e63b 3e79 963b 8fad e7bb b062 1bbd
00000140: feb7 b73c cb90 26bc ee70 f23a ca2a c2bc
00000150: 71b3 cfbc 116a ca3c fbcd adbb 8cab 903c
00000160: a3d9 a73c f72e be3b c443 033c 06b1 ef3b
00000170: 3b0e 1e3d b93c fa3b d73d b73c 3501 6a3d
00000180: 272a bfbc b6ff f6bc de52 a9bc cf93 5c3c

fc2.weight f4 [10, 100]
0.08247253 0.074855074 0.03053941 0.068211496 0.05576866 -0.06560421 -0.14787316 -0.024538996
0.04344574 -0.07991133 0.05664062 -0.009850587 0.027665474 -0.03834231 0.01392637 -0.010862075
0.12798786 0.021952491 0.044505157 -0.0371075 0.011363292 -0.07872177 0.00090006343 0.008727433
0.01997709 -0.17265335 0.015638234 -0.08042267 -0.09217371 0.08725951 -0.08574078 -0.0615599
-0.088245936 -0.012767528 -0.049042683 -0.01963338 0.12571976 -0.09297734 -0.003342549 -0.071261786
0.03744615 -0.0798423 -0.09137039 -0.06142465 0.07931883 0.012331443 0.030221388 0.0945399
0.09507544 0.119561106 -0.067376286 0.097502306 0.16710165 0.038351253 -0.11278528 -0.007290579
0.08039737 -0.0026198595 -0.09188785 -0.046972286 -0.0026049835 -0.08182983 -0.10296522 -0.051395845
0.06275104 0.13046096 0.08809377 0.09386937 -0.12966985 -0.045819066 -0.03445895 -0.13130628
-0.007978058 0.05699558 -0.012606897 -0.0028877654 0.016732648 0.09475663 0.092347406 0.030144686
0.08565802 0.016966077 -0.046828147 -0.07097905 0.05329291 -0.023952553 -0.10825566 -0.10355668
-0.081204765 0.009593378 -0.15397246 0.10483597 0.01845542 -0.06286727 0.00017100343 0.04809907
-0.10989234 0.07335254 0.09030616 0.089219786 0.09275187 -0.041943695 -0.010457411 0.025553733
-0.11911759 -0.11693221 0.06539668 0.07076581 -0.07007168 0.14025675 -0.08698712 0.06171533
0.0038843958 0.0003070183 0.042847343 -0.045739498 0.08009338 0.0024332644 -0.02008716 -0.05377087
-0.08372331 0.05519159 -0.1442226 0.033852857 0.14086439 0.07464902 -0.027534762 -0.101486795
0.06323102 -0.004171592 0.066469744 -0.095038615 -0.027765697 -0.060722534 -0.0033462576 0.119774714
-0.08957558 0.076980345 -0.003046306 -0.08448351 0.08696703 -0.009647377 -0.095856205 -0.016968846
-0.066050254 -0.1450565 0.08955378 0.024365785 0.08727543 -0.12675111 -0.11882469 0.012168583
0.002750232 0.10382321 -0.13160364 -0.018327884 -0.08554887 -0.16606742 -0.06667252 -0.067955494
-0.017293178 0.0820344 -0.0024861044 -0.042629786 -0.045134623 -0.10958259 0.015945865 0.0451337
0.093826935 -0.03260432 0.015618183 0.0887027 0.050969098 -0.15546373 0.039745107 -0.009546357
0.08851402 -0.095199004 0.02676631 0.038853336 -0.02401314 0.1447135 -0.07968032 0.043673042
0.07190857 -0.08404085 0.0029897082 0.04022494 -0.03969086 0.07136338 -0.12858385 -0.087995246
0.027166326 0.09954805 -0.15895885 0.14351007 0.040200803 -0.14096758 0.004408549 -0.09832555
0.057641085 -0.073509775 -0.015767286 0.03236411 0.021168835 0.029579354 -0.13891165 -0.051407
0.06956638 -0.105451904 0.017368646 -0.15235351 0.040414657 0.015956808 0.09177052 0.12625973
0.14713386 -0.043425865 0.06806524 -0.01728302 0.04923352 0.058710057 0.12689042 0.05403667
0.062252473 -0.09286678 -0.0036442212 0.017551523 0.04044097 0.013982878 0.040380824 -0.038660917
-0.09802438 -0.13605967 -0.038222987 -0.11621049 0.017352367 0.02004149 -0.001913604 0.018868858
0.058576327 -0.06985389 0.067799516 -0.09823712 -0.08610317 0.10107891 -0.09164916 0.053363256
-0.036211587 0.029430274 0.042492617 -0.1253849 -0.033513546 0.0744107 0.07901075 0.04638928
00000000: 5ce7 a83d 9e4d 993d c92d fa3c 78b2 8b3d
00000010: ae6d 643d 805b 86bd 106c 17be 0106 c9bc
00000020: 29f4 313d 8da8 a3bd ffff 673d 5b64 21bc
00000030: b4a2 e23c d30c 1dbd 6e2b 643c d8f6 31bc
00000040: 400f 033e b6d5 b33c 0a4b 363d 09fe 17bd
00000050: 1a2d 3a3c e138 a1bd 3cf2 6b3a 82fd 0e3c
00000060: ffa6 a33c 0acc 30be c11b 803c a4b4 a4bd
00000070: 92c5 bcbd 1db5 b23d dd98 afbd 3c26 7cbd
00000080: 49ba b4bd e52e 51bc fbe0 48bd 2fd6 a0bc
00000090: aebc 003e e76a bebd ab0e 5bbb b3f1 91bd
000000a0: 2261 193d 5c84 a3bd 6620 bbbd 6a98 7bbd
000000b0: e971 a23d d209 4a3c d892 f73c 239e c13d
000000c0: eab6 c23d 74dc f43d 94fc 89bd 4aaf c73d
000000d0: b21c 2b3e 3416 1d3d f8fb e6bd cfe5 eebb
000000e0: 60a7 a43d f3b1 2bbb b22f bcbd 0366 40bd
000000f0: 5fb8 2abb 6696 a7bd 6edf d2bd 7384 52bd
00000100: 9e83 803d 8f97 053e 826a b43d 963e c03d
00000110: 2cc8 04be c6ac 3bbd d424 0dbd 2775 06be
00000120: 67b6 02bc 3374 693d 298d 4ebc aa40 3dbb
00000130: e812 893c c40f c23d a320 bd3d fdf1 f63c
00000140: 796d af3d 71fc 8a3c dfce 3fbd 775d 91bd
00000150: ab49 5a3d 2538 c4bc 25b5 ddbd 8615 d4bd
00000160: af4e a6bd 8b2d 1d3c f5aa 1dbe 3eb4 d63d
00000170: d22f 973c 8ec0 80bd 624f 3339 8803 453d
00000180: 3c0f e1bd db39 963d 70f2 b83d ddb8 b63d
00000190: b1f4 bd3d 27cd 2bbd 9055 2bbc 1056 d13c
000001a0: ecf3 f3bd 287a efbd b2ee 853d aaed 903d
000001b0: be81 8fbd 779f 0f3e 4e26 b2bd 37c9 7c3d
000001c0: 5991 7e3b 4cf7 a039 b280 2f3d 5759 3bbd
000001d0: ff07 a43d 6777 1f3b d48d a4bc d83e 5cbd
000001e0: 2077 abbd 9410 623d 17af 13be 4ba9 0a3d
000001f0: c13e 103e 96e1 983d 9590 e1bc 4fd8 cfbd
00000200: 447f 813d dab1 88bb 4a21 883d 9ba3 c2bd
00000210: e374 e3bc 31b8 78bd e34c 5bbb 724c f53d
00000220: 6773 b7bd dfa7 9d3d 89a4 47bb b105 adbd
00000230: c51b b23d 0810 1ebc 4250 c4bd 4002 8bbc
00000240: 5b45 87bd b189 14be f967 b73d c19a c73c
00000250: 76bd b23d 0bcb 01be 5c5a f3bd bd5e 473c
00000260: 3c3d 343b 43a1 d43d 1bc3 06be 5c24 96bc
00000270: 3f34 afbd 940d 2abe 9a8b 88bd 402c 8bbd
00000280: 6caa 8dbc a701 a83d e9ed 22bb 929c 2ebd
00000290: 15df 38bd d66c e0bd e7a0 823c 1dde 383d
000002a0: 5628 c03d 1c8c 05bd 68e3 7f3c c3a9 b53d
000002b0: f9c4 503d e231 1fbe c4cb 223d 5368 1cbc
000002c0: d746 b53d b2f7 c2bd 0545 db3c ad24 1f3d
000002d0: 34b7 c4bc c72f 143e 702f a3bd 81e2 323d
000002e0: cd44 933d 9c1d acbd fbee 433b e8c2 243d
000002f0: e292 22bd f726 923d 7cab 03be da36 b4bd
00000300: ea8b de3c d9df cb3d 1cc6 22be 4ef4 123e
00000310: 99a9 243d ce59 10be 9775 903b e85e c9bd
00000320: 0f19 6c3d 4b8c 96bd 652a 81bc 3b90 043d
00000330: 446a ad3c 6750 f23c db3e 0ebe 2590 52bd
00000340: d178 8e3d 2bf7 d7bd b148 8e3c 8f02 1cbe
00000350: d789 253d dab7 823c 2ff2 bb3d 3b4a 013e
00000360: 42aa 163e 52df 31bd ca65 8b3d 1f95 8dbc
00000370: 16a9 493d f579 703d 90ef 013e 8e55 5d3d
00000380: 73fc 7e3d f030 bebd e3d3 6ebb 36c8 8f3c
00000390: 6ea5 253d 7118 653c 5d66 253d e95a 1ebd
000003a0: 02c1 c8bd 3a53 0bbe b58f 1cbd c4ff edbd
000003b0: 8d26 8e3c 0d2e a43c e5d1 faba dd92 9a3c
000003c0: bbed 6f3d 8e0f 8fbd 79da 8a3d 8b30 c9bd
000003d0: dc56 b0bd 7602 cf3d 8eb2 bbbd 6e93 5a3d
000003e0: 9a52 14bd c217 f13c bd0c 2e3d e664 00be
000003f0: 8045 09bd a364 983d 63d0 a13d b002 3e3d

fc2.bias f4 [10]
-0.08546602 0.10909307 0.051193517 -0.06129558 -0.07174945 -0.107250795 0.05634243 0.10775029
-0.06295352 -0.06662095
00000000: cf08 afbd 306c df3d 4bb0 513d 1311 7bbd
00000010: 60f1 92bd 4ea6 dbbd 52c7 663d 2fac dc3d
00000020: c6ed 80bd 9170 88bd
