model/epoch_5.pth (torch_old, 344967 bytes, 8 tensors)

conv1.weight f4 [16, 1, 3, 3]
00000000: da01 2ebe 2d4e 87be d666 1ebe 89cf 76be
00000010: 2560 d3be eadb 48be 5159 06bf c542 d9bd
00000020: 8780 d0be 21b9 803e acf2 633e 9004 c03c
00000030: 9992 a53e db89 003f 873a 35be 788a 2fbf
00000040: af5a cbbe 2881 efbb 3ecf 8fbd 04d1 5f3e
00000050: 5152 073f 19d3 0cbe e990 bb3e 52fd 443e
00000060: db10 ae3e f97a ac3e ea53 c53e aba4 cb3d
00000070: e115 d93e 0a01 ba3e 2ce0 28be 0952 cebd
00000080: 6ad8 b23e 8bb2 5bbd ae0c fabe 6dff dabd
00000090: 512b ddbe 830a 49be 8223 82be adb5 cdbe
000000a0: 02c5 11be 28e2 04be b97f a73e dce3 093e
000000b0: c83c de3d e1c7 a9bc 01ab dc3e f5f0 d13e
000000c0: 39ba 76be 8f1d b1bb 8e8d 343d 4270 f9be
000000d0: 0ea7 4a3e 1240 98bd 7343 7d3e a276 91be
000000e0: 5911 fdbe bccf 8fbc 0957 383e fc3a b73e
000000f0: 923d 65bd 2585 073f 3b13 7a3c df0c b23c
00000100: 82db 243e fb7d 513e 9e3a 5a3e 500b a43e
00000110: df65 dbbe 64c1 ca3e 2622 ae3e b4df 50bf
00000120: c9a2 ddbe f351 f53d 3f5a f83e 4416 c2be
00000130: 39a5 83be c295 543e bf28 9c3d 3045 6d3d
00000140: f701 ff3e 9428 2c3e c714 f7be 2810 303e
00000150: 785e 75be 88f4 03bf a329 283e 7a74 cabd
00000160: 3c1d 9c3e 8794 0c3f 0a1c 5e3e ceae 363e
00000170: d5e2 d33e dac0 d03e e80f 413d 3bbe 94bc
00000180: 1e07 18bd 1fbe b6be 211f c6be d37d edbd
00000190: 7a72 14be 4315 223f 26ff 733d 1857 adbe
000001a0: 450a 8b3e fea8 573e bd91 62be 0107 d1be
000001b0: e08a cabe 6190 26be 3577 a23d 4c94 45be
000001c0: 4ed5 c0be 70ca 8e3e fa50 7bbe e382 89be
000001d0: 2877 a83e 2d8a a6be a841 8e3e 9af0 ef3d
000001e0: 97c2 f3be e99f 01bd e7a6 14be d624 943e
000001f0: 7e98 a43c 2db7 0f3f 21c0 613e 90b2 963e
00000200: d314 d33c df2e 6a3e 22ff c43e 1838 183e
00000210: 59c8 13bf d199 5c3e 739d e83e a104 c73e
00000220: 19d1 b83e 32a2 ce3e b342 66be 52c1 99bd
00000230: 9a28 d8be 6e1a 2d3e 4e92 f8be a849 2d3e
-0.16992894 -0.2642683 -0.15468916 -0.24102606 -0.4128429 -0.1961514 -0.52480036 -0.106084384
-0.4072306 0.25141242 0.2226054 0.023439676 0.32338408 0.5021035 -0.17698108 -0.6857066
-0.39717624 -0.007309098 -0.0702195 0.21857077 0.5285998 -0.13752402 0.36633995 0.19237259
0.33997235 0.3368757 0.38540584 0.09943517 0.42399505 0.36328918 -0.16491765 -0.10074241
0.34930736 -0.05363707 -0.488378 -0.1069325 -0.4319711 -0.19632916 -0.25417715 -0.4017767
-0.14235309 -0.12976897 0.32714632 0.13465828 0.10851437 -0.020725193 0.43099216 0.41004148
-0.24094476 -0.005405135 0.04408031 -0.48718458 0.19790289 -0.074340954 0.24732761 -0.28410822
-0.49427298 -0.01755511 0.18001951 0.3578719 -0.05596692 0.5293754 0.015263374 0.021734653
0.1609936 0.20458214 0.21311423 0.3203988 -0.4285116 0.3960067 0.34010428 -0.81591344
-0.43288258 0.11978521 0.48506352 -0.37907612 -0.25711992 0.20760253 0.07624959 0.05792731
0.49806187 0.16812354 -0.4825804 0.17193663 -0.23961818 -0.51545 0.16422133 -0.098854974
0.30491054 0.54914135 0.21690384 0.1784012 0.41383997 0.40772134 0.04713431 -0.018157115
-0.037116162 -0.35691926 -0.38695624 -0.11596265 -0.14496794 0.6331369 0.0595695 -0.3385551
0.27156273 0.21060559 -0.22125907 -0.40825656 -0.39559078 -0.16266014 0.07932893 -0.19294852
-0.3766274 0.27888823 -0.24542609 -0.2685767 0.3290341 -0.32527295 0.27784467 0.11715813
-0.47609398 -0.031646643 -0.14516793 0.28934354 0.020092245 0.5613888 0.22045948 0.29433107
0.025766766 0.22869442 0.384759 0.14865148 -0.5772758 0.21543051 0.45432624 0.3887072
0.3609703 0.4035812 -0.22486381 -0.07507576 -0.42218477 0.16904613 -0.48549122 0.16922629

conv1.bias f4 [16]
00000000: 6290 863e c0de 5abd 7a3a 7cbd f6c2 763e
00000010: df1b 763e 9914 5f3e ca92 cb3e 72fb b53d
00000020: 0a89 9d3e a35b 533d 988b dd3e bc3d 1ebc
00000030: d3c1 afbd c7e5 903e f00e b03e c7da 573e
0.2628203 -0.053435087 -0.061579205 0.24097809 0.2403407 0.21785201 0.3976043 0.0888585
0.30768615 0.051601063 0.43270564 -0.009658273 -0.08581891 0.28300306 0.34386396 0.2107955

conv2.weight f4 [32, 16, 3, 3]
00000000: 5836 68bd bed1 42be 670a 16be 6af6 783c
00000010: 9b3f abbc afd3 ec3d d6c7 263e ff94 123e
00000020: 9e8f f23d 5d27 5fbe bbb8 b13b cfee ec3c
00000030: 7afc 8a3e 0cc9 903e 2bdc 973e 1a2a b63d
00000040: 63dd 5fbd 7300 79be d42d 6a3e 9bd1 3e3e
00000050: 35bb 503e 0263 a63d f5b5 dcbd 2fff 4ebe
00000060: b669 8fbe ada3 6cbe b0c4 cbbd 4417 b0bd
00000070: 3a03 bdbd 224e 1ebc 4579 7e3e 6f79 f23d
00000080: 6fef c33d 0c5b 063d 616f f1bc 8365 6ebe
00000090: bac0 043d 7b80 95bd cb88 77bd 8538 f6bd
000000a0: d03b 28be 2011 45ba e48c 8f3d b9a5 5f3d
000000b0: 046a e63d cbe9 48bc 12e9 a33d 37e5 cd3d
000000c0: 2c68 553e 33d9 223e 7158 373d 16a9 8c3d
000000d0: 9a95 01be 81b0 84be 3bed b73d 032b 353e
000000e0: e7e6 b53d 1876 d0bd 5933 46be 3ac0 65be
000000f0: 8722 4abe 206c 53be 14d0 91bd 5965 78bd
00000100: 507e 1d3e ec74 843e 8b83 d4bc 3d2f b63d
00000110: 5dd0 103e 9f91 5ebe 8e7e 78be d63c d3be
00000120: 13a0 693d 885a 02bd c761 86bd 3838 11be
00000130: 5909 81bd 1053 5cbe f94e 5cbe 24c7 07be
00000140: 912e ffbd d076 8b3d ea13 393d d6d7 033e
00000150: 144f 75be c6d7 47be e185 54be b311 d8bd
00000160: 9464 67bd b4fc afbd 053d a9bc 50e0 203e
00000170: 974d 8c3e 783b 263e 5b75 113e 8695 003e
00000180: f2a0 893d 70e4 9b3c 5265 55be 6e3d b9bd
00000190: 8ad2 f3bd 1687 f13d b15b 853e 0cb6 0c3e
000001a0: c1db c53d 2d7e 9ebc 6b5b 98be f1cc d1be
000001b0: b876 4c3b eec2 18bd 9336 dcbd 0e44 11be
000001c0: 8f9f bdbd 3583 4fbd 6763 e63c 3d44 813d
000001d0: c13b 623c ed0f 083e 4ee6 343d 6807 773d
000001e0: 8827 bdbd 69fe c8bd 792c dabd e1cb a2bd
000001f0: 60de ffbd 6e0b 0abd 7bc6 393d 724e 8b3d
00000200: 1b42 a53d 1843 343e 6b5c 683d 2f4a c33b
00000210: 3383 8abe 64b1 93be a411 8dbe 713a a6bc
00000220: e8f1 e1bb 8597 6c3d 6b64 0d3e 0351 7c3e
00000230: 5004 803e 2e99 d23d cc0f f53c 973f 1ebe
00000240: cb6f 8fbd fcfd abbc 125a 66bd 90fb b1bb
00000250: 4dea 483d fb77 d4bc bedb b3bd 8399 1fbd
00000260: 557e 663c 2aee 9ebd 2983 b8bd a905 6c3c
00000270: a1e0 8d3d 1ee7 f2bc dfd8 04bd 62bd 82bd
00000280: 676d 9c3d e3e7 863d ba76 7f3b 2fe2 d5bc
00000290: 04ce 4f3c 9f33 423d ed31 7b3d 2964 053d
000002a0: ac99 8ebd e012 4bbd 9595 1d3d 498c 5dbd
000002b0: b585 84bd 0202 143d df0e b2bb 296e abbd
000002c0: c828 443d 4ef2 7abd 5a1d 7dbc a3dc 6dbd
000002d0: e460 80bc 283a ff39 957e 843d 2979 fbbc
000002e0: 578a 7a3d a722 38bd e05c 39bb 4015 17bd
000002f0: 5056 29bd 4e3f 9b3d 355c 343d 89f5 843d
00000300: 33ce a9bd d2c2 afbd 36cf 803d e899 b6bc
00000310: 4c14 4cbd c317 013d 9cdb a33b e6ee 193d
00000320: 73d8 a13b 6d93 a2bd f844 b83c 30b7 a1bc
00000330: 3ef0 10bd c0fd 54bd 6843 783c 3fd3 9cbd
00000340: 75b8 2bbd a16e 4dbd e28b 723d 5959 85bd
00000350: e78b 00bd b10b 2abd 0bff a5bd 6f23 67ba
00000360: d818 d83c df59 c5bc ec5b afbd 0fa9 68bd
00000370: 9ed3 49bd e9d9 80bd d688 863d 34f6 8fbd
00000380: bbde 8e3d faa2 64bd 9067 7a3d 5676 83bd
00000390: 3dca 233d 8d11 a83c 37f7 c13c 14fe 49bd
000003a0: 8100 b4bd b302 efbc 89ab c33c 7ac9 873d
000003b0: d1be 53bc 9106 c6bc 9aaa 7e3d af6d 9b3d
000003c0: 63db cabc 0829 83ba 8660 933c 87a3 883d
000003d0: c068 53bd be25 3c3c 4600 9c3c d604 d53c
000003e0: 4cec 853d ab02 133d 3341 b7bd da2c b23c
000003f0: 3fb1 79bd d732 893c a9a1 9abb ff8f 6b3d
-0.05669245 -0.19025323 -0.14652406 0.015195468 -0.020904353 0.11563813 0.16287169 0.1431465
0.11843799 -0.2179236 0.005423633 0.028922467 0.2714575 0.28278387 0.29660162 0.08894749
-0.05465449 -0.24316578 0.22869045 0.18634646 0.20383914 0.08124353 -0.10776893 -0.20214532
-0.2801034 -0.23109312 -0.099496245 -0.085981876 -0.09229131 -0.009662183 0.24850948 0.11839568
0.09567153 0.032801673 -0.029472055 -0.23280911 0.03241036 -0.07299896 -0.06043319 -0.12022499
-0.16429067 -0.00075175054 0.07009295 0.054601405 0.112506896 -0.012262772 0.08003439 0.10053485
0.2084052 0.15903167 0.04476208 0.06868188 -0.12654725 -0.25915912 0.08980795 0.17692189
0.08881932 -0.101787746 -0.19355525 -0.2243661 -0.19739734 -0.20646715 -0.07119766 -0.060643528
0.15380216 0.25870454 -0.02594163 0.08895729 0.14141984 -0.21735238 -0.24267027 -0.41257352
0.057037424 -0.03182462 -0.06561618 -0.14181602 -0.06300611 -0.21516061 -0.215145 -0.1325956
-0.12460054 0.06809771 0.045185007 0.12875304 -0.23955947 -0.19515905 -0.20754196 -0.10550251
-0.056492403 -0.08593121 -0.02065898 0.15710568 0.27402946 0.16233623 0.14204924 0.12557039
0.06720151 0.019029826 -0.20839432 -0.0904492 -0.119053915 0.11793344 0.26046517 0.1374132
0.09661055 -0.019347275 -0.29757246 -0.4097667 0.0031198692 -0.037295274 -0.10752597 -0.14186117
-0.09258949 -0.05066224 0.02812357 0.063118435 0.013808192 0.13287325 0.04416495 0.060309798
-0.092360556 -0.0981415 -0.10653014 -0.07949043 -0.124935865 -0.033702306 0.0453553 0.06802072
0.08069249 0.17603719 0.05672876 0.005959771 -0.27053222 -0.28846276 -0.2755252 -0.020291539
-0.0068952926 0.057761688 0.13807838 0.24640279 0.2500329 0.10283123 0.02991476 -0.15453945
-0.07003745 -0.020995133 -0.05623824 -0.0054316 0.04905157 -0.025936117 -0.08782147 -0.03896476
0.014068206 -0.0776027 -0.09009392 0.014405646 0.0692761 -0.02965122 -0.032433387 -0.06383778
0.07638054 0.06587198 0.0038980679 -0.02610883 0.012683395 0.04741251 0.06132691 0.032566223
-0.06962904 -0.049578547 0.03847273 -0.054088864 -0.06470815 0.036134727 -0.0054339017 -0.08370621
0.047890455 -0.061266236 -0.0154488925 -0.058071744 -0.015671201 0.0004868072 0.06469456 -0.030697422
0.061167087 -0.044954922 -0.0028284118 -0.0368855 -0.04134208 0.07580434 0.044033248 0.064921446
-0.082912825 -0.08582081 0.06289522 -0.022290185 -0.049824044 0.0315168 0.0050005447 0.037581347
0.004939133 -0.079382755 0.022493824 -0.01974067 -0.035385363 -0.051999807 0.01515279 -0.076574795
-0.04192396 -0.050154332 0.059215434 -0.06511182 -0.03138342 -0.041515056 -0.08105286 -0.00088172307
0.026379034 -0.024090705 -0.085624546 -0.05680185 -0.04927408 -0.06291563 0.06569068 -0.070293814
0.06976076 -0.05581949 0.06113392 -0.06419055 0.03998779 0.020516181 0.023677452 -0.049314573
-0.087891586 -0.029176092 0.023885505 0.066302255 -0.012923912 -0.024173053 0.062174417 0.0758928
-0.024762815 -0.0010006735 0.017990362 0.06671815 -0.05161357 0.011483608 0.0190431 0.026003283
0.06539211 0.035891216 -0.08947983 0.021749903 -0.06096005 0.016747875 -0.0047189784 0.057510372

conv2.bias f4 [32]
00000000: 38e0 603c 5045 9fbd e1f1 9bbd 1519 403c
00000010: b4dc 663d 4e5c 4abd 32a6 79bc 258e 103d
00000020: 9040 8e3c bc35 433c 2ec7 a8bd 8381 683d
00000030: 63ff 90bc a511 e0bd f278 92bc 4059 73bd
00000040: a983 143d 90bd 78bd d6ce 393d 0978 8bbd
00000050: 3054 ccbd 671f b2bc ea54 80bb 0357 b43d
00000060: 7021 6a3d f457 1c3d d01f 5fba 6f73 a9bd
00000070: 6f79 373d dd14 2dbd dd52 263d 5ed0 bb3b
0.013725333 -0.07776892 -0.07614494 0.01172473 0.056362823 -0.049404435 -0.015237378 0.03529181
0.01736477 0.011914667 -0.082411155 0.056764137 -0.017699903 -0.109408654 -0.017879937 -0.059411287
0.036258373 -0.060727656 0.04536327 -0.06810004 -0.09976995 -0.02174349 -0.0039163725 0.08805659
0.057160795 0.038169816 -0.00085115153 -0.0827397 0.044793542 -0.042256225 0.04060637 0.0057316264

fc1.weight f4 [100, 800]
00000000: 7026 a33b 0155 8a3c a2ad e73c 6235 f03c
00000010: 51e4 f9bc 2608 20bd 2711 5dbc a2f3 1cbd
00000020: c5ae 11bd 5347 a53b 1a23 a2bc 81a0 ffbc
00000030: 9daf 3cbc f39b c43b 2088 b63c c685 503c
00000040: 22be b3bc da08 d53b d836 1cbd 1bd6 913c
00000050: 3e82 75bc 4dc2 44bc 5f1e 18bd a2d9 95bc
00000060: afd6 bf3c b6d2 f23c 0093 9f3c df4d 003d
00000070: 4cd7 06bd f9e4 e1bc 8c11 b93c 81dd 8a3c
00000080: 1f10 18bb 1e46 0abd 4595 003d 420b 903c
00000090: 15c3 8c3c fa0d 983c 5973 e23c ca9e e9bc
000000a0: c002 bd3a 3e2a 073c de71 b73b 4c28 8a3c
000000b0: 172e bd3c feae 07bc 523f 853c 533e a93c
000000c0: dcc9 493c fdbf 13bb 5fd8 8fbc 4423 3dba
000000d0: 5032 a7bc 948b b9bc 4656 b1bc da71 523c
000000e0: 60ab 2fbc 4283 6ebb 1e99 6dbc a478 9a3c
000000f0: c0bd e7bc 2db9 1e3c c862 4fbc ccd9 923c
00000100: 0249 eb3c 0e9f 953b f406 183c 66d7 bb3c
00000110: e0ff 23bd aeb3 29ba 5cdc 1bbc 801e cb3c
00000120: 181a 6e3b 24dc 863c 851a 94ba 564f d83c
00000130: ba83 13bd 12b1 133c cf5e 2f3b 9160 bbbc
00000140: a4c0 adbc 0e30 19bc a379 0fbc 6de5 0cbd
00000150: dbee 623c f7bf 3bbc a27f d23c 6d2d b73c
00000160: be1d 55bc 62eb 9dbc 2989 d1bc d850 bd3c
00000170: 5528 0ebd 7c41 e4bc 84a8 79bb a8c0 d23b
00000180: f780 f73b afef 803c 2393 bbbc 0c11 59bc
00000190: a566 8a3c a2d7 dc3b dfd0 823c 0041 28bd
000001a0: 30f0 14bd 3b8e 9a3b c284 0f3c e19d 833c
000001b0: 9813 7b3c 99dd 893c 43ae 46bc b260 8a3c
000001c0: 5a42 a23b 9eeb a53c 0a03 60bc eed0 91bb
000001d0: 10a2 22bc d656 4f3c ef14 f3ba 3c6e 76bc
000001e0: f220 a53c 9dc7 53ba fbf2 563c 91be a6bc
000001f0: 796e 993c b06c 67ba fa2a c03b 2577 be3c
00000200: 75f1 09bc 5b04 b1bc acdb 19bd 09a3 d33c
00000210: ff29 b33c b0e9 08bd 7d1a 913c 3464 f93b
00000220: 55e1 a33c d67a f1bc 983d 99bb 9286 753b
00000230: aca6 65bc d50d 793c f97a d4bc 16bc a93b
00000240: 20f7 003c 5a47 b2bc 4066 f8bc fbcf a4bc
00000250: c494 aa3c e860 8cbc b943 1dbc 3b78 8abc
00000260: 9f0a 933c 644d 693a ae7e 0cbd 8b54 903c
00000270: fea4 14bd bb89 15bd de9f 2ebc c0a8 a43c
00000280: 226a 543c f240 48bc 1dc3 8e3c 83b8 f2bc
00000290: e87f 1bbd 4691 8cbc 05ee 0bbd 1870 933c
000002a0: 7b9a 883c 4f02 97bc 357f 14bd d02e 80bc
000002b0: 148e 67bc fd40 edbb 13d4 ecbc d239 36bc
000002c0: ae09 01bd 3102 18bd 5959 e2bc c342 c63c
000002d0: 45ff 10bd 2660 a23c 2068 923b 33d6 253c
000002e0: c0bc f43a 346a b7bc 5588 16bc 571d d63c
000002f0: 8b72 993c 36cc 0abd 4956 abba 30b0 793a
00000300: 0a86 c13c 05d9 b9bc 2c6c d63c e60b ab3b
00000310: 0cb2 09bd 5688 c93a a1f4 f53b eb0b b33b
00000320: 3850 e83c f076 0fbc e43a a8ba b23e 12bd
00000330: 43b8 06bc d803 16bc e221 cc3c 0bad 54bc
00000340: 92d4 bbbb c36c e43c 0bcb 803c c613 1abc
00000350: 8a36 ea3c 7705 18bb 391f ab3c 0630 b53c
00000360: 2153 bebc 0a9e 0b3c c602 a53c 07dd fcbc
00000370: d594 de3c 222a f33a 7aca 9eb9 7c87 423b
00000380: d2e4 a2bc 2682 babb 1b77 f73b c1d1 febc
00000390: deba 98bb 1c3a 1dbd 4ea0 273c 5048 d03c
000003a0: e9cc 49bb 4c26 6db9 d5e8 20bc e728 373b
000003b0: 2346 e2bc 7e0f a9bc 03c3 1fba 6d8d a6bc
000003c0: 9720 88bc ef83 673b 83cf 303c cf2a 3ebc
000003d0: a680 ffbc 6ef3 bc3c 5a36 03bd 5a92 dbbc
000003e0: cbc5 20bd 6612 9bbc 6ece 743c 2d01 433b
000003f0: a562 b23c 6da3 71bc cd4d 743c 7577 f4bb
0.0049789473 0.016886236 0.028281037 0.02932233 -0.030504378 -0.03907027 -0.013492859 -0.038318284
-0.035567064 0.005043903 -0.019792128 -0.031204464 -0.011516479 0.006000036 0.022281706 0.012727207
-0.021941248 0.0065012993 -0.03813824 0.017802289 -0.014984665 -0.012009216 -0.03713834 -0.018292252
0.023417799 0.02964149 0.019479275 0.031324264 -0.032920167 -0.027575003 0.022591375 0.016951324
-0.0023202968 -0.033758275 0.031392355 0.017583493 0.017182866 0.018561352 0.027642893 -0.0285181
0.0014420375 0.008249817 0.005598291 0.016864918 0.023093266 -0.0082814675 0.016265545 0.020659601
0.012316193 -0.0022544854 -0.017559228 -0.0007215033 -0.020409733 -0.022649564 -0.021647584 0.012844527
-0.010722011 -0.0036394154 -0.014501838 0.018856354 -0.028288722 0.009687704 -0.012657829 0.01792612
0.028721336 0.00456608 0.0092790015 0.022929858 -0.040038943 -0.0006473613 -0.009512987 0.024794817
0.003633147 0.016462393 -0.0011299407 0.026405018 -0.036014296 0.009014385 0.0026759391 -0.022873195
-0.021210022 -0.009349836 -0.008757028 -0.034398485 0.013850893 -0.011459342 0.025695626 0.022360528
-0.013007579 -0.019277278 -0.025578098 0.023109838 -0.034706432 -0.027863257 -0.0038094828 0.006431658
0.0075532156 0.01573929 -0.022897309 -0.013248693 0.016894648 0.0067395726 0.015968738 -0.041077614
-0.036361873 0.004716662 0.008759679 0.016066493 0.015324496 0.016829299 -0.012126508 0.016891811
0.0049517574 0.020253953 -0.0136726 -0.004449955 -0.009926334 0.012654981 -0.0018545667 -0.01504093
0.020157311 -0.0008078756 0.0131194545 -0.020354541 0.018729435 -0.00088281464 0.005864498 0.023250172
-0.008419384 -0.021608522 -0.03756301 0.025834577 0.021870611 -0.033425987 0.017712826 0.007610822
0.020004908 -0.029477518 -0.004676532 0.0037464243 -0.014016788 0.015201052 -0.025937544 0.0051798923
0.007871419 -0.021762539 -0.030322194 -0.020118704 0.02082289 -0.017136052 -0.009598666 -0.016903033
0.0179494 0.0008899777 -0.0343005 0.017618438 -0.03629016 -0.036508303 -0.0106582325 0.020099998
0.012964757 -0.012222515 0.017427022 -0.029628998 -0.037963778 -0.017159116 -0.03416254 0.017997786
0.016675225 -0.018433718 -0.036254127 -0.015647322 -0.014132995 -0.007240413 -0.028909719 -0.011122184
-0.031503372 -0.037111465 -0.027630495 0.024201756 -0.035399694 0.019821238 0.004467979 0.01012187
0.0018671975 -0.022389509 -0.0091877775 0.026137037 0.018731376 -0.033886157 -0.001307198 0.000952485
0.023623485 -0.02268649 0.026174627 0.0052199243 -0.033617064 0.0015375714 0.0075059687 0.005464067
0.028358564 -0.008756384 -0.0012834934 -0.035704322 -0.008222642 -0.00915619 0.0249185 -0.01298071
-0.0057321275 0.027883893 0.015721818 -0.009404128 0.02859046 -0.0023196617 0.020888912 0.022117626
-0.023232998 0.008521566 0.020142924 -0.030867113 0.027170578 0.0018551985 -0.00030286965 0.0029682806
-0.0198845 -0.0056917844 0.0075520403 -0.031105878 -0.004660948 -0.038385496 0.010231091 0.025425106
-0.0030792302 -0.00022616348 -0.0098211365 0.0027947964 -0.027621334 -0.02063727 -0.00060944277 -0.020331109
-0.016617103 0.0035326441 0.010791662 -0.011606886 -0.031189274 0.023065295 -0.032034256 -0.026803184
-0.03925113 -0.018929671 0.014941795 0.002975534 0.021775553 -0.014748436 0.014911127 -0.0074605295

fc1.bias f4 [100]
00000000: 4409 1cbd 8813 96ba 755b d93c 94bd b3bc
00000010: 2a8d adbc dc94 723c 1b7e a1bc 2f7b 0abd
00000020: 882a 373d 4c42 023d 08f1 013d 5766 f43c
00000030: eadf 513c ee35 74bb aa93 06bb 05fa b63c
00000040: 0364 71ba 0466 f3bc 546b 213c 31ee e1bc
00000050: a797 eb3c f639 8ebc 1cbc febb 1520 8e3b
00000060: 6f73 373c f709 1cbc ff27 c43c a012 8b3c
00000070: a513 bdbc 87f8 16bd f74d bc3c d8e5 17bc
00000080: 84b1 2bbd 0e3a f73a 419a 9cbc 55ea 1b3d
00000090: e05d 473c bf3f 4a3c 13b7 b8bc 3d7a 803b
000000a0: 6030 6eba 13b6 fbbc aa77 efbc 5fc7 f9bc
000000b0: a609 8d3d 96ef 53bc de5c 18bd 353a 1f3d
000000c0: 1f66 823c 86f2 e03b 26b3 f4bc 2b27 ff3c
000000d0: 3039 0f3d 835c 0e3d aa18 32bd 9494 363c
000000e0: af5d 5dbc 3f0d 153c 8f34 17bd 88cc 4cbd
000000f0: 1c65 38bd 7b12 9339 a752 283d 8c70 0e3a
00000100: 3ce0 02bd 9374 e2bc 2b77 663d 9b15 083d
00000110: 00a8 febc e3ad e23c 6fda fbbc 1fa6 f83c
00000120: 4c4a 5bbb 2122 303c a4b6 0ebd b8a1 32bd
00000130: 0ed3 e23b 479f ebbb 25d2 c2bc b062 1bbd
00000140: 2824 b93c e350 babb ee70 f23a 013f d1bc
00000150: 71b3 cfbc 116a ca3c f2a7 b2bc ad99 ce3b
00000160: 50a3 a73c f72e be3b 80e6 18bc 2dd9 243c
00000170: 71de 553d 6272 db3c e5e9 663c b64e b43d
00000180: d8d2 59bc f85a f0bc 4c52 a9bc b20f b739
-0.038094774 -0.0011449913 0.026532868 -0.021940984 -0.021185476 0.014805999 -0.019713452 -0.033808883
0.044718295 0.031801507 0.031724006 0.029833956 0.012809733 -0.003726359 -0.0020534792 0.022336015
-0.00092083233 -0.02971173 0.009852249 -0.027579399 0.028758837 -0.017361622 -0.007773889 0.0043373206
0.011196955 -0.00952386 0.023944853 0.016976655 -0.023080656 -0.036858108 0.022986395 -0.009271108
-0.04191734 0.0018861906 -0.019116523 0.038065273 0.012168378 0.0123443 -0.022548234 0.003920822
-0.0009086188 -0.030726468 -0.029231865 -0.030490575 0.06886606 -0.01293554 -0.03719794 0.03887387
0.015917836 0.0068648485 -0.02987058 0.031146606 0.034966648 0.034756195 -0.043480553 0.011143822
-0.013511105 0.009097396 -0.03691536 -0.049999744 -0.0450183 0.00028051794 0.04109445 0.0005433641
-0.031952128 -0.027643478 0.05626599 0.03322373 -0.031085968 0.027670806 -0.030743806 0.03035265
-0.0033461032 0.010750324 -0.03484215 -0.04361126 0.0069221323 -0.007190618 -0.023781845 -0.037935913
0.022600248 -0.005685912 0.001849679 -0.025542738 -0.025354119 0.02470878 -0.021808598 0.0063049407
0.020463616 0.0058039385 -0.009332299 0.010061544 0.05221409 0.02678794 0.014093851 0.088040754
-0.013294898 -0.029340252 -0.020669125 0.00034916174

fc2.weight f4 [10, 100]
00000000: 5ce7 a83d 9e4d 993d 2dd8 e23c 8506 b83d
00000010: 0c52 663d a68a 9fbd ce61 22be 0106 c9bc
00000020: 0189 523d 17e6 97bd 8d25 b23d 2f5a 2f3b
00000030: b4a2 e23c d30c 1dbd be1b ed3c b03e 91bc
00000040: 5270 223e b6d5 b33c b84b 153d 09fe 17bd
00000050: 666e 633c e138 a1bd 4a5c 6f3a 82fd 0e3c
00000060: 5570 073d 57a3 3abe c11b 803c 1dc4 96bd
00000070: bdcd bcbd 1db5 b23d de98 afbd ed84 24bd
00000080: 431a 01be 11f0 68bd 1822 49bd 8975 32bd
00000090: e719 0e3e bfaa e3bd ab0e 5bbb b3f1 91bd
000000a0: 2261 193d 5c84 a3bd 6620 bbbd 6a98 7bbd
000000b0: 781a 953d bcf6 b63c d892 f73c eefd c23d
000000c0: db4f 703d 13b9 003e 2f28 e0bd e504 de3d
000000d0: 2ddf 2d3e a42f 6d3d 8d19 21be cfe5 eebb
000000e0: 75c2 bd3d 6501 093c b22f bcbd d00c a5bc
000000f0: 5fb8 2abb 357c 8bbd 5873 0abe e60f a4bd
00000100: 990d 223d 67c6 053e 94bc 9c3d 08a4 fa3d
00000110: b09d 1cbe c6ac 3bbd d424 0dbd c10d 1cbe
00000120: efd8 13bd c4b5 743d 298d 4ebc 23dd bf3c
00000130: 6e2b 893c be29 c23d a1ce 553d fdf1 f63c
00000140: c03c b43d 820a 5ebb dfce 3fbd 775d 91bd
00000150: ab49 5a3d 2538 c4bc 634d bfbd ab30 a1bd
00000160: 0af4 a5bd 8b2d 1d3c 7b8d 8bbe 8b2a e23d
00000170: d00d ed3c 78bb 50bd 1814 5ebc c2b4 453d
00000180: 342a 2cbe 6599 aa3d 3af2 b83d 5c41 943d
00000190: b1f4 bd3d 27cd 2bbd 2faf 9cbc b0ed 863d
000001a0: 33ec 11be 0228 08be 639c 843d aaed 903d
000001b0: 5fee e4bc ada1 0a3e 3814 57bd f28b f83d
000001c0: 5991 7e3b 4cf7 a039 7ac6 6a3d 90a3 b2bd
000001d0: 8a09 e13d 6777 1f3b ecd9 093c d83e 5cbd
000001e0: 4051 04be 9410 623d 6081 0ebe 4ba9 0a3d
000001f0: 32c2 1d3e 472b a13d 9590 e1bc 5437 c3bd
00000200: a2d2 313d dab1 88bb 4a21 883d 33d5 f9bd
00000210: 4fe4 adbb b93e 8abd 1f4d 5bbb f76b 113e
00000220: 941b e0bd 934d fb3d 89a4 47bb b105 adbd
00000230: c51b b23d 278a f23b 4250 c4bd 4002 8bbc
00000240: cf4d 0fbd 351b 58be f967 b73d bd6c c03c
00000250: a183 d33d 7f93 20be b0b5 36be acf7 5e3d
00000260: 3067 8c3d d767 293e 0faf 13be 5c24 96bc
00000270: 3425 c6bd 273f 76be 9a8b 88bd 1721 91bd
00000280: 6caa 8dbc 39e0 953d 09c4 c03c 8741 f83b
00000290: c07d 11bd efbb 0fbe 310c 3b3d 9995 893d
000002a0: dfed 8a3e 1c8c 05bd 68e3 7f3c 2cc7 c93d
000002b0: 2332 b13d 96be 67be c4cb 223d 49b5 44bd
000002c0: d746 b53d 4143 ddbd 5999 cb3c ad24 1f3d
000002d0: 2163 1c3c e88e 2a3e 702f a3bd 81e2 323d
000002e0: cd44 933d 9c1d acbd 62e8 05bd fd4c b93c
000002f0: e292 22bd f726 923d 5ae4 4dbe 8074 d7bd
00000300: 9ae2 613d 95da f43d f503 42be aec7 403e
00000310: 3d2b 783d 3de8 e9bd 2174 903b 2ebb 27be
00000320: 0f19 6c3d 4b8c 96bd 3c52 d2bc effc 833d
00000330: 8663 0c3d b663 233d 7302 1bbe 2590 52bd
00000340: 222d b53d bbb1 ddbd 1bbf 013e 5d21 82be
00000350: d789 253d dab7 823c e948 e33d 3e90 ef3d
00000360: 727e 493e 52df 31bd f30e ea3c 72bc 8dbc
00000370: 78fb 623d ee79 703d 0f95 063e 8e55 5d3d
00000380: b915 9b3d 72cf dfbd e3d3 6ebb 0519 ab3c
00000390: eb3a 903d 7118 653c 6266 253d d41a 38bd
000003a0: 6ae9 bebd 562b 21be 2e90 1cbd acd6 1abe
000003b0: 2187 9f3c b392 263c e5d1 faba dd92 9a3c
000003c0: bbed 6f3d 1010 8fbd 79da 8a3d 8b30 c9bd
000003d0: b1d2 b2bd d281 e03d 8eb2 bbbd 5cf3 5a3d
000003e0: 57d4 2fbd 9409 0c3d d7d2 133d db3d 47be
000003f0: de84 a53c 3f4f b93d e4a0 973d b002 3e3d
0.08247253 0.074855074 0.027690971 0.089856185 0.05623059 -0.07790117 -0.15857622 -0.024538996
0.05140019 -0.07416933 0.086985685 0.0026756634 0.027665474 -0.03834231 0.028943893 -0.017730087
0.1586316 0.021952491 0.036449164 -0.0371075 0.0138813015 -0.07872177 0.00091308786 0.008727433
0.033066113 -0.18226372 0.015638234 -0.073616244 -0.09218929 0.08725951 -0.08574079 -0.04016583
-0.12607674 -0.05686957 -0.04910478 -0.04356912 0.13877068 -0.111165516 -0.003342549 -0.071261786
0.03744615 -0.0798423 -0.09137039 -0.06142465 0.07280439 0.022334449 0.030221388 0.095210895
0.058669906 0.125706 -0.109451644 0.10840777 0.16979666 0.05790676 -0.15732403 -0.007290579
0.09265605 0.008362149 -0.09188785 -0.020147711 -0.0026049835 -0.068108 -0.13520563 -0.08010845
0.03956375 0.13063966 0.07653156 0.12238318 -0.15294528 -0.045819066 -0.03445895 -0.15239622
-0.036095556 0.059743658 -0.012606897 0.023420876 0.016744342 0.09480618 0.05219901 0.030144686
0.0880065 -0.0033880775 -0.046828147 -0.07097905 0.05329291 -0.023952553 -0.09340932 -0.07870611
-0.081031874 0.009593378 -0.2725638 0.11043271 0.02893725 -0.050960034 -0.013554595 0.048268087
-0.16812974 0.08330039 0.09030576 0.07239029 0.09275187 -0.041943695 -0.019126503 0.06588304
-0.14250259 -0.13296512 0.06475141 0.07076581 -0.027945695 0.13538237 -0.052509516 0.121360675
0.0038843958 0.0003070183 0.05731819 -0.08722603 0.109881476 0.0024332644 0.008413773 -0.05377087
-0.1292162 0.05519159 -0.1391654 0.033852857 0.15406111 0.078695826 -0.027534762 -0.095320374
0.043413766 -0.004171592 0.066469744 -0.12198868 -0.0053067575 -0.06750245 -0.0033462716 0.14201342
-0.1094276 0.122706555 -0.003046306 -0.08448351 0.08696703 0.007401723 -0.095856205 -0.016968846
-0.034986313 -0.21104129 0.08955378 0.02348935 0.103278406 -0.15681265 -0.17842746 0.054435417
0.06855619 0.16543518 -0.14422248 -0.018327884 -0.09675065 -0.24047528 -0.06667252 -0.070863895
-0.017293178 0.07318158 0.023530977 0.007576171 -0.035520315 -0.14036535 0.045665924 0.067179866
0.27134606 -0.03260432 0.015618183 0.09852442 0.08652141 -0.22631297 0.039745107 -0.04802445
0.08851402 -0.10803843 0.024853395 0.038853336 0.009545119 0.16656077 -0.07968032 0.043673042
0.07190857 -0.08404085 -0.03269232 0.022619719 -0.03969086 0.07136338 -0.2010664 -0.105202675
0.055147745 0.11955754 -0.18946822 0.18826172 0.06058811 -0.11421249 0.004408375 -0.16379997
0.057641085 -0.073509775 -0.025673978 0.06444728 0.0342746 0.039890014 -0.15137653 -0.051407
0.08846499 -0.10824915 0.12670557 -0.2541608 0.040414657 0.015956808 0.11097891 0.11697434
0.19677141 -0.043425865 0.028571581 -0.017301772 0.0554156 0.05871003 0.13142799 0.05403667
0.07572503 -0.10928239 -0.0036442212 0.020885954 0.07042488 0.013982878 0.040380843 -0.04494746
-0.09321864 -0.15739188 -0.038223438 -0.15120953 0.019473614 0.010166812 -0.001913604 0.018868858
0.058576327 -0.069854856 0.067799516 -0.09823712 -0.087315924 0.10962261 -0.09164916 0.05345474
-0.042927112 0.034188822 0.036089744 -0.1945719 0.020204958 0.09048318 0.07403734 0.04638928

fc2.bias f4 [10]
00000000: 0faa 99bd 466c 0e3e 25d6 5e3d 7e83 85bd
00000010: 7841 aebd 036f e4bd 7609 4c3d b13d db3d
00000020: 8555 88bd e497 8bbd
-0.07503139 0.1390849 0.054403443 -0.06519221 -0.08508581 -0.11153986 0.04981371 0.10705126
-0.066569366 -0.0681608
