model/epoch_8.pth (torch_old, 344967 bytes, 8 tensors)

conv1.weight f4 [16, 1, 3, 3]
000000 22 c1 33 be cd b5 83 be 5a af 22 be 19 3d 74 be
       -0.17554143 -0.2572464 -0.15887204 -0.23851432
000010 9d ec d6 be 89 53 68 be ca d0 04 bf f0 16 ff bd
       -0.41977397 -0.22688116 -0.51881087 -0.12455547
000020 ec e5 d1 be ee ee 8a 3e 3a 18 68 3e fe c8 41 3d
       -0.4099573 0.27135414 0.22665492 0.04731082
000030 bc 80 a7 3e f5 db fd 3e 00 20 27 be 49 ee 3c bf
       0.32715404 0.49581876 -0.16320801 -0.73801094
000040 73 e7 eb be 07 dd 9c bc 87 74 8d bd b6 16 6d 3e
       -0.4607502 -0.019148363 -0.069069915 0.23153195
000050 9d 29 0b 3f ad 00 04 be c3 5e c3 3e f4 84 49 3e
       0.5436037 -0.12890883 0.38158235 0.19679624
000060 cd 75 b6 3e c7 8c b6 3e 5b 1b c4 3e e6 03 ec 3d
       0.3563675 0.3565428 0.3830212 0.11524181
000070 e9 a3 e3 3e e3 37 cd 3e b9 7e 39 be 76 29 f3 bd
       0.4446099 0.400817 -0.18114747 -0.118731424
000080 fe bb b9 3e 33 3c b8 bd 75 08 0b bf 88 d4 e8 bd
       0.3627624 -0.08995857 -0.5430978 -0.11368662
000090 4f 4a db be f9 1f 53 be 60 aa 86 be 5f e1 c8 be
       -0.4283013 -0.20617665 -0.2630186 -0.39234444
0000a0 3d 0b 1d be 0a 10 fe bd 07 8c c5 3e 5d 25 36 3e
       -0.15336318 -0.12405403 0.38583395 0.1778769
0000b0 11 b2 36 3e 8c 99 56 3c 89 cd e9 3e f4 6c da 3e
       0.17841364 0.013098132 0.45664623 0.4266125
0000c0 2d 2f 8b be f2 80 c2 bc ab 7c 68 3d b9 38 04 bf
       -0.2718443 -0.023743127 0.056759518 -0.5164905
0000d0 6f 75 38 3e 4b 63 69 bd 95 c7 82 3e 4b f3 a3 be
       0.18013547 -0.05697946 0.25542894 -0.32021555
0000e0 2e 35 0b bf 32 f3 a4 bc 8e 01 47 3e a8 2d ba 3e
       -0.5437802 -0.020135496 0.19434187 0.36362958
0000f0 bf 01 aa bd 71 9b 09 3f e4 7e 31 3b 4f b0 e7 bc
       -0.08301114 0.5375281 0.002708369 -0.028282313
000100 2c c6 4f 3e 17 8e 58 3e 0b 8c 5a 3e da a2 ba 3e
       0.2029044 0.21147953 0.21342485 0.3645237
000110 b5 6c f3 be 8f 47 d7 3e 13 84 ab 3e 2d e9 5f bf
       -0.47543874 0.42046782 0.33499202 -0.87465173
000120 32 43 e5 be b9 fa c9 3d b9 11 fb 3e 5a 82 d1 be
       -0.44777828 0.09862275 0.4903696 -0.40919763
000130 0e 3c 90 be aa 22 80 3e 21 4d 73 3d 7d f2 65 3d
       -0.28170818 0.25026447 0.059399728 0.056139458
000140 ac 4e 04 3f ce 22 4a 3e b6 96 fd be 9f 07 34 3e
       0.51682544 0.1973984 -0.49529046 0.17581032
000150 cd 4c 8b be f5 14 13 bf 66 40 44 3e 9f fc b9 bd
       -0.27207032 -0.5745385 0.19165191 -0.09081387
000160 37 74 a0 3e 64 a5 17 3f 31 58 55 3e 2d 4d 67 3e
       0.31338665 0.5923674 0.20834424 0.22588034
000170 b6 d6 eb 3e 44 1f d7 3e 7c d1 98 3d d8 73 4a bc
       0.4606225 0.4201604 0.07461831 -0.012356721
000180 79 51 85 bd d6 16 cb be 07 50 d3 be e3 3d e0 bd
       -0.0650968 -0.3966586 -0.41271994 -0.10949304
000190 16 4e 02 be 11 da 2a 3f 2b dd 9e 3d 60 d4 ba be
       -0.127251 0.6673899 0.07757028 -0.36490154
0001a0 81 39 8a 3e 72 e3 7d 3e 27 08 78 be 7b e2 dc be
       0.26996997 0.24793795 -0.2422186 -0.4314154
0001b0 46 1d c7 be 58 09 1c be 30 a2 e6 3d ba b4 4e be
       -0.3888952 -0.1523794 0.112614036 -0.20186129
0001c0 98 9a bc be f0 aa a4 3e b1 d3 89 be 26 a1 89 be
       -0.36836696 0.32161665 -0.2691932 -0.2688076
0001d0 db 47 c3 3e 6f 63 97 be fc bd 8e 3e fc a0 d1 3d
       0.3814076 -0.2956805 0.27879322 0.102357835
0001e0 2f 8a 05 bf 36 3b b9 bd c2 85 0d be be b8 8e 3e
       -0.52163976 -0.09044497 -0.13820556 0.27875322
0001f0 93 30 91 bb c3 75 19 3f b9 27 91 3e d3 2a a9 3e
       -0.0044308393 0.59945315 0.28350618 0.33040485
000200 fb 66 6b bd fd 4e 66 3e 1d d5 da 3e cd 69 30 3e
       -0.057471257 0.22491069 0.42740718 0.1722786
000210 61 b4 1d bf 1c 2e 62 3e 12 e4 f8 3e 80 05 d8 3e
       -0.6160336 0.22087902 0.48611504 0.42191696
000220 7a 65 d5 3e 66 cc df 3e 22 7a 4d be e7 cc 8e bd
       0.41678983 0.4371063 -0.20066121 -0.06972676
000230 81 28 f1 be 15 60 2e 3e 09 d1 f7 be 08 ca 1f 3e
       -0.47101215 0.1702884 -0.4840167 0.15604413

conv1.bias f4 [16]
000000 c5 f4 7c 3e 33 08 32 bd 0d b9 51 bd fb 98 76 3e
       0.24702747 -0.04346485 -0.05120187 0.24081795
000010 61 ad 62 3e e8 b3 5d 3e e4 be cb 3e 27 31 cc 3d
       0.22136451 0.2165066 0.39794075 0.099703126
000020 7b c9 9a 3e 52 c4 37 3d d3 90 d8 3e 6e 72 e5 bb
       0.30231842 0.04486496 0.42297992 -0.0070021665
000030 8f cb b6 bd 0a a1 84 3e 12 8f b1 3e 12 9a 4d 3e
       -0.089255445 0.25904113 0.34679466 0.20078304

conv2.weight f4 [32, 16, 3, 3]
000000 1f 55 88 bd e8 d1 50 be c9 4e 23 be 6f af 58 3c
       -0.066568606 -0.20392573 -0.15948023 0.01322542
000010 c1 df e1 bc 03 8e e4 3d 70 fb 1d 3e b5 cc 0d 3e
       -0.027572514 0.11159899 0.15427947 0.13847621
000020 31 a6 d8 3d bd f7 64 be d5 e6 8b bc 48 95 c2 3c
       0.105785735 -0.2236013 -0.017077843 0.023752823
000030 0d 0d 8c 3e 09 5b 98 3e 3b ce 9f 3e 6b f5 86 3d
       0.27353707 0.29756954 0.3121203 0.065897785
000040 21 ef 8f bd 7f 68 87 be a0 12 53 3e 80 2d 4f 3e
       -0.07028032 -0.26446912 0.20612574 0.202322
000050 d0 06 69 3e c0 9a 75 3d d1 48 f1 bd 4b 40 62 be
       0.22756505 0.059962034 -0.11781467 -0.22094838
000060 b8 f6 92 be 96 3c 85 be 8e ef bc bd 65 36 b6 bd
       -0.28703856 -0.26022786 -0.09225379 -0.08897094
000070 3f 91 06 be 5b c1 19 bd 92 12 88 3e a1 55 07 3e
       -0.13141344 -0.037537914 0.26576668 0.13216259
000080 d2 af 92 3d 4d e2 56 3c 16 e0 31 bd 8c ea 89 be
       0.07162441 0.013115478 -0.043426596 -0.26936758
000090 ba 36 8e 3c 0e 7b a8 bd f0 2a 97 bd 28 7c 00 be
       0.01736008 -0.08226596 -0.073812366 -0.12547362
0000a0 47 a4 32 be 00 fc b7 bb a8 be 87 3d a0 9b 4c 3d
       -0.1744548 -0.0056147575 0.06628162 0.049953103
0000b0 6a 5d da 3d 05 71 35 bc 5b 5f 8a 3d fa 66 9d 3d
       0.106623486 -0.011074309 0.06756469 0.07685657
0000c0 ad 39 61 3e df aa 2a 3e 78 35 ab 3c af 02 7a 3d
       0.21994658 0.16666745 0.02089952 0.061037716
0000d0 8d 81 14 be ee 87 97 be f7 f3 b5 3d 41 2f 32 3e
       -0.14502545 -0.29595894 0.08884423 0.17400838
0000e0 29 8a 87 3d ef 06 f8 bd 9a 24 69 be 73 f6 8f be
       0.06618149 -0.121106975 -0.22767869 -0.28117713
0000f0 e7 06 57 be 76 57 63 be 77 f4 46 bd d1 f2 aa bd
       -0.20998727 -0.22201332 -0.048572984 -0.08347095
000100 d9 44 14 3e 97 f8 92 3e 60 ad ee bc b2 cd aa 3d
       0.14479388 0.28705284 -0.029135406 0.083400145
000110 76 fb 34 3e 25 7e 73 be d9 b1 89 be 92 af fe be
       0.1767405 -0.23778589 -0.268935 -0.49743325
000120 09 46 0a 3d c5 89 f9 bc ea 5d 4d bd a1 4d 0d be
       0.033758197 -0.030461201 -0.05013839 -0.13799144
000130 47 63 6b bd 78 82 88 be 8b b3 7d be 6b 8b 2a be
       -0.057467725 -0.2666204 -0.24775521 -0.16654746
000140 2d 2f 03 be 35 19 81 3d fc ee 73 3d cf 6d f9 3d
       -0.12810965 0.06303636 0.059554085 0.121791475
000150 2f 9f 74 be 85 05 4d be 7e 71 5d be fa fb 2d be
       -0.23888849 -0.20021637 -0.21625325 -0.16990653
000160 9a b6 91 bd 67 b5 88 bd 9d 9d 2e bd 53 6b 0c 3e
       -0.071149066 -0.06675225 -0.04263078 0.13712816
000170 b4 a3 93 3e 27 fd 2c 3e ee 38 1c 3e 84 89 0c 3e
       0.28835833 0.16893445 0.15256092 0.13724333
000180 29 7e 51 3d 17 9d b2 3b 36 cd 8b be 04 a3 e5 bd
       0.051145706 0.0054508555 -0.27305 -0.112127334
000190 50 f2 33 be a1 c5 e0 3d b2 ca 8b 3e 62 48 11 3e
       -0.17572904 0.10975195 0.27303082 0.14187768
0001a0 7d a8 95 3d ca 05 76 bd fb d1 9f be 52 00 f8 be
       0.07307527 -0.060064115 -0.3121489 -0.48437744
0001b0 6a 71 2f bc 04 fb 22 bd 68 12 e1 bd 02 59 0b be
       -0.010708192 -0.03979017 -0.10989839 -0.13608173
0001c0 da c9 b9 bd 9e 87 8e bd c1 16 37 3c ac e0 60 3d
       -0.09071703 -0.06959461 0.011174859 0.054901764
0001d0 75 08 3b 3c 7b 16 e6 3d cc b1 42 3d 98 fd 59 3d
       0.0114155905 0.112347566 0.04753284 0.05322036
0001e0 ea 06 d7 bd d8 be c1 bd f1 11 0a be f3 4d d6 bd
       -0.10499366 -0.09460229 -0.13483407 -0.104640864
0001f0 7c cf 1c be 7e 75 0f bd 7f 53 2d 3d 89 43 55 3d
       -0.15313524 -0.03502416 0.042315956 0.05206636
000200 78 c0 26 3d 46 23 1c 3e 09 0b 1a 3d 83 cb 0a bd
       0.040710896 0.15247831 0.03760818 -0.03388549
000210 ce 0f 98 be a1 cc a8 be 98 e5 93 be 5e 24 16 bd
       -0.29699558 -0.3296862 -0.28886104 -0.036655776
000220 5c fe 17 bd b1 e7 54 3d a1 41 14 3e c7 85 84 3e
       -0.03710781 0.05197877 0.1447816 0.25883314
000230 44 61 86 3e bb 1f ca 3d cd 65 08 3d c3 a0 3e be
       0.26246083 0.09869333 0.03330021 -0.18616013
000240 cb 6f 8f bd fc fd ab bc 12 5a 66 bd 90 fb b1 bb
       -0.07003745 -0.020995133 -0.05623824 -0.0054316
000250 4d ea 48 3d fb 77 d4 bc be db b3 bd 83 99 1f bd
       0.04905157 -0.025936117 -0.08782147 -0.03896476
000260 55 7e 66 3c 2a ee 9e bd 29 83 b8 bd a9 05 6c 3c
       0.014068206 -0.0776027 -0.09009392 0.014405646
000270 a1 e0 8d 3d 1e e7 f2 bc df d8 04 bd 62 bd 82 bd
       0.0692761 -0.02965122 -0.032433387 -0.06383778
000280 67 6d 9c 3d e3 e7 86 3d ba 76 7f 3b 2f e2 d5 bc
       0.07638054 0.06587198 0.0038980679 -0.02610883
000290 04 ce 4f 3c 9f 33 42 3d ed 31 7b 3d 29 64 05 3d
       0.012683395 0.04741251 0.06132691 0.032566223
0002a0 ac 99 8e bd e0 12 4b bd 95 95 1d 3d 49 8c 5d bd
       -0.06962904 -0.049578547 0.03847273 -0.054088864
0002b0 b5 85 84 bd 02 02 14 3d df 0e b2 bb 29 6e ab bd
       -0.06470815 0.036134727 -0.0054339017 -0.08370621
0002c0 c8 28 44 3d 4e f2 7a bd 5a 1d 7d bc a3 dc 6d bd
       0.047890455 -0.061266236 -0.0154488925 -0.058071744
0002d0 e4 60 80 bc 28 3a ff 39 95 7e 84 3d 29 79 fb bc
       -0.015671201 0.0004868072 0.06469456 -0.030697422
0002e0 57 8a 7a 3d a7 22 38 bd e0 5c 39 bb 40 15 17 bd
       0.061167087 -0.044954922 -0.0028284118 -0.0368855
0002f0 50 56 29 bd 4e 3f 9b 3d 35 5c 34 3d 89 f5 84 3d
       -0.04134208 0.07580434 0.044033248 0.064921446
000300 33 ce a9 bd d2 c2 af bd 36 cf 80 3d e8 99 b6 bc
       -0.082912825 -0.08582081 0.06289522 -0.022290185
000310 4c 14 4c bd c3 17 01 3d 9c db a3 3b e6 ee 19 3d
       -0.049824044 0.0315168 0.0050005447 0.037581347
000320 73 d8 a1 3b 6d 93 a2 bd f8 44 b8 3c 30 b7 a1 bc
       0.004939133 -0.079382755 0.022493824 -0.01974067
000330 3e f0 10 bd c0 fd 54 bd 68 43 78 3c 3f d3 9c bd
       -0.035385363 -0.051999807 0.01515279 -0.076574795
000340 75 b8 2b bd a1 6e 4d bd e2 8b 72 3d 59 59 85 bd
       -0.04192396 -0.050154332 0.059215434 -0.06511182
000350 e7 8b 00 bd b1 0b 2a bd 0b ff a5 bd 6f 23 67 ba
       -0.03138342 -0.041515056 -0.08105286 -0.00088172307
000360 d8 18 d8 3c df 59 c5 bc ec 5b af bd 0f a9 68 bd
       0.026379034 -0.024090705 -0.085624546 -0.05680185
000370 9e d3 49 bd e9 d9 80 bd d6 88 86 3d 34 f6 8f bd
       -0.04927408 -0.06291563 0.06569068 -0.070293814
000380 bb de 8e 3d fa a2 64 bd 90 67 7a 3d 56 76 83 bd
       0.06976076 -0.05581949 0.06113392 -0.06419055
000390 3d ca 23 3d 8d 11 a8 3c 37 f7 c1 3c 14 fe 49 bd
       0.03998779 0.020516181 0.023677452 -0.049314573
0003a0 81 00 b4 bd b3 02 ef bc 89 ab c3 3c 7a c9 87 3d
       -0.087891586 -0.029176092 0.023885505 0.066302255
0003b0 d1 be 53 bc 91 06 c6 bc 9a aa 7e 3d af 6d 9b 3d
       -0.012923912 -0.024173053 0.062174417 0.0758928
0003c0 63 db ca bc 08 29 83 ba 86 60 93 3c 87 a3 88 3d
       -0.024762815 -0.0010006735 0.017990362 0.06671815
0003d0 c0 68 53 bd be 25 3c 3c 46 00 9c 3c d6 04 d5 3c
       -0.05161357 0.011483608 0.0190431 0.026003283
0003e0 4c ec 85 3d ab 02 13 3d 33 41 b7 bd da 2c b2 3c
       0.06539211 0.035891216 -0.08947983 0.021749903
0003f0 3f b1 79 bd d7 32 89 3c a9 a1 9a bb ff 8f 6b 3d
       -0.06096005 0.016747875 -0.0047189784 0.057510372

conv2.bias f4 [32]
000000 5c 7f 04 3b 50 45 9f bd 7c a8 94 bd 9b b3 14 3c
       0.0020217514 -0.07776892 -0.07258698 0.009076024
000010 d6 4e 48 3d f2 49 2f bd 43 54 7d bc 94 68 14 3d
       0.04890331 -0.04279513 -0.015461984 0.036232546
000020 43 ce 4c 3c 44 57 81 3c bf 1d b1 bd be 09 4c 3d
       0.0125003485 0.015788682 -0.08648252 0.04981398
000030 ff 2d ae bc d9 bd e1 bd 6e 0f a6 bc 51 c0 85 bd
       -0.021262167 -0.11022539 -0.02027103 -0.06530822
000040 1d 76 09 3d 69 35 91 bd 75 c4 18 3d e3 9f 88 bd
       0.033559907 -0.07090265 0.03729673 -0.06671121
000050 30 54 cc bd d6 47 75 bc e8 0f f5 ba b0 fd bc 3d
       -0.09976995 -0.01497074 -0.0018696757 0.092280746
000060 6f c5 6c 3d 2a f3 3f 3d 01 22 20 bc 20 80 b2 bd
       0.057805475 0.04686276 -0.009773732 -0.08715844
000070 0b fd 3b 3d 0d 8a 41 bd 50 e5 07 3d be 7b 35 3c
       0.045895617 -0.047250796 0.033177674 0.011076866

fc1.weight f4 [100, 800]
000000 70 26 a3 3b 01 55 8a 3c a2 ad e7 3c 62 35 f0 3c
       0.0049789473 0.016886236 0.028281037 0.02932233
000010 51 e4 f9 bc 26 08 20 bd 27 11 5d bc a2 f3 1c bd
       -0.030504378 -0.03907027 -0.013492859 -0.038318284
000020 c5 ae 11 bd 53 47 a5 3b 1a 23 a2 bc 81 a0 ff bc
       -0.035567064 0.005043903 -0.019792128 -0.031204464
000030 9d af 3c bc f3 9b c4 3b 20 88 b6 3c c6 85 50 3c
       -0.011516479 0.006000036 0.022281706 0.012727207
000040 22 be b3 bc da 08 d5 3b d8 36 1c bd 1b d6 91 3c
       -0.021941248 0.0065012993 -0.03813824 0.017802289
000050 3e 82 75 bc 4d c2 44 bc 5f 1e 18 bd a2 d9 95 bc
       -0.014984665 -0.012009216 -0.03713834 -0.018292252
000060 af d6 bf 3c b6 d2 f2 3c 00 93 9f 3c df 4d 00 3d
       0.023417799 0.02964149 0.019479275 0.031324264
000070 4c d7 06 bd f9 e4 e1 bc 8c 11 b9 3c 81 dd 8a 3c
       -0.032920167 -0.027575003 0.022591375 0.016951324
000080 1f 10 18 bb 1e 46 0a bd 45 95 00 3d 42 0b 90 3c
       -0.0023202968 -0.033758275 0.031392355 0.017583493
000090 15 c3 8c 3c fa 0d 98 3c 59 73 e2 3c ca 9e e9 bc
       0.017182866 0.018561352 0.027642893 -0.0285181
0000a0 c0 02 bd 3a 3e 2a 07 3c de 71 b7 3b 4c 28 8a 3c
       0.0014420375 0.008249817 0.005598291 0.016864918
0000b0 17 2e bd 3c fe ae 07 bc 52 3f 85 3c 53 3e a9 3c
       0.023093266 -0.0082814675 0.016265545 0.020659601
0000c0 dc c9 49 3c fd bf 13 bb 5f d8 8f bc 44 23 3d ba
       0.012316193 -0.0022544854 -0.017559228 -0.0007215033
0000d0 50 32 a7 bc 94 8b b9 bc 46 56 b1 bc da 71 52 3c
       -0.020409733 -0.022649564 -0.021647584 0.012844527
0000e0 60 ab 2f bc 42 83 6e bb 1e 99 6d bc a4 78 9a 3c
       -0.010722011 -0.0036394154 -0.014501838 0.018856354
0000f0 c0 bd e7 bc 2d b9 1e 3c c8 62 4f bc cc d9 92 3c
       -0.028288722 0.009687704 -0.012657829 0.01792612
000100 02 49 eb 3c 0e 9f 95 3b f4 06 18 3c 66 d7 bb 3c
       0.028721336 0.00456608 0.0092790015 0.022929858
000110 e0 ff 23 bd ae b3 29 ba 5c dc 1b bc 80 1e cb 3c
       -0.040038943 -0.0006473613 -0.009512987 0.024794817
000120 18 1a 6e 3b 24 dc 86 3c 85 1a 94 ba 56 4f d8 3c
       0.003633147 0.016462393 -0.0011299407 0.026405018
000130 ba 83 13 bd 12 b1 13 3c cf 5e 2f 3b 91 60 bb bc
       -0.036014296 0.009014385 0.0026759391 -0.022873195
000140 a4 c0 ad bc 0e 30 19 bc a3 79 0f bc 6d e5 0c bd
       -0.021210022 -0.009349836 -0.008757028 -0.034398485
000150 db ee 62 3c f7 bf 3b bc a2 7f d2 3c 6d 2d b7 3c
       0.013850893 -0.011459342 0.025695626 0.022360528
000160 be 1d 55 bc 62 eb 9d bc 29 89 d1 bc d8 50 bd 3c
       -0.013007579 -0.019277278 -0.025578098 0.023109838
000170 55 28 0e bd 7c 41 e4 bc 84 a8 79 bb a8 c0 d2 3b
       -0.034706432 -0.027863257 -0.0038094828 0.006431658
000180 f7 80 f7 3b af ef 80 3c 23 93 bb bc 0c 11 59 bc
       0.0075532156 0.01573929 -0.022897309 -0.013248693
000190 a5 66 8a 3c a2 d7 dc 3b df d0 82 3c 00 41 28 bd
       0.016894648 0.0067395726 0.015968738 -0.041077614
0001a0 30 f0 14 bd 3b 8e 9a 3b c2 84 0f 3c e1 9d 83 3c
       -0.036361873 0.004716662 0.008759679 0.016066493
0001b0 98 13 7b 3c 99 dd 89 3c 43 ae 46 bc b2 60 8a 3c
       0.015324496 0.016829299 -0.012126508 0.016891811
0001c0 5a 42 a2 3b 9e eb a5 3c 0a 03 60 bc ee d0 91 bb
       0.0049517574 0.020253953 -0.0136726 -0.004449955
0001d0 10 a2 22 bc d6 56 4f 3c ef 14 f3 ba 3c 6e 76 bc
       -0.009926334 0.012654981 -0.0018545667 -0.01504093
0001e0 f2 20 a5 3c 9d c7 53 ba fb f2 56 3c 91 be a6 bc
       0.020157311 -0.0008078756 0.0131194545 -0.020354541
0001f0 79 6e 99 3c b0 6c 67 ba fa 2a c0 3b 25 77 be 3c
       0.018729435 -0.00088281464 0.005864498 0.023250172
000200 75 f1 09 bc 5b 04 b1 bc ac db 19 bd 09 a3 d3 3c
       -0.008419384 -0.021608522 -0.03756301 0.025834577
000210 ff 29 b3 3c b0 e9 08 bd 7d 1a 91 3c 34 64 f9 3b
       0.021870611 -0.033425987 0.017712826 0.007610822
000220 55 e1 a3 3c d6 7a f1 bc 98 3d 99 bb 92 86 75 3b
       0.020004908 -0.029477518 -0.004676532 0.0037464243
000230 ac a6 65 bc d5 0d 79 3c f9 7a d4 bc 16 bc a9 3b
       -0.014016788 0.015201052 -0.025937544 0.0051798923
000240 20 f7 00 3c 5a 47 b2 bc 40 66 f8 bc fb cf a4 bc
       0.007871419 -0.021762539 -0.030322194 -0.020118704
000250 c4 94 aa 3c e8 60 8c bc b9 43 1d bc 3b 78 8a bc
       0.02082289 -0.017136052 -0.009598666 -0.016903033
000260 9f 0a 93 3c 64 4d 69 3a ae 7e 0c bd 8b 54 90 3c
       0.0179494 0.0008899777 -0.0343005 0.017618438
000270 fe a4 14 bd bb 89 15 bd de 9f 2e bc c0 a8 a4 3c
       -0.03629016 -0.036508303 -0.0106582325 0.020099998
000280 22 6a 54 3c f2 40 48 bc 1d c3 8e 3c 83 b8 f2 bc
       0.012964757 -0.012222515 0.017427022 -0.029628998
000290 e8 7f 1b bd 46 91 8c bc 05 ee 0b bd 18 70 93 3c
       -0.037963778 -0.017159116 -0.03416254 0.017997786
0002a0 7b 9a 88 3c 4f 02 97 bc 35 7f 14 bd d0 2e 80 bc
       0.016675225 -0.018433718 -0.036254127 -0.015647322
0002b0 14 8e 67 bc fd 40 ed bb 13 d4 ec bc d2 39 36 bc
       -0.014132995 -0.007240413 -0.028909719 -0.011122184
0002c0 ae 09 01 bd 31 02 18 bd 59 59 e2 bc c3 42 c6 3c
       -0.031503372 -0.037111465 -0.027630495 0.024201756
0002d0 45 ff 10 bd 26 60 a2 3c 20 68 92 3b 33 d6 25 3c
       -0.035399694 0.019821238 0.004467979 0.01012187
0002e0 c0 bc f4 3a 34 6a b7 bc 55 88 16 bc 57 1d d6 3c
       0.0018671975 -0.022389509 -0.0091877775 0.026137037
0002f0 8b 72 99 3c 36 cc 0a bd 49 56 ab ba 30 b0 79 3a
       0.018731376 -0.033886157 -0.001307198 0.000952485
000300 0a 86 c1 3c 05 d9 b9 bc 2c 6c d6 3c e6 0b ab 3b
       0.023623485 -0.02268649 0.026174627 0.0052199243
000310 0c b2 09 bd 56 88 c9 3a a1 f4 f5 3b eb 0b b3 3b
       -0.033617064 0.0015375714 0.0075059687 0.005464067
000320 38 50 e8 3c f0 76 0f bc e4 3a a8 ba b2 3e 12 bd
       0.028358564 -0.008756384 -0.0012834934 -0.035704322
000330 43 b8 06 bc d8 03 16 bc e2 21 cc 3c 0b ad 54 bc
       -0.008222642 -0.00915619 0.0249185 -0.01298071
000340 92 d4 bb bb c3 6c e4 3c 0b cb 80 3c c6 13 1a bc
       -0.0057321275 0.027883893 0.015721818 -0.009404128
000350 8a 36 ea 3c 77 05 18 bb 39 1f ab 3c 06 30 b5 3c
       0.02859046 -0.0023196617 0.020888912 0.022117626
000360 21 53 be bc 0a 9e 0b 3c c6 02 a5 3c 07 dd fc bc
       -0.023232998 0.008521566 0.020142924 -0.030867113
000370 d5 94 de 3c 22 2a f3 3a 7a ca 9e b9 7c 87 42 3b
       0.027170578 0.0018551985 -0.00030286965 0.0029682806
000380 d2 e4 a2 bc 26 82 ba bb 1b 77 f7 3b c1 d1 fe bc
       -0.0198845 -0.0056917844 0.0075520403 -0.031105878
000390 de ba 98 bb 1c 3a 1d bd 4e a0 27 3c 50 48 d0 3c
       -0.004660948 -0.038385496 0.010231091 0.025425106
0003a0 e9 cc 49 bb 4c 26 6d b9 d5 e8 20 bc e7 28 37 3b
       -0.0030792302 -0.00022616348 -0.0098211365 0.0027947964
0003b0 23 46 e2 bc 7e 0f a9 bc 03 c3 1f ba 6d 8d a6 bc
       -0.027621334 -0.02063727 -0.00060944277 -0.020331109
0003c0 97 20 88 bc ef 83 67 3b 83 cf 30 3c cf 2a 3e bc
       -0.016617103 0.0035326441 0.010791662 -0.011606886
0003d0 a6 80 ff bc 6e f3 bc 3c 5a 36 03 bd 5a 92 db bc
       -0.031189274 0.023065295 -0.032034256 -0.026803184
0003e0 cb c5 20 bd 66 12 9b bc 6e ce 74 3c 2d 01 43 3b
       -0.03925113 -0.018929671 0.014941795 0.002975534
0003f0 a5 62 b2 3c 6d a3 71 bc cd 4d 74 3c 75 77 f4 bb
       0.021775553 -0.014748436 0.014911127 -0.0074605295

fc1.bias f4 [100]
000000 44 09 1c bd 88 13 96 ba 4e 6e dd 3c d0 6e 52 bc
       -0.038094774 -0.0011449913 0.027030136 -0.012843803
000010 ec a3 2a bd ec f9 1d 3c bd 81 b0 bc 2f 7b 0a bd
       -0.041660234 0.009642106 -0.021546239 -0.033808883
000020 9f 2e 3e 3d 88 52 48 3d 02 ea 3b 3d 34 f7 0b 3d
       0.04643118 0.048906833 0.045877464 0.0341713
000030 ea df 51 3c ee 35 74 bb 65 b4 e0 bb 89 c2 0e 3c
       0.012809733 -0.003726359 -0.006857442 0.008713373
000040 c7 69 9c bb 04 66 f3 bc 5e 6f 21 3c 31 ee e1 bc
       -0.004773352 -0.02971173 0.009853212 -0.027579399
000050 ee ed 81 3c f6 39 8e bc 7e d9 2a bc 15 20 8e 3b
       0.015860524 -0.017361622 -0.010427831 0.0043373206
000060 ac a2 68 3c d3 e9 ca bb ff 27 c4 3c 82 3c 4b 3c
       0.01419894 -0.006192425 0.023944853 0.012404563
000070 a5 13 bd bc 87 f8 16 bd fa 77 bf 3c 37 33 a5 bc
       -0.023080656 -0.036858108 0.023372639 -0.020166023
000080 fd b5 3c bd 60 47 42 bc 41 9a 9c bc f1 1e 55 3d
       -0.046071995 -0.011857837 -0.019116523 0.05203146
000090 bf 38 c5 3c 0c 06 c7 3b 13 b7 b8 bc 3d 7a 80 3b
       0.02407491 0.006073719 -0.022548234 0.003920822
0000a0 d0 38 6e ba 13 b6 fb bc aa 77 ef bc 5f c7 f9 bc
       -0.0009087445 -0.030726468 -0.029231865 -0.030490575
0000b0 4f 62 a3 3d 4d 60 bb bc de 5c 18 bd 7e 11 3b 3d
       0.07977735 -0.022873068 -0.03719794 0.04567098
0000c0 19 c8 1a 3d 1a 0f 1e 3c cb c8 22 bd 9d a3 33 3d
       0.037788484 0.009647155 -0.039742272 0.043857206
0000d0 12 d2 3a 3d 07 71 42 3d 89 27 4c bd 94 94 36 3c
       0.045610495 0.047471073 -0.04984239 0.011143822
0000e0 51 ed a6 bc e4 2d 19 3c 8f 34 17 bd e9 47 65 bd
       -0.020376833 0.00934932 -0.03691536 -0.055976782
0000f0 1c 65 38 bd 9d 4f b8 3b a4 09 fa 3c 8f 57 f7 3b
       -0.0450183 0.005624725 0.030522175 0.0075482796
000100 c0 42 73 bc 63 5a 1d bd 39 b6 86 3d 0c 38 64 3d
       -0.014847457 -0.038416278 0.06577725 0.055717513
000110 19 fa 36 bd e3 ad e2 3c b4 da fb bc 4a 97 b6 3c
       -0.044672105 0.027670806 -0.030743934 0.022288937
000120 7d 26 4c 3b d9 22 cd 3b a4 b6 0e bd b8 a1 32 bd
       0.003115087 0.0062602577 -0.03484215 -0.04361126
000130 a9 d9 06 bd 90 9f 04 bc 25 d2 c2 bc b0 62 1b bd
       -0.03292242 -0.008094683 -0.023781845 -0.037935913
000140 47 d6 f0 3c 9f 75 cf 3b ee 70 f2 3a 01 3f d1 bc
       0.02939905 0.00633116 0.001849679 -0.025542738
000150 71 b3 cf bc 11 6a ca 3c 2d af b3 bc 52 55 9c 3b
       -0.025354119 0.02470878 -0.021934116 0.004770913
000160 f6 47 a6 3c f7 2e be 3b 9a d7 ae bc b2 ce d7 3a
       0.020297986 0.0058039385 -0.021343041 0.0016464798
000170 1c a3 46 3d c7 cb 2c 3d 9b 5b 7e bc 84 85 d0 3d
       0.048495397 0.042186525 -0.01552477 0.10181716
000180 43 db 51 bc e1 ae 4e bd db c9 72 bd f1 9d b6 bb
       -0.012808624 -0.050459746 -0.059274536 -0.0055730273

fc2.weight f4 [10, 100]
000000 5c e7 a8 3d 9e 4d 99 3d 57 2c ff 3c 7c 4c f0 3d
       0.08247253 0.074855074 0.031149073 0.11733338
000010 bb 22 8a 3d da bd 89 bd c5 89 0e be 01 06 c9 bc
       0.067449056 -0.067256644 -0.13919742 -0.024538996
000020 18 d3 5c 3d 58 db b9 bd 25 4e 45 3e 46 e5 bc 3a
       0.053912252 -0.090750396 0.19268091 0.001441159
000030 b4 a2 e2 3c d3 0c 1d bd aa cb 1f 3d 12 fd 11 bc
       0.027665474 -0.03834231 0.03901259 -0.008910434
000040 10 dc 35 3e b6 d5 b3 3c b8 4b 15 3d 09 fe 17 bd
       0.17759728 0.021952491 0.036449164 -0.0371075
000050 60 4b a3 3c e1 38 a1 bd d8 9f 16 3c 82 fd 0e 3c
       0.019933403 -0.07872177 0.009193383 0.008727433
000060 56 51 bc 3c 55 71 49 be c1 1b 80 3c 2e fa 4f bd
       0.022988003 -0.19672139 0.015638234 -0.0507757
000070 bd cd bc bd 1d b5 b2 3d de 98 af bd da 1d 0a bd
       -0.09218929 0.08725951 -0.08574079 -0.033719875
000080 6e c0 18 be 9f fc 69 bd 18 22 49 bd c6 f1 c3 bc
       -0.14917156 -0.057125684 -0.04910478 -0.023918997
000090 9a 08 14 3e a1 7a ed bd ab 0e 5b bb b3 f1 91 bd
       0.14456406 -0.11595655 -0.003342549 -0.071261786
0000a0 22 61 19 3d 5c 84 a3 bd 66 20 bb bd 6a 98 7b bd
       0.03744615 -0.0798423 -0.09137039 -0.06142465
0000b0 4e e6 99 3d 4f b8 f6 3c d8 92 f7 3c 6c 7a c9 3d
       0.0751463 0.030117182 0.030221388 0.09837803
0000c0 91 46 8f 3d e0 1d 08 3e 74 a3 0a be 8d 8b 01 3e
       0.06995881 0.13292646 -0.13538915 0.1265089
0000d0 9a b9 35 3e f2 23 93 3d 23 61 3b be cf e5 ee bb
       0.17746583 0.071845904 -0.18298773 -0.007290579
0000e0 62 af d8 3d aa ec 8f 3c b2 2f bc bd 0f 26 0b 3b
       0.105803266 0.017568905 -0.09188785 0.0021232401
0000f0 5f b8 2a bb f7 61 9c bd 25 89 f9 bd 40 cd 99 bd
       -0.0026049835 -0.07635873 -0.12184361 -0.075098515
000100 f9 63 af 3c ab 26 14 3e 38 35 9a 3d 9d c5 f4 3d
       0.021409975 0.14467876 0.07529682 0.11951754
000110 41 dd 07 be c6 ac 3b bd da 24 0d bd 2b 3e 2c be
       -0.13267995 -0.045819066 -0.034458973 -0.1682059
000120 68 01 3a bd 54 d0 81 3d 29 8d 4e bc 23 dd bf 3c
       -0.045411497 0.063385636 -0.012606897 0.023420876
000130 d5 59 9d 3d 17 fb b8 3d a1 ce 55 3d fd f1 f6 3c
       0.0768315 0.090322666 0.05219901 0.030144686
000140 e4 9c a7 3d 5d a5 57 bb df ce 3f bd 77 5d 91 bd
       0.081842214 -0.003290496 -0.046828147 -0.07097905
000150 ab 49 5a 3d 25 38 c4 bc 68 f2 a6 bd 34 98 c1 bd
       0.05329291 -0.023952553 -0.08151704 -0.094528586
000160 7f 1b a4 bd 8b 2d 1d 3c 87 5b a3 be 26 45 f6 3d
       -0.08013057 0.009593378 -0.31905767 0.12024908
000170 97 96 eb 3c c4 6f 82 bd 68 11 87 bc 51 da 3b 3d
       0.02875833 -0.06368974 -0.016487792 0.0458625
000180 52 bc 47 be d0 96 cb 3d 8a 68 d0 3d e2 e3 93 3d
       -0.19505432 0.099408746 0.10176189 0.072211996
000190 b1 f4 bd 3d 27 cd 2b bd 6f 2c 31 ba 74 f0 81 3d
       0.09275187 -0.041943695 -0.0006758635 0.06344691
0001a0 a1 f9 10 be cc 4e 2a be c3 08 89 3d aa ed 90 3d
       -0.14157726 -0.16631621 0.06691124 0.07076581
0001b0 59 de 38 bd 41 f9 0e 3e 28 42 62 bc f1 89 12 3e
       -0.045133922 0.1396227 -0.013809718 0.14310433
0001c0 59 91 7e 3b 4c f7 a0 39 38 7e 85 3d c6 92 c9 bd
       0.0038843958 0.0003070183 0.06518215 -0.09842448
0001d0 db 92 dc 3d 67 77 1f 3b ec d9 09 3c d8 3e 5c bd
       0.10770198 0.0024332644 0.008413773 -0.05377087
0001e0 01 b1 ed bd 94 10 62 3d 21 34 10 be 4b a9 0a 3d
       -0.116060264 0.05519159 -0.14082386 0.033852857
0001f0 0b 73 20 3e 20 63 ac 3d 95 90 e1 bc 84 1c d3 bd
       0.15668885 0.08417344 -0.027534762 -0.10308173
000200 a2 d2 31 3d da b1 88 bb 83 82 88 3d a4 99 cf bd
       0.043413766 -0.004171592 0.06665518 -0.101367265
000210 bf 05 ec bb 83 2a 92 bd 1f 4d 5b bb 3c a0 1c 3e
       -0.0072028334 -0.07137015 -0.0033462716 0.152955
000220 a5 2e e9 bd e4 28 fa 3d 89 a4 47 bb b1 05 ad bd
       -0.1138585 0.122148305 -0.003046306 -0.08448351
000230 c5 1b b2 3d 27 8a f2 3b 42 50 c4 bd 40 02 8b bc
       0.08696703 0.007401723 -0.095856205 -0.016968846
000240 2c 78 32 3c 21 cd 5c be f9 67 b7 3d 0e 29 09 3d
       0.010892909 -0.21562625 0.08955378 0.03348642
000250 ed 16 d8 3d e9 18 17 be 14 20 2f be 5d 23 a7 3d
       0.10551248 -0.14755596 -0.1710208 0.08161042
000260 2a 31 81 3d b4 b4 27 3e 52 4f 08 be 5c 24 96 bc
       0.063082054 0.16377527 -0.13311508 -0.018327884
000270 bd c5 17 be a6 dd 80 be 9a 8b 88 bd a9 21 c6 bd
       -0.14821525 -0.25169104 -0.06667252 -0.09674389
000280 6c aa 8d bc c9 8c b9 3d 12 b1 64 3c e6 1b 75 3d
       -0.017293178 0.09060056 0.0139582325 0.05984106
000290 4b 1d 3d bd 0f b4 2e be df 2e 07 3d 02 45 8a 3d
       -0.046170514 -0.17060874 0.033003684 0.067514434
0002a0 bf 67 9f 3e 1c 8c 05 bd 18 ff 7f 3c 56 09 cb 3d
       0.3113384 -0.03260432 0.015624784 0.0991389
0002b0 9e df e3 3d 25 d9 75 be c4 cb 22 3d 49 b5 44 bd
       0.11126636 -0.24008615 0.039745107 -0.04802445
0002c0 4e cb 54 3d 83 a2 dc bd 59 99 cb 3c ad 24 1f 3d
       0.0519517 -0.10773184 0.024853395 0.038853336
0002d0 ca 4a 8b bc a3 62 24 3e 70 2f a3 bd 81 e2 32 3d
       -0.017003436 0.16053252 -0.07968032 0.043673042
0002e0 cd 44 93 3d 9c 1d ac bd 16 ea 93 bc 12 3b dd 3c
       0.07190857 -0.08404085 -0.018055957 0.027005706
0002f0 c3 96 22 bd f7 26 92 3d 4f a0 47 be fa 54 fe bd
       -0.03969456 0.07136338 -0.19494747 -0.12418552
000300 ba 24 65 3d f8 65 08 3e 9f 6a 3d be 24 e7 37 3e
       0.05594323 0.13320148 -0.18497704 0.17959267
000310 91 b3 5f 3d 61 62 f4 bd 05 c5 41 bb 0c 9a 40 be
       0.054614607 -0.11932827 -0.0029566896 -0.18808764
000320 0f 19 6c 3d 4b 8c 96 bd fc b9 09 bd 75 78 95 3d
       0.057641085 -0.073509775 -0.033624634 0.07298366
000330 53 9e 0a 3d 3f 58 1f 3d 82 49 40 be 25 90 52 bd
       0.033842396 0.038902517 -0.18778041 -0.051407
000340 79 05 db 3d a5 f0 f5 bd 5c f1 dc 3d 91 21 91 be
       0.10694403 -0.1200879 0.10788223 -0.28345922
000350 d7 89 25 3d da b7 82 3c 8d 9a fc 3d 91 3c e9 3d
       0.040414657 0.015956808 0.12334166 0.11388505
000360 61 ab 61 3e 52 df 31 bd f3 0e ea 3c 72 bc 8d bc
       0.22038032 -0.043425865 0.028571581 -0.017301772
000370 4f dc 1d 3d ee 79 70 3d 4a e7 09 3e 8e 55 5d 3d
       0.03854018 0.05871003 0.13467136 0.05403667
000380 55 89 a2 3d 9e 77 0a be e3 d3 6e bb b1 b1 6a 3c
       0.0793635 -0.13522193 -0.0036442212 0.0143245915
000390 eb 3a 90 3d 71 18 65 3c 22 60 25 3d d1 c9 86 bd
       0.07042488 0.013982878 0.040374883 -0.06581462
0003a0 26 ab a6 bd 10 ce 2b be 2e 90 1c bd ed 65 27 be
       -0.08138113 -0.16777825 -0.038223438 -0.16347475
0003b0 7d 1d 3c 3c 05 06 83 3c e5 d1 fa ba dd 92 9a 3c
       0.01148164 0.015994081 -0.001913604 0.018868858
0003c0 bb ed 6f 3d 10 10 8f bd 79 da 8a 3d 8b 30 c9 bd
       0.058576327 -0.069854856 0.067799516 -0.09823712
0003d0 66 83 f3 bd 84 b7 d5 3d 8e b2 bb bd b0 51 51 3d
       -0.11890297 0.104353935 -0.09164916 0.051103294
0003e0 f6 da 89 bd 1d e7 03 3d da 40 86 3c 5d 1a 89 be
       -0.067312166 0.03220283 0.016388346 -0.26777926
0003f0 50 b1 f8 3c 0e a5 dc 3d 58 ac 75 3d b0 02 3e 3d
       0.030357987 0.10773669 0.059978813 0.04638928

fc2.bias f4 [10]
000000 61 75 87 bd e5 10 28 3e db 05 3f 3d d2 5c 72 bd
       -0.06614185 0.16412695 0.046636444 -0.05917055
000010 5f 3b b7 bd cf e5 f1 bd 4a 26 63 3d 61 00 be 3d
       -0.08946871 -0.11811411 0.055456437 0.09277416
000020 93 79 8a bd 8e a7 8f bd
       -0.0676147 -0.070143804
