model/epoch_9.pth (torch_old, 344967 bytes, 8 tensors)

conv1.weight f4 [16, 1, 3, 3]
0	0xbe369d48	-0.17833436
1	0xbe80926d	-0.25111714
2	0xbe1757f8	-0.14779651
3	0xbe77329b	-0.24140398
4	0xbed87336	-0.422754
5	0xbe68b973	-0.22726993
6	0xbf06c390	-0.52642155
7	0xbe00b492	-0.12568882
8	0xbed06be2	-0.40707308
9	0x3e8ec071	0.27881196
10	0x3e6ff9af	0.2343509
11	0x3d79587a	0.060875393
12	0x3eab85b0	0.33500433
13	0x3f005d13	0.5014202
14	0xbe1fc5c8	-0.15602791
15	0xbf404db9	-0.75118595
16	0xbef26d97	-0.47349235
17	0xbcc9cdaa	-0.024634201
18	0xbd725996	-0.059167467
19	0x3e74c036	0.23901448
20	0x3f0cd289	0.5500875
21	0xbde2f2a3	-0.110814355
22	0x3ec858c8	0.39130235
23	0x3e4d96a3	0.20076995
24	0x3ebce979	0.36896876
25	0x3eba55cd	0.36393586
26	0x3ec76915	0.3894736
27	0x3df25396	0.11832349
28	0x3ee65879	0.44989374
29	0x3ed3d81c	0.41375816
30	0xbe47608a	-0.1947042
31	0xbdfc90b7	-0.1233229
32	0x3ebc3015	0.36755434
33	0xbde0e53f	-0.10981225
34	0xbf110065	-0.56641227
35	0xbdffaf96	-0.12484662
36	0xbeddb600	-0.43302917
37	0xbe5c7d3e	-0.21532151
38	0xbe81a57e	-0.25321573
39	0xbec8879f	-0.3916597
40	0xbe1a8d5b	-0.15092985
41	0xbddcc8c1	-0.10780478
42	0x3ecec250	0.40382624
43	0x3e4ff370	0.20307708
44	0x3e4de4d2	0.2010682
45	0x3c4ce187	0.012504942
46	0x3eea85f9	0.45805338
47	0x3eda2c14	0.42611754
48	0xbe8de785	-0.27715698
49	0xbd17075e	-0.03687226
50	0x3d52bd0b	0.051449817
51	0xbf0882c5	-0.5332454
52	0x3e2206bc	0.15822881
53	0xbd7e989f	-0.06215727
54	0x3e8316dc	0.25603378
55	0xbeaa55c4	-0.3326856
56	0xbf107212	-0.5642406
57	0xbcc8b9dd	-0.024502689
58	0x3e39b0a0	0.18133783
59	0x3ead074c	0.3379463
60	0xbdab8596	-0.08375089
61	0x3f07c641	0.53036886
62	0xbca07a44	-0.01958955
63	0xbcc28f9c	-0.023750119
64	0x3e5b4c2f	0.2141578
65	0x3e4a348d	0.19746609
66	0x3e626a2c	0.22110814
67	0x3ec30a44	0.3809377
68	0xbf00dd24	-0.50337434
69	0x3eda54e7	0.426429
70	0x3ea99a23	0.3312541
71	0xbf648c88	-0.89276934
72	0xbee55a3e	-0.44795412
73	0x3de99cba	0.11406846
74	0x3efcb34a	0.49355537
75	0xbed1eff7	-0.4100339
76	0xbe8b1fe7	-0.27172777
77	0x3e849a74	0.25899088
78	0x3d57bc07	0.05266955
79	0x3d59b0f1	0.05314726
80	0x3f061325	0.5237296
81	0x3e5ca2c2	0.21546462
82	0xbef86229	-0.4851239
83	0x3e491d17	0.19640003
84	0xbe8e92af	-0.27846286
85	0xbf14a5fe	-0.58065784
86	0x3e55ea88	0.20890248
87	0xbdc58efb	-0.09646412
88	0x3e9d2e9a	0.30699617
89	0x3f196c97	0.5993132
90	0x3e424614	0.18972045
91	0x3e6d64ba	0.23182955
92	0x3eee5d60	0.46555614
93	0x3edcc6c2	0.4312039
94	0x3dbdbd14	0.092645794
95	0xbc3f2d20	-0.0116684735
96	0xbd84c86b	-0.06483539
97	0xbecfa548	-0.40555787
98	0xbedbb153	-0.42908725
99	0xbdfe4a4b	-0.12416514
100	0xbe05740e	-0.13032553
101	0x3f2e305e	0.6804255
102	0x3db20041	0.08691455
103	0xbeb9f7d1	-0.3632188
104	0x3e8b40ad	0.2719778
105	0x3e7dbc3b	0.24778835
106	0xbe84b0d7	-0.25916168
107	0xbee30f1f	-0.44347474
108	0xbec78f65	-0.3897659
109	0xbe15d692	-0.14632633
110	0x3df96017	0.12176531
111	0xbe5043de	-0.2033839
112	0xbebaea63	-0.36506948
113	0x3eabcc85	0.33554474
114	0xbe8d016b	-0.27540144
115	0xbe86f0a3	-0.26355466
116	0x3ecc2cb2	0.3987785
117	0xbe8d810d	-0.2763752
118	0x3e9aa4a4	0.30203736
119	0x3ddd2dcf	0.10799753
120	0xbf058eec	-0.52171206
121	0xbda97e23	-0.08276012
122	0xbdfa0499	-0.12207908
123	0x3e8740b2	0.26416546
124	0xbca1a38e	-0.01973131
125	0x3f1a4d3e	0.6027411
126	0x3e97f22b	0.29676947
127	0x3eace2b1	0.33766702
128	0xbd8f4c1d	-0.06996939
129	0x3e605eac	0.21911114
130	0x3edfd0f8	0.43714118
131	0x3e30a9c0	0.17252254
132	0xbf2078e2	-0.6268445
133	0x3e5c495e	0.21512362
134	0x3efc8499	0.49319914
135	0x3ed3aa97	0.41341087
136	0x3ed7ad18	0.42124248
137	0x3ed960e6	0.4245674
138	0xbe4f3897	-0.20236431
139	0xbdb2fa97	-0.087392025
140	0xbf027f0a	-0.50975096
141	0x3e2fbe33	0.17162399
142	0xbefd2bc9	-0.49447468
143	0x3dff240e	0.12458049

conv1.bias f4 [16]
0	0x3e7db593	0.24776296
1	0xbd246283	-0.04013301
2	0xbd4f7434	-0.05064793
3	0x3e76443a	0.24049464
4	0x3e6023ec	0.21888703
5	0x3e58c35e	0.21168277
6	0x3ec4eb39	0.3846071
7	0x3dcc0f6f	0.09963881
8	0x3e978efb	0.29601273
9	0x3d11d3bf	0.035602327
10	0x3eda1579	0.42594507
11	0xbb4264f4	-0.0029662224
12	0xbdb22145	-0.08697752
13	0x3e78124c	0.2422573
14	0x3ea1c583	0.31596002
15	0x3e45f997	0.19333492

conv2.weight f4 [32, 16, 3, 3]
0	0xbd805e0c	-0.06267938
1	0xbe515ae9	-0.20444836
2	0xbe228cf3	-0.1587408
3	0x3cb3137d	0.021859879
4	0xbcfb7462	-0.030695144
5	0x3df2bfbc	0.11852977
6	0x3e1fd69e	0.15609214
7	0x3e0f9af8	0.1402396
8	0x3de49453	0.11161103
9	0xbe4cdc8f	-0.20006011
10	0xbc609994	-0.013708491
11	0x3cfdadd8	0.030966684
12	0x3e891992	0.2677732
13	0x3e9b4555	0.30326334
14	0x3ea70d0b	0.32627138
15	0x3d54754a	0.051869668
16	0xbd96bfc2	-0.07360794
17	0xbe8fb9d8	-0.28071475
18	0x3e4ce985	0.20010956
19	0x3e57902d	0.21051092
20	0x3e71d934	0.23618013
21	0x3d4aa206	0.049470924
22	0xbdd26f35	-0.10275117
23	0xbe6a3e28	-0.22875273
24	0xbe934c45	-0.28769127
25	0xbe871bd6	-0.26388425
26	0xbdac7dc5	-0.08422426
27	0xbd8bf090	-0.06832993
28	0xbdfbe540	-0.12299585
29	0xbd3ebf5c	-0.046569213
30	0x3e8b1f56	0.27172345
31	0x3e156601	0.14589693
32	0x3d950f24	0.072782785
33	0x3c433d6f	0.011916502
34	0xbd31d534	-0.043416217
35	0xbe924408	-0.2856753
36	0x3c72bd3a	0.014815623
37	0xbda7a5dc	-0.08185932
38	0xbd8f7d7a	-0.07006355
39	0xbdfea2f8	-0.124334276
40	0xbe3485fb	-0.17629234
41	0xbc0a9d11	-0.008460299
42	0x3d97a3d2	0.07404293
43	0x3d6021d1	0.05471975
44	0x3de98124	0.11401585
45	0x3a4c35f8	0.00077900244
46	0x3da1fc0a	0.07909401
47	0x3d84da34	0.064869314
48	0x3e62eb8b	0.22160165
49	0x3e3accf9	0.18242253
50	0x3ca0d7ef	0.019634215
51	0x3d6f807a	0.058472134
52	0xbe1834d5	-0.14863904
53	0xbe9fee54	-0.31236517
54	0x3dbb40bf	0.09143209
55	0x3e42b32f	0.19013666
56	0x3d8b8d39	0.068140455
57	0xbdf96a95	-0.12178532
58	0xbe6e24f1	-0.2325628
59	0xbe954ce9	-0.2916024
60	0xbe4ccd31	-0.2000015
61	0xbe561f3d	-0.20910354
62	0xbd2130cc	-0.039353177
63	0xbdbec49c	-0.09314844
64	0x3e12695b	0.14298002
65	0x3e9f1f98	0.31078792
66	0xbd426365	-0.04745807
67	0x3dbc085c	0.09181282
68	0x3e4ca31c	0.19984096
69	0xbe7b243e	-0.24525544
70	0xbe7bb1a8	-0.24579489
71	0xbf04ff54	-0.519521
72	0x3cfdf7ba	0.031001914
73	0xbcacfdc6	-0.021117102
74	0xbd41c2d1	-0.047304932
75	0xbe101725	-0.14071329
76	0xbd34dcfc	-0.04415606
77	0xbe8ef6bb	-0.27922615
78	0xbe73f292	-0.23823002
79	0xbe2c9d95	-0.16856988
80	0xbe07a415	-0.13246186
81	0x3d713644	0.058889642
82	0x3d9709b0	0.073748946
83	0x3e04f8d0	0.1298554
84	0xbe7b9814	-0.24569732
85	0xbe533d01	-0.2062874
86	0xbe61fad8	-0.22068346
87	0xbe280f3d	-0.16412063
88	0xbd6de20a	-0.058076896
89	0xbd74c201	-0.05975533
90	0xbcf69a80	-0.030102968
91	0x3e103a2c	0.14084691
92	0x3e9829e1	0.2971945
93	0x3e299703	0.16561513
94	0x3e24d933	0.1609848
95	0x3e1928cd	0.1495697
96	0x3d3d403e	0.046203844
97	0x3be7e4fd	0.007076858
98	0xbe951aa3	-0.29121885
99	0xbdd07391	-0.101782925
100	0xbe39fee3	-0.18163638
101	0x3dd9404b	0.10607966
102	0x3e8e5990	0.27802706
103	0x3e152a21	0.14566852
104	0x3d8c25d4	0.06843153
105	0xbd6586e1	-0.056036834
106	0xbea05bba	-0.31319982
107	0xbeff60c9	-0.4987853
108	0xbc39e119	-0.011345171
109	0xbd027e47	-0.03185871
110	0xbdea8375	-0.11450855
111	0xbe04fd0b	-0.12987153
112	0xbdb58bf0	-0.088645816
113	0xbd9178f2	-0.071031466
114	0x3c8db5b6	0.01729856
115	0x3d6c893b	0.05774806
116	0x3c604e36	0.013690522
117	0x3de123ea	0.10993178
118	0x3d565b16	0.05233296
119	0x3d699690	0.057028353
120	0xbde5bbc3	-0.11217453
121	0xbdaea574	-0.085276514
122	0xbe185300	-0.14875412
123	0xbdc23166	-0.09482078
124	0xbe1732b0	-0.1476543
125	0xbd16ef9c	-0.036849603
126	0x3d2982b2	0.041384406
127	0x3d807ead	0.062741615
128	0x3d191e17	0.03738221
129	0x3e1a7801	0.1508484
130	0x3d197a9e	0.037470452
131	0xbd307efa	-0.043089844
132	0xbe988353	-0.29787692
133	0xbeaa2bcc	-0.3323654
134	0xbe9e4f9f	-0.3092012
135	0xbc56b6c4	-0.013105098
136	0xbcf1de19	-0.02952485
137	0x3d72e862	0.05930365
138	0x3e16798c	0.14694804
139	0x3e89c5d3	0.2690874
140	0x3e8bf62b	0.2733625
141	0x3dc10830	0.0942539
142	0x3d17142f	0.036884483
143	0xbe4407dc	-0.19143623
144	0xbd8f6fcb	-0.07003745
145	0xbcabfdfc	-0.020995133
146	0xbd665a12	-0.05623824
147	0xbbb1fb90	-0.0054316
148	0x3d48ea4d	0.04905157
149	0xbcd477fb	-0.025936117
150	0xbdb3dbbe	-0.08782147
151	0xbd1f9983	-0.03896476
152	0x3c667e55	0.014068206
153	0xbd9eee2a	-0.0776027
154	0xbdb88329	-0.09009392
155	0x3c6c05a9	0.014405646
156	0x3d8de0a1	0.0692761
157	0xbcf2e71e	-0.02965122
158	0xbd04d8df	-0.032433387
159	0xbd82bd62	-0.06383778
160	0x3d9c6d67	0.07638054
161	0x3d86e7e3	0.06587198
162	0x3b7f76ba	0.0038980679
163	0xbcd5e22f	-0.02610883
164	0x3c4fce04	0.012683395
165	0x3d42339f	0.04741251
166	0x3d7b31ed	0.06132691
167	0x3d056429	0.032566223
168	0xbd8e99ac	-0.06962904
169	0xbd4b12e0	-0.049578547
170	0x3d1d9595	0.03847273
171	0xbd5d8c49	-0.054088864
172	0xbd8485b5	-0.06470815
173	0x3d140202	0.036134727
174	0xbbb20edf	-0.0054339017
175	0xbdab6e29	-0.08370621
176	0x3d4428c8	0.047890455
177	0xbd7af24e	-0.061266236
178	0xbc7d1d5a	-0.0154488925
179	0xbd6ddca3	-0.058071744
180	0xbc8060e4	-0.015671201
181	0x39ff3a28	0.0004868072
182	0x3d847e95	0.06469456
183	0xbcfb7929	-0.030697422
184	0x3d7a8a57	0.061167087
185	0xbd3822a7	-0.044954922
186	0xbb395ce0	-0.0028284118
187	0xbd171540	-0.0368855
188	0xbd295650	-0.04134208
189	0x3d9b3f4e	0.07580434
190	0x3d345c35	0.044033248
191	0x3d84f589	0.064921446
192	0xbda9ce33	-0.082912825
193	0xbdafc2d2	-0.08582081
194	0x3d80cf36	0.06289522
195	0xbcb699e8	-0.022290185
196	0xbd4c144c	-0.049824044
197	0x3d0117c3	0.0315168
198	0x3ba3db9c	0.0050005447
199	0x3d19eee6	0.037581347
200	0x3ba1d873	0.004939133
201	0xbda2936d	-0.079382755
202	0x3cb844f8	0.022493824
203	0xbca1b730	-0.01974067
204	0xbd10f03e	-0.035385363
205	0xbd54fdc0	-0.051999807
206	0x3c784368	0.01515279
207	0xbd9cd33f	-0.076574795
208	0xbd2bb875	-0.04192396
209	0xbd4d6ea1	-0.050154332
210	0x3d728be2	0.059215434
211	0xbd855959	-0.06511182
212	0xbd008be7	-0.03138342
213	0xbd2a0bb1	-0.041515056
214	0xbda5ff0b	-0.08105286
215	0xba67236f	-0.00088172307
216	0x3cd818d8	0.026379034
217	0xbcc559df	-0.024090705
218	0xbdaf5bec	-0.085624546
219	0xbd68a90f	-0.05680185
220	0xbd49d39e	-0.04927408
221	0xbd80d9e9	-0.06291563
222	0x3d8688d6	0.06569068
223	0xbd8ff634	-0.070293814
224	0x3d8edebb	0.06976076
225	0xbd64a2fa	-0.05581949
226	0x3d7a6790	0.06113392
227	0xbd837656	-0.06419055
228	0x3d23ca3d	0.03998779
229	0x3ca8118d	0.020516181
230	0x3cc1f737	0.023677452
231	0xbd49fe14	-0.049314573
232	0xbdb40081	-0.087891586
233	0xbcef02b3	-0.029176092
234	0x3cc3ab89	0.023885505
235	0x3d87c97a	0.066302255
236	0xbc53bed1	-0.012923912
237	0xbcc60691	-0.024173053
238	0x3d7eaa9a	0.062174417
239	0x3d9b6daf	0.0758928
240	0xbccadb63	-0.024762815
241	0xba832908	-0.0010006735
242	0x3c936086	0.017990362
243	0x3d88a387	0.06671815
244	0xbd5368c0	-0.05161357
245	0x3c3c25be	0.011483608
246	0x3c9c0046	0.0190431
247	0x3cd504d6	0.026003283
248	0x3d85ec4c	0.06539211
249	0x3d1302ab	0.035891216
250	0xbdb74133	-0.08947983
251	0x3cb22cda	0.021749903
252	0xbd79b13f	-0.06096005
253	0x3c8932d7	0.016747875
254	0xbb9aa1a9	-0.0047189784
255	0x3d6b8fff	0.057510372

conv2.bias f4 [32]
0	0x3b9b707b	0.0047436333
1	0xbd9f4550	-0.07776892
2	0xbd9a3570	-0.07529724
3	0x3bbc71f8	0.005750891
4	0x3d478b04	0.04871656
5	0xbd278e90	-0.040907443
6	0xbc9b0b11	-0.018926175
7	0x3cac6249	0.02104296
8	0x3c3ef432	0.0116549
9	0x3b81f1b3	0.0039655804
10	0xbdb0e3f4	-0.086372286
11	0x3d3997e1	0.04531086
12	0xbce00efc	-0.027350895
13	0xbde0d6a5	-0.1097844
14	0xbcbe58a1	-0.02323562
15	0xbd85532b	-0.06510004
16	0x3d02bd3f	0.03191876
17	0xbd7fda68	-0.062464148
18	0x3cc360c4	0.023849852
19	0xbd873aa5	-0.066029824
20	0xbdcc5430	-0.09976995
21	0xbc230dbc	-0.009952005
22	0xbc84e67c	-0.016223185
23	0x3db0e5a6	0.08637552
24	0x3d5b1a5d	0.05349194
25	0x3d195ac8	0.03744009
26	0xbc8b01db	-0.016968658
27	0xbdbf2bf4	-0.09334555
28	0x3d3e1cec	0.0464143
29	0xbd592598	-0.053014368
30	0x3d0540f9	0.032532666
31	0x3b8920b3	0.0041848063

fc1.weight f4 [100, 800]
0	0x3ba32670	0.0049789473
1	0x3c8a5501	0.016886236
2	0x3ce7ada2	0.028281037
3	0x3cf03562	0.02932233
4	0xbcf9e451	-0.030504378
5	0xbd200826	-0.03907027
6	0xbc5d1127	-0.013492859
7	0xbd1cf3a2	-0.038318284
8	0xbd11aec5	-0.035567064
9	0x3ba54753	0.005043903
10	0xbca2231a	-0.019792128
11	0xbcffa081	-0.031204464
12	0xbc3caf9d	-0.011516479
13	0x3bc49bf3	0.006000036
14	0x3cb68820	0.022281706
15	0x3c5085c6	0.012727207
16	0xbcb3be22	-0.021941248
17	0x3bd508da	0.0065012993
18	0xbd1c36d8	-0.03813824
19	0x3c91d61b	0.017802289
20	0xbc75823e	-0.014984665
21	0xbc44c24d	-0.012009216
22	0xbd181e5f	-0.03713834
23	0xbc95d9a2	-0.018292252
24	0x3cbfd6af	0.023417799
25	0x3cf2d2b6	0.02964149
26	0x3c9f9300	0.019479275
27	0x3d004ddf	0.031324264
28	0xbd06d74c	-0.032920167
29	0xbce1e4f9	-0.027575003
30	0x3cb9118c	0.022591375
31	0x3c8add81	0.016951324
32	0xbb18101f	-0.0023202968
33	0xbd0a461e	-0.033758275
34	0x3d009545	0.031392355
35	0x3c900b42	0.017583493
36	0x3c8cc315	0.017182866
37	0x3c980dfa	0.018561352
38	0x3ce27359	0.027642893
39	0xbce99eca	-0.0285181
40	0x3abd02c0	0.0014420375
41	0x3c072a3e	0.008249817
42	0x3bb771de	0.005598291
43	0x3c8a284c	0.016864918
44	0x3cbd2e17	0.023093266
45	0xbc07aefe	-0.0082814675
46	0x3c853f52	0.016265545
47	0x3ca93e53	0.020659601
48	0x3c49c9dc	0.012316193
49	0xbb13bffd	-0.0022544854
50	0xbc8fd85f	-0.017559228
51	0xba3d2344	-0.0007215033
52	0xbca73250	-0.020409733
53	0xbcb98b94	-0.022649564
54	0xbcb15646	-0.021647584
55	0x3c5271da	0.012844527
56	0xbc2fab60	-0.010722011
57	0xbb6e8342	-0.0036394154
58	0xbc6d991e	-0.014501838
59	0x3c9a78a4	0.018856354
60	0xbce7bdc0	-0.028288722
61	0x3c1eb92d	0.009687704
62	0xbc4f62c8	-0.012657829
63	0x3c92d9cc	0.01792612
64	0x3ceb4902	0.028721336
65	0x3b959f0e	0.00456608
66	0x3c1806f4	0.0092790015
67	0x3cbbd766	0.022929858
68	0xbd23ffe0	-0.040038943
69	0xba29b3ae	-0.0006473613
70	0xbc1bdc5c	-0.009512987
71	0x3ccb1e80	0.024794817
72	0x3b6e1a18	0.003633147
73	0x3c86dc24	0.016462393
74	0xba941a85	-0.0011299407
75	0x3cd84f56	0.026405018
76	0xbd1383ba	-0.036014296
77	0x3c13b112	0.009014385
78	0x3b2f5ecf	0.0026759391
79	0xbcbb6091	-0.022873195
80	0xbcadc0a4	-0.021210022
81	0xbc19300e	-0.009349836
82	0xbc0f79a3	-0.008757028
83	0xbd0ce56d	-0.034398485
84	0x3c62eedb	0.013850893
85	0xbc3bbff7	-0.011459342
86	0x3cd27fa2	0.025695626
87	0x3cb72d6d	0.022360528
88	0xbc551dbe	-0.013007579
89	0xbc9deb62	-0.019277278
90	0xbcd18929	-0.025578098
91	0x3cbd50d8	0.023109838
92	0xbd0e2855	-0.034706432
93	0xbce4417c	-0.027863257
94	0xbb79a884	-0.0038094828
95	0x3bd2c0a8	0.006431658
96	0x3bf780f7	0.0075532156
97	0x3c80efaf	0.01573929
98	0xbcbb9323	-0.022897309
99	0xbc59110c	-0.013248693
100	0x3c8a66a5	0.016894648
101	0x3bdcd7a2	0.0067395726
102	0x3c82d0df	0.015968738
103	0xbd284100	-0.041077614
104	0xbd14f030	-0.036361873
105	0x3b9a8e3b	0.004716662
106	0x3c0f84c2	0.008759679
107	0x3c839de1	0.016066493
108	0x3c7b1398	0.015324496
109	0x3c89dd99	0.016829299
110	0xbc46ae43	-0.012126508
111	0x3c8a60b2	0.016891811
112	0x3ba2425a	0.0049517574
113	0x3ca5eb9e	0.020253953
114	0xbc60030a	-0.0136726
115	0xbb91d0ee	-0.004449955
116	0xbc22a210	-0.009926334
117	0x3c4f56d6	0.012654981
118	0xbaf314ef	-0.0018545667
119	0xbc766e3c	-0.01504093
120	0x3ca520f2	0.020157311
121	0xba53c79d	-0.0008078756
122	0x3c56f2fb	0.0131194545
123	0xbca6be91	-0.020354541
124	0x3c996e79	0.018729435
125	0xba676cb0	-0.00088281464
126	0x3bc02afa	0.005864498
127	0x3cbe7725	0.023250172
128	0xbc09f175	-0.008419384
129	0xbcb1045b	-0.021608522
130	0xbd19dbac	-0.03756301
131	0x3cd3a309	0.025834577
132	0x3cb329ff	0.021870611
133	0xbd08e9b0	-0.033425987
134	0x3c911a7d	0.017712826
135	0x3bf96434	0.007610822
136	0x3ca3e155	0.020004908
137	0xbcf17ad6	-0.029477518
138	0xbb993d98	-0.004676532
139	0x3b758692	0.0037464243
140	0xbc65a6ac	-0.014016788
141	0x3c790dd5	0.015201052
142	0xbcd47af9	-0.025937544
143	0x3ba9bc16	0.0051798923
144	0x3c00f720	0.007871419
145	0xbcb2475a	-0.021762539
146	0xbcf86640	-0.030322194
147	0xbca4cffb	-0.020118704
148	0x3caa94c4	0.02082289
149	0xbc8c60e8	-0.017136052
150	0xbc1d43b9	-0.009598666
151	0xbc8a783b	-0.016903033
152	0x3c930a9f	0.0179494
153	0x3a694d64	0.0008899777
154	0xbd0c7eae	-0.0343005
155	0x3c90548b	0.017618438
156	0xbd14a4fe	-0.03629016
157	0xbd1589bb	-0.036508303
158	0xbc2e9fde	-0.0106582325
159	0x3ca4a8c0	0.020099998
160	0x3c546a22	0.012964757
161	0xbc4840f2	-0.012222515
162	0x3c8ec31d	0.017427022
163	0xbcf2b883	-0.029628998
164	0xbd1b7fe8	-0.037963778
165	0xbc8c9146	-0.017159116
166	0xbd0bee05	-0.03416254
167	0x3c937018	0.017997786
168	0x3c889a7b	0.016675225
169	0xbc97024f	-0.018433718
170	0xbd147f35	-0.036254127
171	0xbc802ed0	-0.015647322
172	0xbc678e14	-0.014132995
173	0xbbed40fd	-0.007240413
174	0xbcecd413	-0.028909719
175	0xbc3639d2	-0.011122184
176	0xbd0109ae	-0.031503372
177	0xbd180231	-0.037111465
178	0xbce25959	-0.027630495
179	0x3cc642c3	0.024201756
180	0xbd10ff45	-0.035399694
181	0x3ca26026	0.019821238
182	0x3b926820	0.004467979
183	0x3c25d633	0.01012187
184	0x3af4bcc0	0.0018671975
185	0xbcb76a34	-0.022389509
186	0xbc168855	-0.0091877775
187	0x3cd61d57	0.026137037
188	0x3c99728b	0.018731376
189	0xbd0acc36	-0.033886157
190	0xbaab5649	-0.001307198
191	0x3a79b030	0.000952485
192	0x3cc1860a	0.023623485
193	0xbcb9d905	-0.02268649
194	0x3cd66c2c	0.026174627
195	0x3bab0be6	0.0052199243
196	0xbd09b20c	-0.033617064
197	0x3ac98856	0.0015375714
198	0x3bf5f4a1	0.0075059687
199	0x3bb30beb	0.005464067
200	0x3ce85038	0.028358564
201	0xbc0f76f0	-0.008756384
202	0xbaa83ae4	-0.0012834934
203	0xbd123eb2	-0.035704322
204	0xbc06b843	-0.008222642
205	0xbc1603d8	-0.00915619
206	0x3ccc21e2	0.0249185
207	0xbc54ad0b	-0.01298071
208	0xbbbbd492	-0.0057321275
209	0x3ce46cc3	0.027883893
210	0x3c80cb0b	0.015721818
211	0xbc1a13c6	-0.009404128
212	0x3cea368a	0.02859046
213	0xbb180577	-0.0023196617
214	0x3cab1f39	0.020888912
215	0x3cb53006	0.022117626
216	0xbcbe5321	-0.023232998
217	0x3c0b9e0a	0.008521566
218	0x3ca502c6	0.020142924
219	0xbcfcdd07	-0.030867113
220	0x3cde94d5	0.027170578
221	0x3af32a22	0.0018551985
222	0xb99eca7a	-0.00030286965
223	0x3b42877c	0.0029682806
224	0xbca2e4d2	-0.0198845
225	0xbbba8226	-0.0056917844
226	0x3bf7771b	0.0075520403
227	0xbcfed1c1	-0.031105878
228	0xbb98bade	-0.004660948
229	0xbd1d3a1c	-0.038385496
230	0x3c27a04e	0.010231091
231	0x3cd04850	0.025425106
232	0xbb49cce9	-0.0030792302
233	0xb96d264c	-0.00022616348
234	0xbc20e8d5	-0.0098211365
235	0x3b3728e7	0.0027947964
236	0xbce24623	-0.027621334
237	0xbca90f7e	-0.02063727
238	0xba1fc303	-0.00060944277
239	0xbca68d6d	-0.020331109
240	0xbc882097	-0.016617103
241	0x3b6783ef	0.0035326441
242	0x3c30cf83	0.010791662
243	0xbc3e2acf	-0.011606886
244	0xbcff80a6	-0.031189274
245	0x3cbcf36e	0.023065295
246	0xbd03365a	-0.032034256
247	0xbcdb925a	-0.026803184
248	0xbd20c5cb	-0.03925113
249	0xbc9b1266	-0.018929671
250	0x3c74ce6e	0.014941795
251	0x3b43012d	0.002975534
252	0x3cb262a5	0.021775553
253	0xbc71a36d	-0.014748436
254	0x3c744dcd	0.014911127
255	0xbbf47775	-0.0074605295

fc1.bias f4 [100]
0	0xbd1c0944	-0.038094774
1	0xbcef0b8a	-0.029180307
2	0x3cef2ce6	0.029196214
3	0xbc922d10	-0.017843753
4	0xbd151299	-0.03639469
5	0x3c26e24c	0.010185789
6	0xbcf4d34d	-0.029885912
7	0xbd0a7b2f	-0.033808883
8	0x3d2fd673	0.042929124
9	0x3d54d093	0.051956724
10	0x3d2ad9be	0.04171156
11	0x3cf022ff	0.029313562
12	0x3c51dfea	0.012809733
13	0xbcf89d48	-0.030348435
14	0xbbcf4c87	-0.0063262614
15	0x3c4695c4	0.012120668
16	0x3bf7b920	0.0075599104
17	0xbcf36604	-0.02971173
18	0x3c21708a	0.009853492
19	0xbce1ee31	-0.027579399
20	0x3ca4ccba	0.020117152
21	0xbc8e39f6	-0.017361622
22	0xbc3137f5	-0.010816564
23	0x3b8e2015	0.0043373206
24	0x3c956a75	0.01823924
25	0xbc810df3	-0.015753722
26	0x3cc427ff	0.023944853
27	0x3c1a0210	0.009399906
28	0xbcbd13a5	-0.023080656
29	0xbd16f887	-0.036858108
30	0x3c4c4fb9	0.012470179
31	0xbcc0a501	-0.02351618
32	0xbd37a837	-0.044838157
33	0xbc8dc043	-0.017303592
34	0xbc9c9a41	-0.019116523
35	0x3d21025d	0.039308894
36	0x3cb7eabf	0.022450803
37	0xbb38f5d4	-0.0028222697
38	0xbcb8b713	-0.022548234
39	0x3b807a3d	0.003920822
40	0xbcccf49c	-0.025018983
41	0xbcfbb613	-0.030726468
42	0xbcef77aa	-0.029231865
43	0xbcf9c75f	-0.030490575
44	0x3da8f5d1	0.08250011
45	0xbc9bf6a7	-0.019038511
46	0xbd185cde	-0.03719794
47	0x3d55ae21	0.052168015
48	0x3d165d91	0.036710326
49	0x3bf73e5d	0.007545276
50	0xbd1bc7ba	-0.03803227
51	0x3d550a7f	0.052011963
52	0x3d3b9429	0.045795593
53	0x3d3b1edb	0.045683723
54	0xbd437b03	-0.047724735
55	0x3c369494	0.011143822
56	0xbc9371ec	-0.017998658
57	0x3bf3f9c4	0.007445546
58	0xbd3240a9	-0.043518696
59	0xbd391c2e	-0.04519289
60	0xbd38651c	-0.0450183
61	0x34f5ee00	4.5807974e-07
62	0x3d0dd8f6	0.03463074
63	0x3cb4ea52	0.022084389
64	0xbccb4907	-0.024815096
65	0xbd1c27dd	-0.038123954
66	0x3d9732a2	0.07382704
67	0x3d627eb7	0.055296626
68	0xbd2b39f1	-0.041803304
69	0x3b37f473	0.0028069287
70	0xbd4a56a8	-0.049399048
71	0x3ca83701	0.02053404
72	0x3a6ff53f	0.0009153671
73	0x3c4b74ae	0.012417955
74	0xbd0eb6a4	-0.03484215
75	0xbd32a1b8	-0.04361126
76	0xbd06d9a9	-0.03292242
77	0xbaefeb6c	-0.0018304414
78	0xbcc2d225	-0.023781845
79	0xbd1b62b0	-0.037935913
80	0x3cbf2f16	0.023337882
81	0x3c3995d9	0.01132723
82	0x3af270ee	0.001849679
83	0xbcd13f01	-0.025542738
84	0xbccfb371	-0.025354119
85	0x3cca6a11	0.02470878
86	0xbc91b374	-0.017785765
87	0x3b0aedc9	0.002119886
88	0x3ca647f6	0.020297986
89	0x3bbe2ef7	0.0058039385
90	0xbc96026d	-0.018311704
91	0x3bc7d500	0.0060983896
92	0x3d587221	0.052843217
93	0x3d10d632	0.035360523
94	0xbbdd3a20	-0.006751314
95	0x3ddbd8f8	0.10734743
96	0xbc41b61e	-0.011823205
97	0xbd2861af	-0.041108783
98	0xbd72c9db	-0.059274536
99	0xbc3bbde3	-0.011458847

fc2.weight f4 [10, 100]
0	0x3da8e75c	0.08247253
1	0x3d98f3ea	0.07468398
2	0x3d11add8	0.03556618
3	0x3e03e72c	0.12881154
4	0x3d81585a	0.0631568
5	0xbd9d4c81	-0.076806076
6	0xbe13636d	-0.14393397
7	0xbcc90601	-0.024538996
8	0x3d6d98f4	0.058007196
9	0xbdd3b205	-0.10336689
10	0x3e3798fe	0.17929456
11	0x3bc973ce	0.006147838
12	0x3ce2a2b4	0.027665474
13	0xbd1d0cd4	-0.038342312
14	0x3d47f581	0.048818115
15	0xbc4abcae	-0.012374086
16	0x3e42a30d	0.19007511
17	0x3cb3d5b6	0.021952491
18	0x3d154bb8	0.036449164
19	0xbd17fe09	-0.0371075
20	0x3cd12df9	0.025534617
21	0xbda138e1	-0.07872177
22	0x3b2fd8d5	0.0026832123
23	0x3c0efd82	0.008727433
24	0x3c950912	0.018192802
25	0xbe51258f	-0.20424484
26	0x3c801bc1	0.015638234
27	0xbd8ba2b1	-0.0681814
28	0xbdbccdbd	-0.09218929
29	0x3db2b51d	0.08725951
30	0xbdaf9909	-0.08574111
31	0xbd030c02	-0.031993873
32	0xbe336bd9	-0.1752161
33	0xbd8fe94f	-0.07026922
34	0xbd492218	-0.04910478
35	0xbd173c0a	-0.036922492
36	0x3e0bd9a5	0.13657244
37	0xbdf59d7d	-0.11992929
38	0xbb5b0eab	-0.003342549
39	0xbd91f1b3	-0.071261786
40	0x3d196122	0.03744615
41	0xbda3845c	-0.0798423
42	0xbdbb2066	-0.09137039
43	0xbd7b986a	-0.06142465
44	0x3d89e733	0.06733551
45	0x3cc4a7d4	0.024005808
46	0x3cf792d8	0.030221388
47	0x3dbe7572	0.09299745
48	0x3d58c7eb	0.05292503
49	0x3e07e578	0.13271129
50	0xbe1a920d	-0.15094776
51	0x3deddd40	0.11614466
52	0x3e361b4d	0.17783852
53	0x3d4fb2a0	0.05070746
54	0xbe4d284b	-0.20034902
55	0xbbeee5cf	-0.007290579
56	0x3dc79077	0.09744351
57	0x3c53e79e	0.01293364
58	0xbde5bbc3	-0.11217453
59	0xbc84c460	-0.01620692
60	0xbb2ab85f	-0.0026049835
61	0xbdb900c3	-0.090333484
62	0xbe071187	-0.1319028
63	0xbda1c782	-0.07899381
64	0x3c606806	0.013696676
65	0x3e0ab50e	0.1354563
66	0x3d94bffc	0.072631806
67	0x3dfd3312	0.123632565
68	0xbdf02112	-0.11725058
69	0xbcacecaa	-0.021108944
70	0xbd0d24da	-0.034458973
71	0xbe412615	-0.18862183
72	0xbd5bf33a	-0.053698756
73	0x3d800c5c	0.06252357
74	0xbc4e8d29	-0.012606897
75	0x3cbfdd23	0.023420876
76	0x3d9d59d5	0.0768315
77	0x3db59553	0.08866372
78	0x3d55cea1	0.05219901
79	0x3cf6f1fd	0.030144686
80	0x3daab595	0.08335415
81	0xbc948808	-0.018131271
82	0xbd3fcedf	-0.046828147
83	0xbd915d77	-0.07097905
84	0x3d5a49ab	0.05329291
85	0xbcc43825	-0.023952553
86	0xbd9dfad5	-0.07713858
87	0xbdd1ee5e	-0.10250543
88	0xbda41b7f	-0.08013057
89	0x3c1d2d8b	0.009593378
90	0xbeaa8c10	-0.33309984
91	0x3de4d67c	0.11173722
92	0x3cdb6dc7	0.026785744
93	0xbd9e3825	-0.077255525
94	0xbc58d908	-0.013235338
95	0x3d350fff	0.04420471
96	0xbe56bcde	-0.20970485
97	0x3dd5a269	0.10431368
98	0x3dd0688a	0.10176189
99	0x3d74eb47	0.05979469
100	0x3dbdf4b1	0.09275187
101	0xbd2bcda0	-0.041944146
102	0xba1ec4a8	-0.0006056526
103	0x3d8e69b1	0.06953753
104	0xbe182126	-0.14856395
105	0xbe206ec6	-0.15667257
106	0x3d7c843c	0.061649546
107	0x3d90edaa	0.07076581
108	0xbd4b028c	-0.049562976
109	0x3e06d6cf	0.1316788
110	0xbba53f53	-0.005042949
111	0x3e15afd6	0.14617857
112	0x3b7e9159	0.0038843958
113	0x39a0f74c	0.0003070183
114	0x3d817cc9	0.06322629
115	0xbde48528	-0.1115821
116	0x3de46b9f	0.111533396
117	0x3b1f7767	0.0024332644
118	0x3c09d9ec	0.008413773
119	0xbd5c3ed8	-0.05377087
120	0xbdf89db5	-0.12139455
121	0x3d621094	0.05519159
122	0xbe17e66a	-0.1483399
123	0x3d0aa94b	0.033852857
124	0x3e176df5	0.14788039
125	0x3daa0868	0.083023846
126	0xbce19095	-0.027534762
127	0xbdf24c77	-0.11830991
128	0x3d31d2a2	0.043413766
129	0xbb88b1da	-0.004171592
130	0x3d8f39d9	0.069934554
131	0xbdd23731	-0.10264433
132	0xbc6cca6e	-0.01445256
133	0xbd9f163d	-0.077679135
134	0xbb5b4d1f	-0.0033462716
135	0x3e1768c6	0.14786062
136	0xbdfb05ce	-0.122569665
137	0x3de6c4a0	0.11267972
138	0xbb47a489	-0.003046306
139	0xbdad05b1	-0.08448351
140	0x3db21bc5	0.08696703
141	0x3bf28a27	0.007401723
142	0xbdc45042	-0.095856205
143	0xbc8b0240	-0.016968846
144	0x3cc3d590	0.023905545
145	0xbe720dd0	-0.23638082
146	0x3db767f9	0.08955378
147	0x3d08b9d6	0.033380352
148	0x3dd859a6	0.10563974
149	0xbe16131a	-0.14655724
150	0xbe395bda	-0.18101445
151	0x3db1fdea	0.086910084
152	0x3d665f80	0.05624342
153	0x3e22cb9b	0.15897982
154	0xbe0e8cc1	-0.13920881
155	0xbc96245c	-0.018327884
156	0xbe0db505	-0.13838585
157	0xbe8a5180	-0.27015305
158	0xbdb347ff	-0.087539665
159	0xbda28c52	-0.0793692
160	0xbc8daa6c	-0.017293178
161	0x3dabeaf6	0.083944246
162	0x3becf507	0.007231358
163	0x3d88d167	0.06680565
164	0xbd2be7dc	-0.041969165
165	0xbe37edf2	-0.17961863
166	0x3d0f7ca6	0.035030983
167	0x3d8c09f0	0.06837833
168	0x3ea6d184	0.32581723
169	0x3cb00630	0.021487325
170	0x3d3effd8	0.04663071
171	0x3dc0702d	0.09396396
172	0x3ddd6534	0.108103186
173	0xbe8d5e6d	-0.27611104
174	0x3d22cbc4	0.039745107
175	0xbd44b549	-0.04802445
176	0x3d54cb4e	0.0519517
177	0xbde35cd6	-0.111016914
178	0x3ccb9959	0.024853395
179	0x3d1f24ad	0.038853336
180	0xbcade5a1	-0.02122766
181	0x3e243ace	0.16038057
182	0xbda32f70	-0.07968032
183	0x3d32e281	0.043673042
184	0x3d9344cd	0.07190857
185	0xbdac1d9c	-0.08404085
186	0xbcc9f0eb	-0.024651011
187	0x3c95f06f	0.018303124
188	0xbd2296c3	-0.03969456
189	0x3d9226f7	0.07136338
190	0xbe4683de	-0.19386241
191	0xbe115761	-0.14193489
192	0x3d678f7e	0.05653333
193	0x3e0c0888	0.1367513
194	0xbe3dc5fb	-0.18532555
195	0x3e3a1371	0.18171479
196	0x3d4e0b95	0.050304014
197	0xbdef3a3d	-0.1168103
198	0xbb41c505	-0.0029566896
199	0xbe531a19	-0.20615424
200	0x3d6c190f	0.057641085
201	0xbd969985	-0.073535
202	0xbc76d43e	-0.015065251
203	0x3d9143fe	0.070930466
204	0x3d06348e	0.032764964
205	0x3d1853e3	0.037189376
206	0xbe46c5ad	-0.19411345
207	0xbd529025	-0.051407
208	0x3dd0523a	0.101719335
209	0xbdf79218	-0.12088412
210	0x3e17df8f	0.14831375
211	0xbe950f53	-0.29113254
212	0x3d2589d7	0.040414657
213	0x3c82b7da	0.015956808
214	0x3e0201ee	0.12696049
215	0x3df24aa2	0.11830641
216	0x3e63fcb6	0.2226437
217	0xbd31df52	-0.043425865
218	0x3cea0ef3	0.028571581
219	0xbc8dbc72	-0.017301772
220	0x3d37a6d1	0.044836823
221	0x3d7079ee	0.05871003
222	0x3e10f5dc	0.14156288
223	0x3d5d558e	0.05403667
224	0x3db08445	0.086189784
225	0xbe091a95	-0.13389046
226	0xbb6ed3e3	-0.0036442212
227	0x3cbf2c15	0.02333645
228	0x3d903aeb	0.07042488
229	0x3c651871	0.013982878
230	0x3d255f60	0.04037416
231	0xbd80fba8	-0.062979996
232	0xbda416c8	-0.08012158
233	0xbe2cb3b2	-0.16865423
234	0xbd1c902e	-0.038223438
235	0xbe1d47c1	-0.15359403
236	0x3c5dd677	0.013539902
237	0x3ca4d45c	0.020120792
238	0xbafad1e5	-0.001913604
239	0x3c9a92dd	0.018868858
240	0x3d6fedbb	0.058576327
241	0xbd8f1010	-0.069854856
242	0x3d8ada79	0.067799516
243	0xbdc9308b	-0.09823712
244	0xbdf4b181	-0.11947919
245	0x3dde5369	0.10855753
246	0xbdbbb28e	-0.09164916
247	0x3d70d5a2	0.058797486
248	0xbd9b28f7	-0.07576173
249	0x3d0aff5e	0.033934943
250	0x3cc7d53a	0.024393667
251	0xbe8d93ab	-0.27651724
252	0x3cf195d1	0.029490383
253	0x3de4c7de	0.11170934
254	0x3d837708	0.06419188
255	0x3d3e02b0	0.04638928

fc2.bias f4 [10]
0	0xbd90230c	-0.07037935
1	0x3e22fbe3	0.159164
2	0x3d5d652e	0.05405157
3	0xbd7487ee	-0.059699945
4	0xbdb0f77a	-0.086409524
5	0xbdebd4a0	-0.115151644
6	0x3d4ef2a4	0.05052437
7	0x3db8a7d3	0.09016385
8	0xbd888309	-0.06665618
9	0xbd8ed909	-0.0697499
