model/epoch_10.pth (torch_old, 344967 bytes, 8 tensors)

conv1.weight f4 [16, 1, 3, 3]
0	0xbe3079b1	-0.17233922
1	0xbe842c99	-0.25815275
2	0xbe1ede1b	-0.15514414
3	0xbe7378d0	-0.23776555
4	0xbed8383c	-0.42230403
5	0xbe765760	-0.24056768
6	0xbf072a2e	-0.52798736
7	0xbe0ab00a	-0.13543716
8	0xbed6fa0c	-0.41987646
9	0x3e8a4477	0.2700536
10	0x3e69e640	0.2284174
11	0x3d75e506	0.060032867
12	0x3ea5e4c5	0.324011
13	0x3ef8be91	0.4858289
14	0xbe20f3b2	-0.15717962
15	0xbf42f898	-0.76160574
16	0xbf00129d	-0.500284
17	0xbd03103b	-0.0319979
18	0xbd929095	-0.07156483
19	0x3e78634b	0.24256627
20	0x3f0e953a	0.5569645
21	0xbdf48d17	-0.11940973
22	0x3eca08dc	0.39459884
23	0x3e51ef01	0.20501329
24	0x3ebf587d	0.373722
25	0x3ebfc2ca	0.374533
26	0x3ec9d5fe	0.39421076
27	0x3df05b9c	0.11736223
28	0x3eea29e6	0.4573509
29	0x3ed5cef5	0.41759458
30	0xbe4f5090	-0.20245576
31	0xbe04de16	-0.12975344
32	0x3ebc2c3a	0.36752492
33	0xbddcb899	-0.10777397
34	0xbf12f8d3	-0.57410926
35	0xbdf32d35	-0.11873857
36	0xbedbf3b7	-0.42959377
37	0xbe6eb07e	-0.23309514
38	0xbe8a4f64	-0.27013695
39	0xbec689a9	-0.387769
40	0xbe361a8a	-0.17783561
41	0xbdf2bd17	-0.11852472
42	0x3ed4f332	0.41591793
43	0x3e47e04b	0.19519155
44	0x3e4e444f	0.20143245
45	0x3c8fd8e1	0.01755947
46	0x3eefadb2	0.46812207
47	0x3ee67647	0.45012113
48	0xbe8e168d	-0.2775158
49	0xbcb06ef6	-0.021537285
50	0x3da22112	0.07916464
51	0xbf04fe27	-0.51950306
52	0x3e37c3a4	0.17945725
53	0xbd0f0916	-0.034920774
54	0x3e875507	0.26432058
55	0xbeaa2a97	-0.33235618
56	0xbf113101	-0.567154
57	0xba30d3e9	-0.0006745444
58	0x3e5a08ac	0.2129237
59	0x3eb91c2e	0.36154312
60	0xbd9e15af	-0.077189796
61	0x3f0d6902	0.55238354
62	0xbbcbcc40	-0.006219417
63	0xbd0a7e07	-0.033811595
64	0x3e6a35a9	0.22872032
65	0x3e527f86	0.20556459
66	0x3e64bdd1	0.22338034
67	0x3ec478bb	0.3837336
68	0xbf06b196	-0.52614725
69	0x3edb884f	0.42877433
70	0x3ea96a73	0.33089027
71	0xbf6799e8	-0.9046922
72	0xbee42259	-0.44557455
73	0x3ded777e	0.11595057
74	0x3f005c92	0.5014125
75	0xbecd3835	-0.40081945
76	0xbe809f06	-0.25121325
77	0x3e91f37d	0.2850608
78	0x3d789932	0.060692973
79	0x3d933ee7	0.07189732
80	0x3f0ba1a8	0.5454354
81	0x3e64aeb6	0.22332272
82	0xbefb122f	-0.4903731
83	0x3e452317	0.19251667
84	0xbe90bd47	-0.28269407
85	0xbf14c179	-0.58107716
86	0x3e6bef2c	0.23040456
87	0xbdbb775c	-0.09153625
88	0x3ea5e0e3	0.32398137
89	0x3f21c861	0.6319638
90	0x3e2ab4de	0.16670558
91	0x3e74793e	0.23874375
92	0x3eef6530	0.46756887
93	0x3ed7b61e	0.42131132
94	0x3dc167de	0.09443639
95	0xbcc8e516	-0.0245233
96	0xbd9cf996	-0.07664792
97	0xbed5988b	-0.41717944
98	0xbee305ee	-0.44340461
99	0xbdf1006b	-0.11767658
100	0xbdefe45c	-0.11713478
101	0x3f320f9a	0.69555056
102	0x3da4ab20	0.08040452
103	0xbeba6f65	-0.36413112
104	0x3e92662e	0.28593582
105	0x3e8a4d4f	0.27012107
106	0xbe76fa18	-0.2411884
107	0xbeda4faa	-0.42638904
108	0xbec96880	-0.3933754
109	0xbe1b5f9e	-0.15173194
110	0x3df7cbc0	0.12099409
111	0xbe4b298c	-0.19840068
112	0xbeb76425	-0.35818592
113	0x3eaf81f4	0.34278834
114	0xbe898661	-0.26860335
115	0xbe8236f2	-0.25432545
116	0x3ed4c732	0.41558224
117	0xbe8a11c6	-0.26966685
118	0x3e9292e5	0.28627697
119	0x3dd12c5e	0.102135405
120	0xbf03b7a2	-0.51452076
121	0xbda7c19a	-0.081912234
122	0xbdcf9999	-0.10136718
123	0x3e8c41c5	0.27393928
124	0xbbfbaaab	-0.0076802573
125	0x3f23ed2d	0.64033777
126	0x3e98c677	0.29838917
127	0x3eb2ea64	0.3494445
128	0xbdbcd174	-0.092196375
129	0x3e601a50	0.21885037
130	0x3ee7eb55	0.45296732
131	0x3e3773ed	0.17915316
132	0xbf1b32a0	-0.6062412
133	0x3e72e339	0.23719491
134	0x3f001197	0.5002684
135	0x3ecd553c	0.4010409
136	0x3edcf505	0.43155685
137	0x3ed303de	0.41213888
138	0xbe60331f	-0.21894501
139	0xbdd425db	-0.10358783
140	0xbf077775	-0.5291665
141	0x3e273956	0.16330466
142	0xbeff1f86	-0.49828738
143	0x3df10a81	0.117695816

conv1.bias f4 [16]
0	0x3e761772	0.24032381
1	0xbd227398	-0.03966102
2	0xbd37285f	-0.044716235
3	0x3e702aac	0.23453778
4	0x3e5c8d8b	0.2153837
5	0x3e5196bb	0.20467655
6	0x3ec17f65	0.37792507
7	0x3dd37e9f	0.103268854
8	0x3e96d56e	0.2945971
9	0x3d15f672	0.03661198
10	0x3ed93b52	0.4242807
11	0xbc1ea49d	-0.009682802
12	0xbdc14718	-0.09437388
13	0x3e67939a	0.226149
14	0x3ea3f674	0.32023966
15	0x3e3d1619	0.18465461

conv2.weight f4 [32, 16, 3, 3]
0	0xbd3a3a7b	-0.045465928
1	0xbe45197a	-0.19248
2	0xbe10e4ad	-0.14149733
3	0x3d1378b6	0.03600379
4	0xbc89a493	-0.016802108
5	0x3e07cac2	0.1326094
6	0x3e2d4ed7	0.16924606
7	0x3e1c52f0	0.15266013
8	0x3df62126	0.12018041
9	0xbe3f7d05	-0.18700035
10	0xbb860df1	-0.0040910174
11	0x3d1df74a	0.03856591
12	0x3e869635	0.26286474
13	0x3e9cfd30	0.30661917
14	0x3ea603e3	0.3242484
15	0x3d6ee182	0.05832053
16	0xbd89617a	-0.06708045
17	0xbe96a07c	-0.29419315
18	0x3e47fe9c	0.1953072
19	0x3e602e47	0.21892653
20	0x3e7653fa	0.24055472
21	0x3d33837e	0.043826573
22	0xbdd71a68	-0.105030835
23	0xbe7a4fc7	-0.24444495
24	0xbe9a01a8	-0.3007939
25	0xbe8ef4c3	-0.27921113
26	0xbd9537df	-0.07286047
27	0xbd52e89a	-0.051491357
28	0xbdedeb87	-0.11617189
29	0xbd0584eb	-0.032597464
30	0x3e8c2468	0.27371526
31	0x3e125500	0.14290237
32	0x3d8f1458	0.06986302
33	0x3c592a41	0.013254703
34	0xbd491d3a	-0.04910014
35	0xbe97ad84	-0.2962457
36	0x3cadce35	0.021216491
37	0xbda1f2d8	-0.07907647
38	0xbd913d21	-0.070917375
39	0xbdd12be7	-0.10213452
40	0xbe27dc50	-0.16392636
41	0x3bc22f50	0.0059260502
42	0x3da1f43e	0.079079136
43	0x3d8026aa	0.062573746
44	0x3e002142	0.12512687
45	0x3cd870bf	0.026420949
46	0x3dbc44d8	0.091928184
47	0x3d9f759b	0.07786103
48	0x3e67a51f	0.22621582
49	0x3e35e17e	0.177618
50	0x3c7266df	0.014795034
51	0x3d6a8416	0.057254873
52	0xbe24759d	-0.16060491
53	0xbea4a9ac	-0.321607
54	0x3dc3b90b	0.095567785
55	0x3e42e163	0.1903129
56	0x3d77640c	0.060398147
57	0xbdf722fd	-0.1206722
58	0xbe744533	-0.23854522
59	0xbe991414	-0.2989813
60	0xbe52a290	-0.20569825
61	0xbe53c3d6	-0.20680174
62	0xbcfde998	-0.030995175
63	0xbd9ba50e	-0.07599841
64	0x3e2980e8	0.1655308
65	0x3ea74da0	0.3267641
66	0xbd41ebad	-0.0473439
67	0x3dcb938b	0.09940251
68	0x3e476ea0	0.19475794
69	0xbe76942a	-0.24079958
70	0xbe8497c3	-0.25897035
71	0xbf0e148d	-0.5550011
72	0x3d205e60	0.039152503
73	0xbc709acf	-0.014685347
74	0xbd1d67ff	-0.038429257
75	0xbe0086b3	-0.12551384
76	0xbd0fcfab	-0.035110157
77	0xbe8bb2b5	-0.2728478
78	0xbe72dfba	-0.23718157
79	0xbe313c57	-0.17308174
80	0xbdfbcd45	-0.122950114
81	0x3d8dc463	0.069222234
82	0x3dac905c	0.08425972
83	0x3de1fcf0	0.11034572
84	0xbe613971	-0.21994568
85	0xbe53bd82	-0.2067776
86	0xbe50dccc	-0.20396727
87	0xbe3a67c1	-0.18203641
88	0xbd3d7190	-0.04625088
89	0xbd3fd727	-0.046836045
90	0xbc9a535e	-0.01883858
91	0x3e1c6141	0.15271474
92	0x3e9f8a2a	0.31160098
93	0x3e25e95c	0.16202301
94	0x3e246a40	0.16056156
95	0x3e198c19	0.1499485
96	0x3d532750	0.051551163
97	0xb84f5fa4	-4.9441718e-05
98	0xbea38f16	-0.31945103
99	0xbda60063	-0.081055425
100	0xbe3a5ad1	-0.18198706
101	0x3df3516f	0.118807666
102	0x3e940e9d	0.289174
103	0x3e18801c	0.1489262
104	0x3d8e3618	0.06943911
105	0xbd56cde5	-0.05244245
106	0xbea7620d	-0.32691994
107	0xbf02f486	-0.51154363
108	0x3c188750	0.009309605
109	0xbc9ceae0	-0.019154966
110	0xbdd499c5	-0.10380892
111	0xbdd99684	-0.10624412
112	0xbd99d6b7	-0.07511657
113	0xbd679078	-0.05653426
114	0x3cb41bab	0.02198585
115	0x3d8b693b	0.068071805
116	0x3ce52f82	0.027976755
117	0x3de48403	0.11157992
118	0x3d4a8ecf	0.0494526
119	0x3d69eae7	0.057108786
120	0xbdd0af6a	-0.101897076
121	0xbd96f737	-0.07371371
122	0xbe110e21	-0.14165546
123	0xbdd2d778	-0.10295004
124	0xbe186f2c	-0.14886159
125	0xbcca0a2e	-0.024663057
126	0x3d1288ae	0.03577488
127	0x3d8382fd	0.064214684
128	0x3cfde4e4	0.030992933
129	0x3e101d46	0.14073667
130	0x3d01102b	0.03150956
131	0xbd659d15	-0.05605801
132	0xbe9ecf7c	-0.31017673
133	0xbeaf0944	-0.34186757
134	0xbe9bffa7	-0.30468485
135	0x3b966c6c	0.0045905616
136	0xbc52b28f	-0.0128599545
137	0x3d9b5d1b	0.07586118
138	0x3e16e8b6	0.1473721
139	0x3e8b58db	0.2721623
140	0x3e8cdbf2	0.27511555
141	0x3dc895b4	0.097941786
142	0x3d046542	0.03232313
143	0xbe5db38c	-0.21650523
144	0xbd8f6fcb	-0.07003745
145	0xbcabfdfc	-0.020995133
146	0xbd665a12	-0.05623824
147	0xbbb1fb90	-0.0054316
148	0x3d48ea4d	0.04905157
149	0xbcd477fb	-0.025936117
150	0xbdb3dbbe	-0.08782147
151	0xbd1f9983	-0.03896476
152	0x3c667e55	0.014068206
153	0xbd9eee2a	-0.0776027
154	0xbdb88329	-0.09009392
155	0x3c6c05a9	0.014405646
156	0x3d8de0a1	0.0692761
157	0xbcf2e71e	-0.02965122
158	0xbd04d8df	-0.032433387
159	0xbd82bd62	-0.06383778
160	0x3d9c6d67	0.07638054
161	0x3d86e7e3	0.06587198
162	0x3b7f76ba	0.0038980679
163	0xbcd5e22f	-0.02610883
164	0x3c4fce04	0.012683395
165	0x3d42339f	0.04741251
166	0x3d7b31ed	0.06132691
167	0x3d056429	0.032566223
168	0xbd8e99ac	-0.06962904
169	0xbd4b12e0	-0.049578547
170	0x3d1d9595	0.03847273
171	0xbd5d8c49	-0.054088864
172	0xbd8485b5	-0.06470815
173	0x3d140202	0.036134727
174	0xbbb20edf	-0.0054339017
175	0xbdab6e29	-0.08370621
176	0x3d4428c8	0.047890455
177	0xbd7af24e	-0.061266236
178	0xbc7d1d5a	-0.0154488925
179	0xbd6ddca3	-0.058071744
180	0xbc8060e4	-0.015671201
181	0x39ff3a28	0.0004868072
182	0x3d847e95	0.06469456
183	0xbcfb7929	-0.030697422
184	0x3d7a8a57	0.061167087
185	0xbd3822a7	-0.044954922
186	0xbb395ce0	-0.0028284118
187	0xbd171540	-0.0368855
188	0xbd295650	-0.04134208
189	0x3d9b3f4e	0.07580434
190	0x3d345c35	0.044033248
191	0x3d84f589	0.064921446
192	0xbda9ce33	-0.082912825
193	0xbdafc2d2	-0.08582081
194	0x3d80cf36	0.06289522
195	0xbcb699e8	-0.022290185
196	0xbd4c144c	-0.049824044
197	0x3d0117c3	0.0315168
198	0x3ba3db9c	0.0050005447
199	0x3d19eee6	0.037581347
200	0x3ba1d873	0.004939133
201	0xbda2936d	-0.079382755
202	0x3cb844f8	0.022493824
203	0xbca1b730	-0.01974067
204	0xbd10f03e	-0.035385363
205	0xbd54fdc0	-0.051999807
206	0x3c784368	0.01515279
207	0xbd9cd33f	-0.076574795
208	0xbd2bb875	-0.04192396
209	0xbd4d6ea1	-0.050154332
210	0x3d728be2	0.059215434
211	0xbd855959	-0.06511182
212	0xbd008be7	-0.03138342
213	0xbd2a0bb1	-0.041515056
214	0xbda5ff0b	-0.08105286
215	0xba67236f	-0.00088172307
216	0x3cd818d8	0.026379034
217	0xbcc559df	-0.024090705
218	0xbdaf5bec	-0.085624546
219	0xbd68a90f	-0.05680185
220	0xbd49d39e	-0.04927408
221	0xbd80d9e9	-0.06291563
222	0x3d8688d6	0.06569068
223	0xbd8ff634	-0.070293814
224	0x3d8edebb	0.06976076
225	0xbd64a2fa	-0.05581949
226	0x3d7a6790	0.06113392
227	0xbd837656	-0.06419055
228	0x3d23ca3d	0.03998779
229	0x3ca8118d	0.020516181
230	0x3cc1f737	0.023677452
231	0xbd49fe14	-0.049314573
232	0xbdb40081	-0.087891586
233	0xbcef02b3	-0.029176092
234	0x3cc3ab89	0.023885505
235	0x3d87c97a	0.066302255
236	0xbc53bed1	-0.012923912
237	0xbcc60691	-0.024173053
238	0x3d7eaa9a	0.062174417
239	0x3d9b6daf	0.0758928
240	0xbccadb63	-0.024762815
241	0xba832908	-0.0010006735
242	0x3c936086	0.017990362
243	0x3d88a387	0.06671815
244	0xbd5368c0	-0.05161357
245	0x3c3c25be	0.011483608
246	0x3c9c0046	0.0190431
247	0x3cd504d6	0.026003283
248	0x3d85ec4c	0.06539211
249	0x3d1302ab	0.035891216
250	0xbdb74133	-0.08947983
251	0x3cb22cda	0.021749903
252	0xbd79b13f	-0.06096005
253	0x3c8932d7	0.016747875
254	0xbb9aa1a9	-0.0047189784
255	0x3d6b8fff	0.057510372

conv2.bias f4 [32]
0	0x3c494c2b	0.012286226
1	0xbd9f4550	-0.07776892
2	0xbdaac523	-0.08338382
3	0xbade5a54	-0.0016964176
4	0x3d4911bd	0.049089182
5	0xbd4cdfb6	-0.050018035
6	0xbccbea58	-0.024892017
7	0x3cc93edc	0.024566106
8	0x3c97fb76	0.018552523
9	0x3afda780	0.0019352287
10	0xbdc8fe1d	-0.09814093
11	0x3d41dfbe	0.047332518
12	0xbc8c781f	-0.017147122
13	0xbdd0fd05	-0.1020451
14	0xbcabdf24	-0.020980425
15	0xbd8cd9a3	-0.068774484
16	0x3d0c2db5	0.034223277
17	0xbd861a83	-0.065480255
18	0x3ca0048d	0.01953342
19	0xbd73bed4	-0.05950816
20	0xbdcc5430	-0.09976995
21	0xbc6f61b4	-0.014610697
22	0xbbd83f79	-0.0065993634
23	0x3db7842c	0.08960757
24	0x3d5d5fd4	0.054046467
25	0x3d282816	0.041053854
26	0xbc86dd9b	-0.016463092
27	0xbdaf6641	-0.08564425
28	0x3d49ce1b	0.049268823
29	0xbd55cf83	-0.05219985
30	0x3ce49461	0.027902784
31	0x3b44eb1d	0.0030047365

fc1.weight f4 [100, 800]
0	0x3ba32670	0.0049789473
1	0x3c8a5501	0.016886236
2	0x3ce7ada2	0.028281037
3	0x3cf03562	0.02932233
4	0xbcf9e451	-0.030504378
5	0xbd200826	-0.03907027
6	0xbc5d1127	-0.013492859
7	0xbd1cf3a2	-0.038318284
8	0xbd11aec5	-0.035567064
9	0x3ba54753	0.005043903
10	0xbca2231a	-0.019792128
11	0xbcffa081	-0.031204464
12	0xbc3caf9d	-0.011516479
13	0x3bc49bf3	0.006000036
14	0x3cb68820	0.022281706
15	0x3c5085c6	0.012727207
16	0xbcb3be22	-0.021941248
17	0x3bd508da	0.0065012993
18	0xbd1c36d8	-0.03813824
19	0x3c91d61b	0.017802289
20	0xbc75823e	-0.014984665
21	0xbc44c24d	-0.012009216
22	0xbd181e5f	-0.03713834
23	0xbc95d9a2	-0.018292252
24	0x3cbfd6af	0.023417799
25	0x3cf2d2b6	0.02964149
26	0x3c9f9300	0.019479275
27	0x3d004ddf	0.031324264
28	0xbd06d74c	-0.032920167
29	0xbce1e4f9	-0.027575003
30	0x3cb9118c	0.022591375
31	0x3c8add81	0.016951324
32	0xbb18101f	-0.0023202968
33	0xbd0a461e	-0.033758275
34	0x3d009545	0.031392355
35	0x3c900b42	0.017583493
36	0x3c8cc315	0.017182866
37	0x3c980dfa	0.018561352
38	0x3ce27359	0.027642893
39	0xbce99eca	-0.0285181
40	0x3abd02c0	0.0014420375
41	0x3c072a3e	0.008249817
42	0x3bb771de	0.005598291
43	0x3c8a284c	0.016864918
44	0x3cbd2e17	0.023093266
45	0xbc07aefe	-0.0082814675
46	0x3c853f52	0.016265545
47	0x3ca93e53	0.020659601
48	0x3c49c9dc	0.012316193
49	0xbb13bffd	-0.0022544854
50	0xbc8fd85f	-0.017559228
51	0xba3d2344	-0.0007215033
52	0xbca73250	-0.020409733
53	0xbcb98b94	-0.022649564
54	0xbcb15646	-0.021647584
55	0x3c5271da	0.012844527
56	0xbc2fab60	-0.010722011
57	0xbb6e8342	-0.0036394154
58	0xbc6d991e	-0.014501838
59	0x3c9a78a4	0.018856354
60	0xbce7bdc0	-0.028288722
61	0x3c1eb92d	0.009687704
62	0xbc4f62c8	-0.012657829
63	0x3c92d9cc	0.01792612
64	0x3ceb4902	0.028721336
65	0x3b959f0e	0.00456608
66	0x3c1806f4	0.0092790015
67	0x3cbbd766	0.022929858
68	0xbd23ffe0	-0.040038943
69	0xba29b3ae	-0.0006473613
70	0xbc1bdc5c	-0.009512987
71	0x3ccb1e80	0.024794817
72	0x3b6e1a18	0.003633147
73	0x3c86dc24	0.016462393
74	0xba941a85	-0.0011299407
75	0x3cd84f56	0.026405018
76	0xbd1383ba	-0.036014296
77	0x3c13b112	0.009014385
78	0x3b2f5ecf	0.0026759391
79	0xbcbb6091	-0.022873195
80	0xbcadc0a4	-0.021210022
81	0xbc19300e	-0.009349836
82	0xbc0f79a3	-0.008757028
83	0xbd0ce56d	-0.034398485
84	0x3c62eedb	0.013850893
85	0xbc3bbff7	-0.011459342
86	0x3cd27fa2	0.025695626
87	0x3cb72d6d	0.022360528
88	0xbc551dbe	-0.013007579
89	0xbc9deb62	-0.019277278
90	0xbcd18929	-0.025578098
91	0x3cbd50d8	0.023109838
92	0xbd0e2855	-0.034706432
93	0xbce4417c	-0.027863257
94	0xbb79a884	-0.0038094828
95	0x3bd2c0a8	0.006431658
96	0x3bf780f7	0.0075532156
97	0x3c80efaf	0.01573929
98	0xbcbb9323	-0.022897309
99	0xbc59110c	-0.013248693
100	0x3c8a66a5	0.016894648
101	0x3bdcd7a2	0.0067395726
102	0x3c82d0df	0.015968738
103	0xbd284100	-0.041077614
104	0xbd14f030	-0.036361873
105	0x3b9a8e3b	0.004716662
106	0x3c0f84c2	0.008759679
107	0x3c839de1	0.016066493
108	0x3c7b1398	0.015324496
109	0x3c89dd99	0.016829299
110	0xbc46ae43	-0.012126508
111	0x3c8a60b2	0.016891811
112	0x3ba2425a	0.0049517574
113	0x3ca5eb9e	0.020253953
114	0xbc60030a	-0.0136726
115	0xbb91d0ee	-0.004449955
116	0xbc22a210	-0.009926334
117	0x3c4f56d6	0.012654981
118	0xbaf314ef	-0.0018545667
119	0xbc766e3c	-0.01504093
120	0x3ca520f2	0.020157311
121	0xba53c79d	-0.0008078756
122	0x3c56f2fb	0.0131194545
123	0xbca6be91	-0.020354541
124	0x3c996e79	0.018729435
125	0xba676cb0	-0.00088281464
126	0x3bc02afa	0.005864498
127	0x3cbe7725	0.023250172
128	0xbc09f175	-0.008419384
129	0xbcb1045b	-0.021608522
130	0xbd19dbac	-0.03756301
131	0x3cd3a309	0.025834577
132	0x3cb329ff	0.021870611
133	0xbd08e9b0	-0.033425987
134	0x3c911a7d	0.017712826
135	0x3bf96434	0.007610822
136	0x3ca3e155	0.020004908
137	0xbcf17ad6	-0.029477518
138	0xbb993d98	-0.004676532
139	0x3b758692	0.0037464243
140	0xbc65a6ac	-0.014016788
141	0x3c790dd5	0.015201052
142	0xbcd47af9	-0.025937544
143	0x3ba9bc16	0.0051798923
144	0x3c00f720	0.007871419
145	0xbcb2475a	-0.021762539
146	0xbcf86640	-0.030322194
147	0xbca4cffb	-0.020118704
148	0x3caa94c4	0.02082289
149	0xbc8c60e8	-0.017136052
150	0xbc1d43b9	-0.009598666
151	0xbc8a783b	-0.016903033
152	0x3c930a9f	0.0179494
153	0x3a694d64	0.0008899777
154	0xbd0c7eae	-0.0343005
155	0x3c90548b	0.017618438
156	0xbd14a4fe	-0.03629016
157	0xbd1589bb	-0.036508303
158	0xbc2e9fde	-0.0106582325
159	0x3ca4a8c0	0.020099998
160	0x3c546a22	0.012964757
161	0xbc4840f2	-0.012222515
162	0x3c8ec31d	0.017427022
163	0xbcf2b883	-0.029628998
164	0xbd1b7fe8	-0.037963778
165	0xbc8c9146	-0.017159116
166	0xbd0bee05	-0.03416254
167	0x3c937018	0.017997786
168	0x3c889a7b	0.016675225
169	0xbc97024f	-0.018433718
170	0xbd147f35	-0.036254127
171	0xbc802ed0	-0.015647322
172	0xbc678e14	-0.014132995
173	0xbbed40fd	-0.007240413
174	0xbcecd413	-0.028909719
175	0xbc3639d2	-0.011122184
176	0xbd0109ae	-0.031503372
177	0xbd180231	-0.037111465
178	0xbce25959	-0.027630495
179	0x3cc642c3	0.024201756
180	0xbd10ff45	-0.035399694
181	0x3ca26026	0.019821238
182	0x3b926820	0.004467979
183	0x3c25d633	0.01012187
184	0x3af4bcc0	0.0018671975
185	0xbcb76a34	-0.022389509
186	0xbc168855	-0.0091877775
187	0x3cd61d57	0.026137037
188	0x3c99728b	0.018731376
189	0xbd0acc36	-0.033886157
190	0xbaab5649	-0.001307198
191	0x3a79b030	0.000952485
192	0x3cc1860a	0.023623485
193	0xbcb9d905	-0.02268649
194	0x3cd66c2c	0.026174627
195	0x3bab0be6	0.0052199243
196	0xbd09b20c	-0.033617064
197	0x3ac98856	0.0015375714
198	0x3bf5f4a1	0.0075059687
199	0x3bb30beb	0.005464067
200	0x3ce85038	0.028358564
201	0xbc0f76f0	-0.008756384
202	0xbaa83ae4	-0.0012834934
203	0xbd123eb2	-0.035704322
204	0xbc06b843	-0.008222642
205	0xbc1603d8	-0.00915619
206	0x3ccc21e2	0.0249185
207	0xbc54ad0b	-0.01298071
208	0xbbbbd492	-0.0057321275
209	0x3ce46cc3	0.027883893
210	0x3c80cb0b	0.015721818
211	0xbc1a13c6	-0.009404128
212	0x3cea368a	0.02859046
213	0xbb180577	-0.0023196617
214	0x3cab1f39	0.020888912
215	0x3cb53006	0.022117626
216	0xbcbe5321	-0.023232998
217	0x3c0b9e0a	0.008521566
218	0x3ca502c6	0.020142924
219	0xbcfcdd07	-0.030867113
220	0x3cde94d5	0.027170578
221	0x3af32a22	0.0018551985
222	0xb99eca7a	-0.00030286965
223	0x3b42877c	0.0029682806
224	0xbca2e4d2	-0.0198845
225	0xbbba8226	-0.0056917844
226	0x3bf7771b	0.0075520403
227	0xbcfed1c1	-0.031105878
228	0xbb98bade	-0.004660948
229	0xbd1d3a1c	-0.038385496
230	0x3c27a04e	0.010231091
231	0x3cd04850	0.025425106
232	0xbb49cce9	-0.0030792302
233	0xb96d264c	-0.00022616348
234	0xbc20e8d5	-0.0098211365
235	0x3b3728e7	0.0027947964
236	0xbce24623	-0.027621334
237	0xbca90f7e	-0.02063727
238	0xba1fc303	-0.00060944277
239	0xbca68d6d	-0.020331109
240	0xbc882097	-0.016617103
241	0x3b6783ef	0.0035326441
242	0x3c30cf83	0.010791662
243	0xbc3e2acf	-0.011606886
244	0xbcff80a6	-0.031189274
245	0x3cbcf36e	0.023065295
246	0xbd03365a	-0.032034256
247	0xbcdb925a	-0.026803184
248	0xbd20c5cb	-0.03925113
249	0xbc9b1266	-0.018929671
250	0x3c74ce6e	0.014941795
251	0x3b43012d	0.002975534
252	0x3cb262a5	0.021775553
253	0xbc71a36d	-0.014748436
254	0x3c744dcd	0.014911127
255	0xbbf47775	-0.0074605295

fc1.bias f4 [100]
0	0xbd1c0944	-0.038094774
1	0xbcef0b8a	-0.029180307
2	0x3ced53cc	0.028970622
3	0xbc49fbbe	-0.012328086
4	0xbd3f5886	-0.046715282
5	0x3c6ba224	0.014381919
6	0xbcb6eb31	-0.022328945
7	0xbd0a7b2f	-0.033808883
8	0x3d385f43	0.045012724
9	0x3d461370	0.04835838
10	0x3d0eca43	0.03486086
11	0x3d349f0b	0.044096988
12	0x3c51dfea	0.012809733
13	0xbcf89d48	-0.030348435
14	0xbc076b77	-0.008265368
15	0x3c27dbbf	0.010245263
16	0x3b20c76e	0.0024532932
17	0xbcf36604	-0.02971173
18	0xbad8cf25	-0.0016541226
19	0xbce1ee31	-0.027579399
20	0x3c7d9276	0.015476814
21	0xbc8e39f6	-0.017361622
22	0xbc6e8f64	-0.014560554
23	0x3b8e2015	0.0043373206
24	0x3cd7c117	0.02633719
25	0xbbb0cb38	-0.0053953193
26	0x3cc427ff	0.023944853
27	0x3bedd28a	0.007257764
28	0xbcbd13a5	-0.023080656
29	0xbd16f887	-0.036858108
30	0x3c4c4fb9	0.012470179
31	0xbceffb0b	-0.029294511
32	0xbd4f0037	-0.050537314
33	0xbc8aae24	-0.01692874
34	0xbc9c9a41	-0.019116523
35	0x3d313fb4	0.043273643
36	0x3cd3d200	0.025856972
37	0xbada5d45	-0.0016659877
38	0xbcb8b713	-0.022548234
39	0x3b807a3d	0.003920822
40	0xbcccf49c	-0.025018983
41	0xbcfbb613	-0.030726468
42	0xbcef77aa	-0.029231865
43	0xbcf9c75f	-0.030490575
44	0x3db6a49a	0.08918114
45	0xbcdb07ed	-0.026737178
46	0xbd185cde	-0.03719794
47	0x3d5017a0	0.05080378
48	0x3d42f2c9	0.04759482
49	0x3a3dcec0	0.0007240586
50	0xbcf320c7	-0.029678715
51	0x3d68f6bd	0.056875933
52	0x3d46a454	0.04849656
53	0x3d3911be	0.045182936
54	0xbd3784af	-0.04480427
55	0x3c369494	0.011143822
56	0xbc93af57	-0.018027944
57	0x39785223	0.00023681721
58	0xbd4dc118	-0.050232977
59	0xbd5cb3f3	-0.05388255
60	0xbd38651c	-0.0450183
61	0x3b4de50a	0.0031417035
62	0x3d0dfece	0.03466683
63	0x3d112509	0.03543571
64	0xbc8b3f98	-0.016998097
65	0xbd2dad41	-0.042401556
66	0x3d7cc4e8	0.061711222
67	0x3d6b2f63	0.05741824
68	0xbd192da7	-0.037397053
69	0x3c65f702	0.014035942
70	0xbd4a56a8	-0.049399048
71	0x3cfa2435	0.030534843
72	0x3c886e78	0.016654238
73	0x3bbe2414	0.0058026407
74	0xbd86903f	-0.065704815
75	0xbd329ed1	-0.04360849
76	0xbd06d9a9	-0.03292242
77	0xbb4b5bc9	-0.003103005
78	0xbcc2d225	-0.023781845
79	0xbc05ba4c	-0.008162092
80	0x3cb8e22f	0.02256879
81	0x3c9bc906	0.019016754
82	0x3af270ee	0.001849679
83	0xbcd13f01	-0.025542738
84	0xbccfb371	-0.025354119
85	0x3cca6a0f	0.024708776
86	0xbcd4fb64	-0.025998779
87	0x3a97fa14	0.0011594915
88	0x3ca647f6	0.020297986
89	0x3bbe2ef7	0.0058039385
90	0xbcef5599	-0.02921562
91	0x3afcd31e	0.0019288992
92	0x3d490988	0.049081355
93	0x3d3dd431	0.04634494
94	0xbc9a8ae4	-0.018865056
95	0x3de610f1	0.112337
96	0xbc1cf2d0	-0.009579375
97	0xbd1f69ac	-0.038919136
98	0xbd72c9db	-0.059274536
99	0xbbd35774	-0.006449634

fc2.weight f4 [10, 100]
0	0x3da8e75c	0.08247253
1	0x3d98f3ea	0.07468398
2	0x3ce53361	0.027978601
3	0x3dfe9cfd	0.12432287
4	0x3d87d9a8	0.066333115
5	0xbdaf89a8	-0.08571178
6	0xbe0972ae	-0.13422653
7	0xbcc90601	-0.024538996
8	0x3d559a41	0.05214906
9	0xbdbb1c7a	-0.09136291
10	0x3e4dd3e9	0.20100369
11	0xba752845	-0.0009352009
12	0x3ce2a2b4	0.027665474
13	0xbd1d0cd4	-0.038342312
14	0x3d5e4f56	0.05427488
15	0xbc409765	-0.011754845
16	0x3e3caa17	0.18424259
17	0x3cb3d5b6	0.021952491
18	0x3d1eab85	0.038737793
19	0xbd17fe09	-0.0371075
20	0x3c9f831d	0.0194717
21	0xbda138e1	-0.07872177
22	0x3b4990c4	0.0030756453
23	0x3c0efd82	0.008727433
24	0x3c845936	0.01615582
25	0xbe6282e9	-0.22120251
26	0x3c801bc1	0.015638234
27	0xbd908347	-0.07056289
28	0xbdbccdbd	-0.09218929
29	0x3db2b51d	0.08725951
30	0xbdaf9909	-0.08574111
31	0xbcf68871	-0.030094357
32	0xbe391032	-0.18072584
33	0xbd968e73	-0.07351389
34	0xbd492218	-0.04910478
35	0xbd1c2fd6	-0.038131557
36	0x3e1014bb	0.14070408
37	0xbdf637ae	-0.12022339
38	0xbb5b0eab	-0.003342549
39	0xbd91f1b3	-0.071261786
40	0x3d196122	0.03744615
41	0xbda3845c	-0.0798423
42	0xbdbb2066	-0.09137039
43	0xbd7b986a	-0.06142465
44	0x3d81d522	0.0633948
45	0x3cc4ee8f	0.024039535
46	0x3cf792d8	0.030221388
47	0x3db87e75	0.09008495
48	0x3d680022	0.05664075
49	0x3e04a387	0.12953006
50	0xbe224d8a	-0.15849891
51	0x3df7a02d	0.12091098
52	0x3e3b2ce2	0.1827884
53	0x3d8b8fb0	0.068145156
54	0xbe58495e	-0.21121737
55	0xbbeee5cf	-0.007290579
56	0x3dcdbd9d	0.100459315
57	0x3ca0e7ae	0.019641723
58	0xbde5b4fb	-0.1121616
59	0xbc9f0dfa	-0.019415844
60	0xbb2ab85f	-0.0026049835
61	0xbdbab3d8	-0.09116334
62	0xbe0eb915	-0.1393779
63	0xbda9a59c	-0.082835406
64	0x3c099023	0.008396181
65	0x3e10cd54	0.14140826
66	0x3d96d2b7	0.073644094
67	0x3dfd23b0	0.123603225
68	0xbe0d7eb3	-0.13817863
69	0xbc1e6a46	-0.009668892
70	0xbd0d24da	-0.034458973
71	0xbe4ac26b	-0.19800727
72	0xbd918aef	-0.071065776
73	0x3d819070	0.063263774
74	0x3ca4dcc9	0.02012481
75	0x3cbfdcd8	0.023420736
76	0x3d9d59d5	0.0768315
77	0x3db2a97a	0.08723731
78	0x3d55cea1	0.05219901
79	0xbc6264bd	-0.013817963
80	0x3d9e56e1	0.077314146
81	0xbcd34ff4	-0.02579496
82	0xbd3fcedf	-0.046828147
83	0xbd915d77	-0.07097905
84	0x3d5a49ab	0.05329291
85	0xbcc43825	-0.023952553
86	0xbd98df20	-0.07464433
87	0xbdcc81b1	-0.09985674
88	0xbda41b7f	-0.08013057
89	0x3c1d2d8b	0.009593378
90	0xbeb5852e	-0.3545317
91	0x3de5977e	0.112105355
92	0x3cfe51f7	0.031044943
93	0xbda4c1df	-0.080447905
94	0xbcd2194e	-0.025646832
95	0x3d034d67	0.03205624
96	0xbe771c94	-0.24131995
97	0x3dcb2b83	0.099204086
98	0x3dd0688a	0.10176189
99	0x3d76459a	0.06012497
100	0x3dbdf4b1	0.09275187
101	0xbd2bcda0	-0.041944146
102	0x3b509ed4	0.003183295
103	0x3d759434	0.05995579
104	0xbe16e314	-0.14735061
105	0xbe0fbd90	-0.14037156
106	0x3d982b7a	0.074301675
107	0x3d90edaa	0.07076581
108	0xbd27106f	-0.040787157
109	0x3e08cdab	0.13359706
110	0xbbfcd62c	-0.007715961
111	0x3e1bba98	0.15207899
112	0x3b7e9159	0.0038843958
113	0x39a0f74c	0.0003070183
114	0x3d97ff71	0.074217685
115	0xbdf91b91	-0.12163461
116	0x3dec77c0	0.11546278
117	0x3b1f7767	0.0024332644
118	0x3c09d9d2	0.008413749
119	0xbd5c3ed8	-0.05377087
120	0xbdf98464	-0.12183455
121	0x3d621094	0.05519159
122	0xbe112923	-0.14175849
123	0x3d0aa94b	0.033852857
124	0x3e1b01d7	0.1513742
125	0x3dc5f74e	0.0966631
126	0xbce19095	-0.027534762
127	0xbde3916a	-0.1111172
128	0x3d31d2a2	0.043413766
129	0xbb88b1da	-0.004171592
130	0x3d8f39d9	0.069934554
131	0xbdc43593	-0.09580531
132	0x3c66bfc6	0.014083808
133	0xbd9142a7	-0.07092791
134	0xbb5b4d1f	-0.0033462716
135	0x3e1c0b2e	0.1523864
136	0xbe0a6320	-0.13514376
137	0x3df246e0	0.118299246
138	0xbb47a489	-0.003046306
139	0xbdad05b1	-0.08448351
140	0x3db21bc5	0.08696703
141	0x3bf28a27	0.007401723
142	0xbdc45042	-0.095856205
143	0xbc8b0240	-0.016968846
144	0x3ca3ac67	0.019979669
145	0xbe6ce013	-0.23132353
146	0x3db767f9	0.08955378
147	0x3cf9dd95	0.030501166
148	0x3dc3ed09	0.09566695
149	0xbe1f0792	-0.15530232
150	0xbe3de02e	-0.18542549
151	0x3daae209	0.08343894
152	0x3d428ad2	0.04749567
153	0x3e34bd9b	0.17650454
154	0xbe08cb91	-0.13358904
155	0xbc96245c	-0.018327884
156	0xbe1add84	-0.15123564
157	0xbe8ffb4d	-0.28121415
158	0xbdadaaf1	-0.0847987
159	0xbd810f38	-0.06301731
160	0xbc8daa6c	-0.017293178
161	0x3da51aee	0.08061777
162	0x3ca7cd77	0.020483715
163	0x3da43813	0.08018508
164	0xbd51d1b4	-0.05122538
165	0xbe516a4f	-0.2045071
166	0x3d187778	0.03722331
167	0x3d940da8	0.07229167
168	0x3eac1b56	0.33614606
169	0x3bf6887a	0.0075235935
170	0x3d3effd8	0.04663071
171	0x3dd568f3	0.10420408
172	0x3df5467f	0.11976337
173	0xbe926130	-0.28589773
174	0x3ce1fa98	0.027585313
175	0xbd44b549	-0.04802445
176	0x3d54cb4e	0.0519517
177	0xbde6f993	-0.11278071
178	0x3ccb9959	0.024853395
179	0x3d3b86dc	0.04578291
180	0xbcedadb0	-0.029013485
181	0x3e2f5040	0.17120457
182	0xbda32f70	-0.07968032
183	0x3d32e281	0.043673042
184	0x3d9344cd	0.07190857
185	0xbdac1d9c	-0.08404085
186	0xbcbd3d81	-0.023100616
187	0x3cf111c6	0.02942742
188	0xbd2296c3	-0.03969456
189	0x3d9226f7	0.07136338
190	0xbe368274	-0.17823201
191	0xbe2032fb	-0.15644448
192	0x3d6eb39c	0.058276758
193	0x3e133097	0.14374004
194	0xbe3fbe7a	-0.18725005
195	0x3e3e49ce	0.18582842
196	0x3d7b2335	0.061312873
197	0xbe070c86	-0.13188371
198	0xbb41c505	-0.0029566896
199	0xbe5dab52	-0.21647385
200	0x3d6c190f	0.057641085
201	0xbd969985	-0.073535
202	0xbc6c2bfe	-0.014414785
203	0x3da915d0	0.082561135
204	0x3d0623d2	0.032749005
205	0x3d14e24b	0.036348622
206	0xbe53ffbc	-0.20703024
207	0xbd529025	-0.051407
208	0x3dd1a4b1	0.102364905
209	0xbdf65634	-0.12028161
210	0x3e14e7ad	0.14541502
211	0xbe9dc41f	-0.3081369
212	0x3d2589d7	0.040414657
213	0x3c82b7da	0.015956808
214	0x3df6a17b	0.12042519
215	0x3df9c5a4	0.121959
216	0x3e6761c8	0.22595894
217	0xbd31df52	-0.043425865
218	0x3cf1bc0a	0.02950861
219	0xbc8dbc72	-0.017301772
220	0x3d4723d5	0.048618156
221	0x3d7079ee	0.05871003
222	0x3e0f69ce	0.14005205
223	0x3d5d558e	0.05403667
224	0x3db1562a	0.086590126
225	0xbe16f63d	-0.1474237
226	0xbb6ed3e3	-0.0036442212
227	0x3cd541bf	0.026032327
228	0x3d903aeb	0.07042488
229	0x3c651871	0.013982878
230	0x3d255f60	0.04037416
231	0xbd6793b4	-0.056537345
232	0xbdbbff82	-0.091795936
233	0xbe2f4ee2	-0.17119935
234	0xbd1c902e	-0.038223438
235	0xbe2471ac	-0.16058987
236	0x3ca3283e	0.01991665
237	0x3ca464c0	0.020067573
238	0xbafad1e5	-0.001913604
239	0x3c9a92dd	0.018868858
240	0x3d6fedbb	0.058576327
241	0xbd8f1010	-0.069854856
242	0x3d8ada79	0.067799516
243	0xbdc9308b	-0.09823712
244	0xbddc2d14	-0.107507855
245	0x3ddff9a4	0.10936287
246	0xbdbbb28e	-0.09164916
247	0x3d985e48	0.07439858
248	0xbd9706c6	-0.07374339
249	0x3d30a7ae	0.04312866
250	0x3cc83381	0.024438621
251	0xbe94b957	-0.29047653
252	0x3d00572d	0.031333137
253	0x3dcf63a9	0.101264305
254	0x3d86873e	0.06568764
255	0x3d3e02b0	0.04638928

fc2.bias f4 [10]
0	0xbd928469	-0.071541615
1	0x3e2e5a4c	0.17026633
2	0x3d541239	0.05177519
3	0xbd642e76	-0.05570837
4	0xbdbb569e	-0.0914738
5	0xbdee3c3c	-0.116325825
6	0x3d5b25a9	0.053502712
7	0x3db50a72	0.08839883
8	0xbd884d9c	-0.06655428
9	0xbd95fa71	-0.073231585
