model/epoch_3.pth (torch_old, 344967 bytes, 8 tensors)

conv1.weight f4 [16, 1, 3, 3]
00000000: 7bb3 1cbe b29d 89be fa81 1fbe b3f8 5dbe
00000010: dc90 d5be c156 31be eb9a fcbe 27f4 a2bd
00000020: 4902 c8be d323 703e e8bc 573e 9eac a538
00000030: 4970 983e 5e4a f23e 3bbe 55be a3e0 25bf
00000040: 697d b9be 603d 1abc 52f5 86bd 35eb 563e
00000050: 2e82 063f a752 2ebe 2f82 b13e 6417 443e
00000060: f794 9d3e 75f9 a53e 4198 d13e 6cf6 9e3d
00000070: 5d40 ce3e 5c11 a93e e990 23be 429c d6bd
00000080: 5edc 933e b396 9ebc 7bae eabe 01c7 03be
00000090: 1f02 d8be 719d 34be 0bee 7ebe 2156 c9be
000000a0: 08c0 03be 10de 1cbe 40cc 993e 12b7 ca3d
000000b0: 1df6 8b3c e5cb bcbc 6d92 d53e 2264 c63e
000000c0: 3231 50be 22cf c0ba 60b8 c73b a41d e6be
000000d0: 7953 513e 030d cfbd e90c 693e 1ea4 7fbe
000000e0: ae19 d9be cf7a 21bd 3790 163e 896a b03e
000000f0: f6e5 9cbd 9289 f73e c6bf a4bb 7bda b63d
00000100: 95c6 1b3e 5fa6 573e d8ca 493e b7eb 9b3e
00000110: f2c6 a8be 0ccf bf3e c904 bf3e 2ab0 38bf
00000120: dcc8 d7be f524 dc3d b9cc ee3e 6165 b8be
00000130: a83c 6cbe 2f0e 1f3e 5503 d53d d0f7 9e3d
00000140: 7ee6 f83e b591 2b3e fd3c e5be 5603 3e3e
00000150: 9d6d 4bbe 9b29 f0be 6c91 e73d 223f 87bd
00000160: 3857 9e3e 6906 023f 2048 643e 2763 0e3e
00000170: 6afb c73e 4cd2 bc3e 0b6a 5bbb 6d9c 5cbc
00000180: 88c2 d3bc 3ad7 a9be c0f4 b0be 97c9 9ebd
00000190: f0f5 02be a322 183f 2c65 973d 4305 9fbe
000001a0: 02df 783e 22c5 303e 324c 55be 1a44 cdbe
000001b0: 0ad2 cabe c166 29be 9d08 7e3d 339d 42be
000001c0: 0353 c1be d1a3 873e 6f5b 64be c9b6 8abe
000001d0: 93d9 953e f9a8 a1be bd81 903e 6ef3 053e
000001e0: 8b98 e1be acfb f7bb df25 39be 6a0f a23e
000001f0: 968a 3a3d 515f 023f 5983 313e 9e5d 8d3e
00000200: e68d e03d 8a93 603e 3c7b ab3e 19f4 0f3e
00000210: bebb 0bbf 283f 503e 4952 cb3e feb7 bf3e
00000220: 14b1 a43e f994 cb3e 0408 81be 13b8 89bd
00000230: 96a0 c7be a908 2e3e 759e f3be 9527 333e
-0.15302841 -0.26878124 -0.15576926 -0.21676902 -0.4171208 -0.1731825 -0.49336943 -0.079567246
-0.39064243 0.23451166 0.21068156 7.8999656e-05 0.29773167 0.47322363 -0.20873348 -0.64795893
-0.36228493 -0.009414047 -0.0658976 0.20988162 0.5254239 -0.17023717 0.34669635 0.19149548
0.30777714 0.32416883 0.40936473 0.07761845 0.4028348 0.33021057 -0.15973248 -0.104790226
0.28879064 -0.019358968 -0.45836243 -0.12868883 -0.42189118 -0.17638184 -0.24895494 -0.39323524
-0.12866223 -0.15319085 0.30038643 0.09898199 0.01708513 -0.023046443 0.41713277 0.3874827
-0.20331267 -0.0014710168 0.0060949773 -0.4494449 0.20441999 -0.10109904 0.22758831 -0.2496495
-0.42402405 -0.03942376 0.14703451 0.3445628 -0.07661049 0.48347145 -0.005027744 0.089283906
0.15212472 0.2105956 0.19706285 0.30453274 -0.32964283 0.37462652 0.37308338 -0.72143805
-0.4214543 0.107492365 0.46640566 -0.36014846 -0.23070014 0.15532754 0.10401026 0.0776211
0.48613352 0.16754802 -0.44773093 0.1855596 -0.19866033 -0.46906742 0.11307034 -0.066038385
0.30925918 0.5079103 0.22293139 0.13905011 0.39059 0.36879194 -0.0033479955 -0.013465029
-0.025849596 -0.33172017 -0.3456173 -0.07753294 -0.1278913 0.5942785 0.07392344 -0.31058702
0.2430382 0.172627 -0.20829847 -0.4009102 -0.39613372 -0.16543104 0.062019933 -0.19005279
-0.37758645 0.2649217 -0.22300504 -0.2709258 0.29267558 -0.31574228 0.28223982 0.13081142
-0.44061694 -0.0075678434 -0.18080853 0.31652385 0.045542322 0.5092669 0.17335261 0.27610487
0.10964565 0.21931282 0.33492458 0.1405796 -0.54583347 0.20336592 0.39711216 0.37445062
0.3216635 0.39762095 -0.25201428 -0.067245625 -0.38989705 0.16995491 -0.4758183 0.17495568

conv1.bias f4 [16]
00000000: 3766 903e abd1 92bd 74f7 86bd 940d 7b3e
00000010: 9c3c 843e c736 5a3e 894e c93e 2527 723d
00000020: 8217 a03e a64e 403d 1031 dd3e 7211 d2bc
00000030: 70d2 a9bd 98a8 993e ac65 a13e 67d3 663e
0.28202984 -0.07168897 -0.06590167 0.24516898 0.2582749 0.21309958 0.3931773 0.059119362
0.31267935 0.046950005 0.43201494 -0.025643084 -0.08292091 0.3001144 0.31522882 0.22541581

conv2.weight f4 [32, 16, 3, 3]
00000000: 3840 66bd 56fc 29be 3b47 11be 786b cc3b
00000010: c137 aebc 8203 ce3d d341 243e 5ba7 133e
00000020: df62 f83d fe57 48be 7090 bb3a c716 3039
00000030: b346 8b3e cf10 883e 99c1 913e c3bb ca3d
00000040: 535e 6dbd 922e 43be 931b 623e fad9 193e
00000050: 3ee8 353e fb1e c03d e66e e9bd 49b6 30be
00000060: 3b9a 8cbe 9331 6cbe 8571 12be deb5 c2bd
00000070: f9b1 c5bd 4a3d 79bc 906f 6c3e 3c98 de3d
00000080: 5b5e f73d 6beb 133d 0730 1bbb fc0c 22be
00000090: 3234 263d d4dd 40bd 6c7a 0dbd 35ae f4bd
000000a0: 97de 17be a2f7 cfbb d9f5 843d 9be8 5b3d
000000b0: cb73 e13d 2a13 0abd 653a 853d 48f8 cd3d
000000c0: bd26 4f3e bb09 173e 71ca 853d 1f0e 9c3d
000000d0: b6ef d1bd 9a69 3ebe 92ab c73d 6e7e 2b3e
000000e0: ca1c d03d 6702 95bd 0a95 1dbe dbdd 25be
000000f0: 91fe 35be ee21 4fbe f4a6 babd 5eb0 b5bc
00000100: d62c ee3d 02ff 413e 0764 d93a 829e 7b3d
00000110: 9919 ce3d 5b48 3dbe 94c7 71be 8114 afbe
00000120: 6261 473d 3c6e 3bbd 6e54 77bd ebb3 16be
00000130: 1241 90bd 46b9 44be 35dc 54be 2e84 eabd
00000140: 3e85 efbd a404 5b3d 6b8c 143d 863e 0f3e
00000150: 974b 6cbe 5065 37be ad60 67be 3000 e0bd
00000160: 53a6 91bd c9ea f2bd 2307 32bc 58af 063e
00000170: 67b5 663e 9b6e 253e 8397 083e e88f e23d
00000180: f1d7 b33d 94db e43c c9b6 14be 5b39 d0bd
00000190: d468 d0bd 7a5d d23d 9698 763e 51b5 093e
000001a0: 2890 063e bbe4 cbbb 3a23 7cbe 1a4b a8be
000001b0: 1940 f3bb 5cc2 03bd 46fd d1bd 412a 1ebe
000001c0: ea09 bcbd d3b5 6fbd c071 f33c 98bc 873d
000001d0: e128 0b3c 65b8 0e3e d383 233d 76c0 b73d
000001e0: 74ad abbd e34b ccbd ad3b c6bd 97df b5bd
000001f0: c42e 01be 2385 2cbd c256 313d b8b3 663d
00000200: cbcb bf3d 6379 3e3e dc03 783d 9134 6c3d
00000210: 2a2a 7fbe 9d2b 82be b4d7 81be 0bce 17bc
00000220: 5178 32bc c70a ec3c 3686 0b3e 8c0d 703e
00000230: cfca 703e 28b8 d53d 580e 103d fece cabd
00000240: cb6f 8fbd fcfd abbc 125a 66bd 90fb b1bb
00000250: 4dea 483d fb77 d4bc bedb b3bd 8399 1fbd
00000260: 557e 663c 2aee 9ebd 2983 b8bd a905 6c3c
00000270: a1e0 8d3d 1ee7 f2bc dfd8 04bd 62bd 82bd
00000280: 676d 9c3d e3e7 863d ba76 7f3b 2fe2 d5bc
00000290: 04ce 4f3c 9f33 423d ed31 7b3d 2964 053d
000002a0: ac99 8ebd e012 4bbd 9595 1d3d 498c 5dbd
000002b0: b585 84bd 0202 143d df0e b2bb 296e abbd
000002c0: c828 443d 4ef2 7abd 5a1d 7dbc a3dc 6dbd
000002d0: e460 80bc 283a ff39 957e 843d 2979 fbbc
000002e0: 578a 7a3d a722 38bd e05c 39bb 4015 17bd
000002f0: 5056 29bd 4e3f 9b3d 355c 343d 89f5 843d
00000300: 33ce a9bd d2c2 afbd 36cf 803d e899 b6bc
00000310: 4c14 4cbd c317 013d 9cdb a33b e6ee 193d
00000320: 73d8 a13b 6d93 a2bd f844 b83c 30b7 a1bc
00000330: 3ef0 10bd c0fd 54bd 6843 783c 3fd3 9cbd
00000340: 75b8 2bbd a16e 4dbd e28b 723d 5959 85bd
00000350: e78b 00bd b10b 2abd 0bff a5bd 6f23 67ba
00000360: d818 d83c df59 c5bc ec5b afbd 0fa9 68bd
00000370: 9ed3 49bd e9d9 80bd d688 863d 34f6 8fbd
00000380: bbde 8e3d faa2 64bd 9067 7a3d 5676 83bd
00000390: 3dca 233d 8d11 a83c 37f7 c13c 14fe 49bd
000003a0: 8100 b4bd b302 efbc 89ab c33c 7ac9 873d
000003b0: d1be 53bc 9106 c6bc 9aaa 7e3d af6d 9b3d
000003c0: 63db cabc 0829 83ba 8660 933c 87a3 883d
000003d0: c068 53bd be25 3c3c 4600 9c3c d604 d53c
000003e0: 4cec 853d ab02 133d 3341 b7bd da2c b23c
000003f0: 3fb1 79bd d732 893c a9a1 9abb ff8f 6b3d
-0.056213588 -0.16600165 -0.14187329 0.006238397 -0.02126682 0.10059263 0.16040735 0.1441931
0.12128233 -0.19564816 0.0014310014 0.00016793153 0.27202377 0.26575324 0.28468016 0.09899094
-0.057951283 -0.19060734 0.22080831 0.15024558 0.17764375 0.09380909 -0.11398105 -0.17257036
-0.27461419 -0.23065786 -0.14301117 -0.09507345 -0.09653086 -0.015212366 0.23089433 0.1086888
0.12078544 0.036113184 -0.002367975 -0.15825266 0.04057712 -0.04708655 -0.03454058 -0.1194729
-0.14831005 -0.006346659 0.06492204 0.053688627 0.11008414 -0.033709683 0.065052785 0.100571215
0.20229621 0.14749806 0.06532753 0.07619881 -0.10250799 -0.18594971 0.09749521 0.16747448
0.10161741 -0.07275849 -0.15388885 -0.16197912 -0.1777289 -0.20227787 -0.09113875 -0.022178825
0.116296455 0.18944934 0.0016585597 0.06143046 0.10063476 -0.18484633 -0.2361129 -0.3419533
0.048676856 -0.045759425 -0.060383253 -0.14717071 -0.07043661 -0.19211301 -0.20787127 -0.114509925
-0.11695336 0.053471223 0.036266726 0.13988695 -0.2307571 -0.17909741 -0.22595473 -0.10937536
-0.07111802 -0.11861188 -0.010865959 0.13152826 0.22530137 0.16155474 0.13339047 0.11062604
0.08781422 0.027936734 -0.14522852 -0.1016719 -0.101762444 0.102717355 0.24081644 0.13448073
0.13140929 -0.006222335 -0.24622813 -0.32869798 -0.0074234125 -0.032167777 -0.10253386 -0.15445806
-0.091815785 -0.05852301 0.029717326 0.06627768 0.008493633 0.13937528 0.03992064 0.08972256
-0.08382693 -0.09975412 -0.09679351 -0.08880537 -0.12615496 -0.042119157 0.04329563 0.056323737
0.09365042 0.18600993 0.060550556 0.05766732 -0.24918428 -0.254239 -0.2535988 -0.009265433
-0.0108929435 0.028813733 0.13625416 0.23442668 0.23514865 0.10435516 0.03516993 -0.09902762
-0.07003745 -0.020995133 -0.05623824 -0.0054316 0.04905157 -0.025936117 -0.08782147 -0.03896476
0.014068206 -0.0776027 -0.09009392 0.014405646 0.0692761 -0.02965122 -0.032433387 -0.06383778
0.07638054 0.06587198 0.0038980679 -0.02610883 0.012683395 0.04741251 0.06132691 0.032566223
-0.06962904 -0.049578547 0.03847273 -0.054088864 -0.06470815 0.036134727 -0.0054339017 -0.08370621
0.047890455 -0.061266236 -0.0154488925 -0.058071744 -0.015671201 0.0004868072 0.06469456 -0.030697422
0.061167087 -0.044954922 -0.0028284118 -0.0368855 -0.04134208 0.07580434 0.044033248 0.064921446
-0.082912825 -0.08582081 0.06289522 -0.022290185 -0.049824044 0.0315168 0.0050005447 0.037581347
0.004939133 -0.079382755 0.022493824 -0.01974067 -0.035385363 -0.051999807 0.01515279 -0.076574795
-0.04192396 -0.050154332 0.059215434 -0.06511182 -0.03138342 -0.041515056 -0.08105286 -0.00088172307
0.026379034 -0.024090705 -0.085624546 -0.05680185 -0.04927408 -0.06291563 0.06569068 -0.070293814
0.06976076 -0.05581949 0.06113392 -0.06419055 0.03998779 0.020516181 0.023677452 -0.049314573
-0.087891586 -0.029176092 0.023885505 0.066302255 -0.012923912 -0.024173053 0.062174417 0.0758928
-0.024762815 -0.0010006735 0.017990362 0.06671815 -0.05161357 0.011483608 0.0190431 0.026003283
0.06539211 0.035891216 -0.08947983 0.021749903 -0.06096005 0.016747875 -0.0047189784 0.057510372

conv2.bias f4 [32]
00000000: ab99 8a3c 5045 9fbd ceee 84bd 6c64 e1b9
00000010: f3ee 853d 7440 4cbd 69f8 e3bb a02c b03c
00000020: 6b0c 9b3c fc32 8f3c 5fa6 95bd f99c 733d
00000030: bbb8 9abc 609d c5bd f4bd 44bc a4e7 61bd
00000040: 730d 343d aa31 68bd 3a91 3e3d f58e 8ebd
00000050: 3054 ccbd e3f0 dabc a589 5839 ec86 b23d
00000060: 684e 813d 4fcc f63c e948 0d3c 106e 9bbd
00000070: 03d8 233d 7516 18bd 5450 533d cb26 f23a
0.016918978 -0.07776892 -0.06490861 -0.00042990164 0.065397166 -0.049866155 -0.006957103 0.021505654
0.01892682 0.017480366 -0.073071234 0.059475873 -0.018886914 -0.096491575 -0.012008179 -0.05515255
0.04395814 -0.05668799 0.046525218 -0.06960861 -0.09976995 -0.026726192 0.00020650642 0.087171406
0.06313783 0.030126719 0.00862334 -0.07589352 0.040000927 -0.03713079 0.05159028 0.0018474696

fc1.weight f4 [100, 800]
00000000: 7026 a33b 0155 8a3c a2ad e73c 6235 f03c
00000010: 51e4 f9bc 2608 20bd 2711 5dbc a2f3 1cbd
00000020: c5ae 11bd 5347 a53b 1a23 a2bc 81a0 ffbc
00000030: 9daf 3cbc f39b c43b 2088 b63c c685 503c
00000040: 22be b3bc da08 d53b d836 1cbd 1bd6 913c
00000050: 3e82 75bc 4dc2 44bc 5f1e 18bd a2d9 95bc
00000060: afd6 bf3c b6d2 f23c 0093 9f3c df4d 003d
00000070: 4cd7 06bd f9e4 e1bc 8c11 b93c 81dd 8a3c
00000080: 1f10 18bb 1e46 0abd 4595 003d 420b 903c
00000090: 15c3 8c3c fa0d 983c 5973 e23c ca9e e9bc
000000a0: c002 bd3a 3e2a 073c de71 b73b 4c28 8a3c
000000b0: 172e bd3c feae 07bc 523f 853c 533e a93c
000000c0: dcc9 493c fdbf 13bb 5fd8 8fbc 4423 3dba
000000d0: 5032 a7bc 948b b9bc 4656 b1bc da71 523c
000000e0: 60ab 2fbc 4283 6ebb 1e99 6dbc a478 9a3c
000000f0: c0bd e7bc 2db9 1e3c c862 4fbc ccd9 923c
00000100: 0249 eb3c 0e9f 953b f406 183c 66d7 bb3c
00000110: e0ff 23bd aeb3 29ba 5cdc 1bbc 801e cb3c
00000120: 181a 6e3b 24dc 863c 851a 94ba 564f d83c
00000130: ba83 13bd 12b1 133c cf5e 2f3b 9160 bbbc
00000140: a4c0 adbc 0e30 19bc a379 0fbc 6de5 0cbd
00000150: dbee 623c f7bf 3bbc a27f d23c 6d2d b73c
00000160: be1d 55bc 62eb 9dbc 2989 d1bc d850 bd3c
00000170: 5528 0ebd 7c41 e4bc 84a8 79bb a8c0 d23b
00000180: f780 f73b afef 803c 2393 bbbc 0c11 59bc
00000190: a566 8a3c a2d7 dc3b dfd0 823c 0041 28bd
000001a0: 30f0 14bd 3b8e 9a3b c284 0f3c e19d 833c
000001b0: 9813 7b3c 99dd 893c 43ae 46bc b260 8a3c
000001c0: 5a42 a23b 9eeb a53c 0a03 60bc eed0 91bb
000001d0: 10a2 22bc d656 4f3c ef14 f3ba 3c6e 76bc
000001e0: f220 a53c 9dc7 53ba fbf2 563c 91be a6bc
000001f0: 796e 993c b06c 67ba fa2a c03b 2577 be3c
00000200: 75f1 09bc 5b04 b1bc acdb 19bd 09a3 d33c
00000210: ff29 b33c b0e9 08bd 7d1a 913c 3464 f93b
00000220: 55e1 a33c d67a f1bc 983d 99bb 9286 753b
00000230: aca6 65bc d50d 793c f97a d4bc 16bc a93b
00000240: 20f7 003c 5a47 b2bc 4066 f8bc fbcf a4bc
00000250: c494 aa3c e860 8cbc b943 1dbc 3b78 8abc
00000260: 9f0a 933c 644d 693a ae7e 0cbd 8b54 903c
00000270: fea4 14bd bb89 15bd de9f 2ebc c0a8 a43c
00000280: 226a 543c f240 48bc 1dc3 8e3c 83b8 f2bc
00000290: e87f 1bbd 4691 8cbc 05ee 0bbd 1870 933c
000002a0: 7b9a 883c 4f02 97bc 357f 14bd d02e 80bc
000002b0: 148e 67bc fd40 edbb 13d4 ecbc d239 36bc
000002c0: ae09 01bd 3102 18bd 5959 e2bc c342 c63c
000002d0: 45ff 10bd 2660 a23c 2068 923b 33d6 253c
000002e0: c0bc f43a 346a b7bc 5588 16bc 571d d63c
000002f0: 8b72 993c 36cc 0abd 4956 abba 30b0 793a
00000300: 0a86 c13c 05d9 b9bc 2c6c d63c e60b ab3b
00000310: 0cb2 09bd 5688 c93a a1f4 f53b eb0b b33b
00000320: 3850 e83c f076 0fbc e43a a8ba b23e 12bd
00000330: 43b8 06bc d803 16bc e221 cc3c 0bad 54bc
00000340: 92d4 bbbb c36c e43c 0bcb 803c c613 1abc
00000350: 8a36 ea3c 7705 18bb 391f ab3c 0630 b53c
00000360: 2153 bebc 0a9e 0b3c c602 a53c 07dd fcbc
00000370: d594 de3c 222a f33a 7aca 9eb9 7c87 423b
00000380: d2e4 a2bc 2682 babb 1b77 f73b c1d1 febc
00000390: deba 98bb 1c3a 1dbd 4ea0 273c 5048 d03c
000003a0: e9cc 49bb 4c26 6db9 d5e8 20bc e728 373b
000003b0: 2346 e2bc 7e0f a9bc 03c3 1fba 6d8d a6bc
000003c0: 9720 88bc ef83 673b 83cf 303c cf2a 3ebc
000003d0: a680 ffbc 6ef3 bc3c 5a36 03bd 5a92 dbbc
000003e0: cbc5 20bd 6612 9bbc 6ece 743c 2d01 433b
000003f0: a562 b23c 6da3 71bc cd4d 743c 7577 f4bb
0.0049789473 0.016886236 0.028281037 0.02932233 -0.030504378 -0.03907027 -0.013492859 -0.038318284
-0.035567064 0.005043903 -0.019792128 -0.031204464 -0.011516479 0.006000036 0.022281706 0.012727207
-0.021941248 0.0065012993 -0.03813824 0.017802289 -0.014984665 -0.012009216 -0.03713834 -0.018292252
0.023417799 0.02964149 0.019479275 0.031324264 -0.032920167 -0.027575003 0.022591375 0.016951324
-0.0023202968 -0.033758275 0.031392355 0.017583493 0.017182866 0.018561352 0.027642893 -0.0285181
0.0014420375 0.008249817 0.005598291 0.016864918 0.023093266 -0.0082814675 0.016265545 0.020659601
0.012316193 -0.0022544854 -0.017559228 -0.0007215033 -0.020409733 -0.022649564 -0.021647584 0.012844527
-0.010722011 -0.0036394154 -0.014501838 0.018856354 -0.028288722 0.009687704 -0.012657829 0.01792612
0.028721336 0.00456608 0.0092790015 0.022929858 -0.040038943 -0.0006473613 -0.009512987 0.024794817
0.003633147 0.016462393 -0.0011299407 0.026405018 -0.036014296 0.009014385 0.0026759391 -0.022873195
-0.021210022 -0.009349836 -0.008757028 -0.034398485 0.013850893 -0.011459342 0.025695626 0.022360528
-0.013007579 -0.019277278 -0.025578098 0.023109838 -0.034706432 -0.027863257 -0.0038094828 0.006431658
0.0075532156 0.01573929 -0.022897309 -0.013248693 0.016894648 0.0067395726 0.015968738 -0.041077614
-0.036361873 0.004716662 0.008759679 0.016066493 0.015324496 0.016829299 -0.012126508 0.016891811
0.0049517574 0.020253953 -0.0136726 -0.004449955 -0.009926334 0.012654981 -0.0018545667 -0.01504093
0.020157311 -0.0008078756 0.0131194545 -0.020354541 0.018729435 -0.00088281464 0.005864498 0.023250172
-0.008419384 -0.021608522 -0.03756301 0.025834577 0.021870611 -0.033425987 0.017712826 0.007610822
0.020004908 -0.029477518 -0.004676532 0.0037464243 -0.014016788 0.015201052 -0.025937544 0.0051798923
0.007871419 -0.021762539 -0.030322194 -0.020118704 0.02082289 -0.017136052 -0.009598666 -0.016903033
0.0179494 0.0008899777 -0.0343005 0.017618438 -0.03629016 -0.036508303 -0.0106582325 0.020099998
0.012964757 -0.012222515 0.017427022 -0.029628998 -0.037963778 -0.017159116 -0.03416254 0.017997786
0.016675225 -0.018433718 -0.036254127 -0.015647322 -0.014132995 -0.007240413 -0.028909719 -0.011122184
-0.031503372 -0.037111465 -0.027630495 0.024201756 -0.035399694 0.019821238 0.004467979 0.01012187
0.0018671975 -0.022389509 -0.0091877775 0.026137037 0.018731376 -0.033886157 -0.001307198 0.000952485
0.023623485 -0.02268649 0.026174627 0.0052199243 -0.033617064 0.0015375714 0.0075059687 0.005464067
0.028358564 -0.008756384 -0.0012834934 -0.035704322 -0.008222642 -0.00915619 0.0249185 -0.01298071
-0.0057321275 0.027883893 0.015721818 -0.009404128 0.02859046 -0.0023196617 0.020888912 0.022117626
-0.023232998 0.008521566 0.020142924 -0.030867113 0.027170578 0.0018551985 -0.00030286965 0.0029682806
-0.0198845 -0.0056917844 0.0075520403 -0.031105878 -0.004660948 -0.038385496 0.010231091 0.025425106
-0.0030792302 -0.00022616348 -0.0098211365 0.0027947964 -0.027621334 -0.02063727 -0.00060944277 -0.020331109
-0.016617103 0.0035326441 0.010791662 -0.011606886 -0.031189274 0.023065295 -0.032034256 -0.026803184
-0.03925113 -0.018929671 0.014941795 0.002975534 0.021775553 -0.014748436 0.014911127 -0.0074605295

fc1.bias f4 [100]
00000000: 4409 1cbd 8813 96ba b51f c23c ebd0 00bd
00000010: 4d75 6fbc 3481 ba3c ca05 66bc 2f7b 0abd
00000020: c28e 3e3d 30e7 1f3d 296e 0e3c 2bba 013d
00000030: eadf 513c ee35 74bb fd0a 27bc 8f2c 963c
00000040: 3c43 cebb 0466 f3bc 6e10 733c 4e00 6fbc
00000050: 1626 ea3c f639 8ebc 06df 04bc 1520 8e3b
00000060: 626d e33a 5efe 9fbb ff27 c43c cf0e ce3c
00000070: 0852 99bc 87f8 16bd f74d bc3c f7c5 5bbb
00000080: 2eed f9bc 9ae8 fa3b 419a 9cbc e2c2 053d
00000090: fb0c 4c3c 4973 ab3b 13b7 b8bc 3d7a 803b
000000a0: 6030 6eba c05b e3bc aa77 efbc 5fc7 f9bc
000000b0: 3e2c 673d 3d43 e8bb de5c 18bd e3e6 0b3d
000000c0: ccf2 193c a8db f23b 5294 efbc ce58 7d3c
000000d0: 82d8 ca3c a374 cd3c f6a1 18bd 9494 363c
000000e0: 1b6f 4fbc 5c89 a63c 8f34 17bd cc57 3dbd
000000f0: 1c65 38bd d870 25ba d059 1d3d 3c92 1d3c
00000100: 7d02 b5bc dcd4 f6bc b69c 323d c5ed c03c
00000110: a98f c3bc e3ad e23c 6fda fbbc b47e f83c
00000120: 3b52 af3b 7066 8e3c a4b6 0ebd be8b cf3a
00000130: 0ed3 e23b 090f 14bb 8fad e7bb b062 1bbd
00000140: 4a13 d93c fa00 57ba ee70 f23a ca2a c2bc
00000150: 71b3 cfbc 116a ca3c 30cb 04bc c558 4e3c
00000160: a3d9 a73c f72e be3b 40a3 a8bb 950c 123c
00000170: c699 2e3d c93c b03c e8c3 7c3c f45d 9a3d
00000180: cd6d 91bc 874e febc de52 a9bc d595 133c
-0.038094774 -0.0011449913 0.02369676 -0.03144924 -0.014615369 0.022766687 -0.014039466 -0.033808883
0.046522863 0.039038837 0.008693256 0.031671684 0.012809733 -0.003726359 -0.010195491 0.018331794
-0.006294636 -0.02971173 0.01483546 -0.014587475 0.028582614 -0.017361622 -0.008109814 0.0043373206
0.0017351324 -0.004882618 0.023944853 0.025153546 -0.018715873 -0.036858108 0.022986395 -0.0033534744
-0.030508604 0.007657123 -0.019116523 0.032656558 0.012454267 0.005232249 -0.022548234 0.003920822
-0.0009086188 -0.02775371 -0.029231865 -0.030490575 0.056438677 -0.0070880936 -0.03719794 0.034155738
0.009396266 0.007411439 -0.02924553 0.015463067 0.024761442 0.02508003 -0.037263833 0.011143822
-0.012660767 0.02032917 -0.03691536 -0.046226308 -0.0450183 -0.00063110655 0.03841573 0.0096173845
-0.022095913 -0.030130796 0.043606482 0.023550877 -0.023872213 0.027670806 -0.030743806 0.030333854
0.005350379 0.01738283 -0.03484215 0.0015834493 0.0069221323 -0.002259197 -0.0070702503 -0.037935913
0.026498456 -0.00082017446 0.001849679 -0.023702044 -0.025354119 0.02470878 -0.008105084 0.0125944065
0.02048952 0.0058039385 -0.005146414 0.008914133 0.04262712 0.02151336 0.015427567 0.075374514
-0.017752552 -0.031043304 -0.020669397 0.009007891

fc2.weight f4 [10, 100]
00000000: 5ce7 a83d 9e4d 993d ceab ee3c 0ff8 a63d
00000010: 60be 573d 6e0d a2bd 4da5 17be 0106 c9bc
00000020: a012 3b3d 245f 9abd fb5b 5c3d e2b2 71ba
00000030: b4a2 e23c d30c 1dbd 3545 af3c 8814 88bc
00000040: 8ab0 0d3e b6d5 b33c eecd d53c 09fe 17bd
00000050: c98a 4a3c e138 a1bd ac8a e9ba 82fd 0e3c
00000060: 17c5 f73c 4b52 37be c11b 803c 60cf b9bd
00000070: 92c5 bcbd 1db5 b23d de98 afbd f446 43bd
00000080: d68c d3bd 6cde 40bd 1822 49bd e9ec eabc
00000090: 3aa5 013e 0e3a d8bd ab0e 5bbb b3f1 91bd
000000a0: 2261 193d 5c84 a3bd 6620 bbbd 6a98 7bbd
000000b0: 8d74 9b3d a828 203c d892 f73c 6901 bf3d
000000c0: e034 a33d a0cb f53d e050 bbbd 6b4d d33d
000000d0: 8b75 333e d51a 4b3d bb71 0ebe cfe5 eebb
000000e0: 4024 b53d fa9c 77bb b22f bcbd 23e6 20bd
000000f0: 5fb8 2abb b242 86bd 96d7 06be 7384 52bd
00000100: a7ad 293d 7c88 003e 9544 a83d 5493 d93d
00000110: 2de1 1abe c6ac 3bbd d424 0dbd db58 17be
00000120: c035 d0bc 5f0b 6a3d 298d 4ebc 9a8a 883b
00000130: 6e2b 893c c6cb c63d a320 bd3d fdf1 f63c
00000140: 6a86 983d 421a 303b dfce 3fbd 775d 91bd
00000150: ab49 5a3d 2538 c4bc 91f2 d9bd 60bc bdbd
00000160: af4e a6bd 8b2d 1d3c 20bc 60be 3f60 cf3d
00000170: 5734 e83c 3abd 4fbd f7b8 6bbc 59db 283d
00000180: 7849 18be 134e 973d 70f2 b83d e71d 9c3d
00000190: b1f4 bd3d 27cd 2bbd 755e dabc 0db9 4d3d
000001a0: 97bf 09be 64e6 e7bd b40c 8a3d aaed 903d
000001b0: 2b13 d5bc 3f58 113e 2ba8 91bd 2f94 c43d
000001c0: 5991 7e3b 4cf7 a039 539e 523d e082 9dbd
000001d0: 099a e23d 6777 1f3b c5e8 093c d83e 5cbd
000001e0: add4 f4bd 9410 623d d340 10be 4ba9 0a3d
000001f0: 8366 1c3e 1d69 9f3d 9590 e1bc aec2 b9bd
00000200: 447f 813d dab1 88bb 4a21 883d 4f3e 01be
00000210: ec1c 993a d840 88bd 1f4d 5bbb 16a5 023e
00000220: 9d21 c4bd f8ec db3d 89a4 47bb b105 adbd
00000230: c51b b23d 0810 1ebc 4250 c4bd 4002 8bbc
00000240: b50f 0fbd dcbb 38be f967 b73d 053d ac3c
00000250: afc9 c63d d66a 14be 4cc7 21be 9a01 133d
00000260: 85ee 523d cdf7 1e3e 3bd8 0dbe 5c24 96bc
00000270: 1503 8abd d233 53be 9a8b 88bd c7d1 92bd
00000280: 6caa 8dbc 0f4c 913d a4b3 993c 929c 2ebd
00000290: 6ce8 01bd ca03 01be c3e6 323d 6bc0 953d
000002a0: af7c 583e 1c8c 05bd 68e3 7f3c c26d c13d
000002b0: 44c2 8d3d 69f5 51be c4cb 223d 6b9d 85bc
000002c0: d746 b53d 3c44 ecbd 0545 db3c ad24 1f3d
000002d0: 6499 1b3c b15b 2e3e 702f a3bd 81e2 323d
000002e0: cd44 933d 9c1d acbd 651f b9bc 9aed 0a3d
000002f0: e292 22bd f726 923d f3ec 41be 9158 b7bd
00000300: de90 543d 2177 ee3d 26bd 2cbe c5f9 3e3e
00000310: 04ca 7e3d dd5c 05be 9775 903b 648a 0bbe
00000320: 0f19 6c3d 4b8c 96bd 7b5d dcbc 1290 823d
00000330: 4b4b e43c 08a6 df3c abe5 15be 2590 52bd
00000340: d88f 9b3d e254 ebbd 7207 563d 98b4 58be
00000350: d789 253d dab7 823c 8aad d23d 3bb7 f03d
00000360: f3fe 3a3e 52df 31bd ced0 ea3c 1f95 8dbc
00000370: 712b 513d ee79 703d 6f95 013e 8e55 5d3d
00000380: 9da4 8d3d daad d7bd e3d3 6ebb 0343 0f3c
00000390: 6ea5 253d 7118 653c 6266 253d 3ea4 26bd
000003a0: dad1 bebd 570f 15be 2e90 1cbd 36a9 0bbe
000003b0: ddba 563c 27eb 2e3c e5d1 faba dd92 9a3c
000003c0: bbed 6f3d 8e0f 8fbd 79da 8a3d 8b30 c9bd
000003d0: 03bf a1bd 4da3 ce3d 8eb2 bbbd f9b0 473d
000003e0: 3d2c 29bd d8dd ee3c 25fd 053d fc20 2cbe
000003f0: 579e 7e3c c477 a43d 00a7 9b3d b002 3e3d
0.08247253 0.074855074 0.029134657 0.08152782 0.05267179 -0.07912718 -0.14809151 -0.024538996
0.04567206 -0.07537678 0.053798657 -0.0009220076 0.027665474 -0.03834231 0.021395305 -0.016611353
0.13836876 0.021952491 0.026099171 -0.0371075 0.0123621905 -0.07872177 -0.0017817817 0.008727433
0.030245347 -0.17902486 0.015638234 -0.09072757 -0.09217371 0.08725951 -0.08574079 -0.047675088
-0.10329597 -0.047087118 -0.04910478 -0.02867742 0.12660685 -0.10557948 -0.003342549 -0.071261786
0.03744615 -0.0798423 -0.09137039 -0.06142465 0.0759059 0.009775318 0.030221388 0.09326441
0.079690695 0.12001729 -0.09146285 0.10317501 0.17525308 0.049586136 -0.13910572 -0.007290579
0.08844805 -0.0037782774 -0.09188785 -0.039281975 -0.0026049835 -0.0655569 -0.13168177 -0.051395845
0.041425373 0.12552065 0.08216206 0.10623804 -0.1512496 -0.045819066 -0.03445895 -0.1477999
-0.025416255 0.05713975 -0.012606897 0.004166913 0.016744342 0.097068354 0.092347406 0.030144686
0.074475124 0.002687112 -0.046828147 -0.07097905 0.05329291 -0.023952553 -0.10641969 -0.09264445
-0.081204765 0.009593378 -0.21946764 0.10125779 0.02834527 -0.05071757 -0.014387361 0.04122481
-0.14871776 0.07387938 0.09030616 0.07622891 0.09275187 -0.041943695 -0.026656369 0.050225306
-0.13451992 -0.113232404 0.06740704 0.07076581 -0.026010117 0.1419382 -0.071121536 0.09598576
0.0038843958 0.0003070183 0.05142052 -0.07690978 0.11064536 0.0024332644 0.008417313 -0.05377087
-0.11954627 0.05519159 -0.14087228 0.033852857 0.1527348 0.07783721 -0.027534762 -0.09070335
0.06323102 -0.004171592 0.066469744 -0.12621425 0.0011681593 -0.06652993 -0.0033462716 0.12758288
-0.09576724 0.107385576 -0.003046306 -0.08448351 0.08696703 -0.009647377 -0.095856205 -0.016968846
-0.03492709 -0.18040413 0.08955378 0.02102519 0.09706437 -0.1449388 -0.15798682 0.0358902
0.051497 0.15524216 -0.13852017 -0.018327884 -0.06738869 -0.20625237 -0.06667252 -0.07168918
-0.017293178 0.07094585 0.018762417 -0.042629786 -0.031715795 -0.12599102 0.043677103 0.073120914
0.21141313 -0.03260432 0.015618183 0.09444763 0.06921819 -0.20503773 0.039745107 -0.016310414
0.08851402 -0.11536452 0.02676631 0.038853336 0.00949702 0.17027165 -0.07968032 0.043673042
0.07190857 -0.08404085 -0.022597978 0.033918 -0.03969086 0.07136338 -0.18938045 -0.089524396
0.05189597 0.11643816 -0.1686903 0.18649967 0.062204376 -0.13023706 0.004408549 -0.1362701
0.057641085 -0.073509775 -0.026900044 0.063751355 0.027867934 0.02730085 -0.14638393 -0.051407
0.075957954 -0.114907995 0.052253194 -0.21162641 0.040414657 0.015956808 0.10287006 0.117536984
0.18261318 -0.043425865 0.028664019 -0.01728302 0.05106682 0.05871003 0.1265466 0.05403667
0.06916163 -0.105312064 -0.0036442212 0.008744004 0.04044097 0.013982878 0.040380843 -0.040683977
-0.0931737 -0.14556633 -0.038223438 -0.13638768 0.013106075 0.010676182 -0.001913604 0.018868858
0.058576327 -0.06985389 0.067799516 -0.09823712 -0.07897761 0.10089741 -0.09164916 0.04875276
-0.041301955 0.029158518 0.03271212 -0.16809458 0.015540681 0.08030656 0.07600212 0.04638928

fc2.bias f4 [10]
00000000: f4ff acbd f085 ff3d 3ee7 503d d736 75bd
00000010: 39b9 9fbd d455 e2bd f683 6c3d da51 d93d
00000020: 6817 89bd 2077 87bd
-0.08447257 0.124767184 0.05100178 -0.059866752 -0.07799 -0.11051527 0.057743035 0.10611315
-0.066939175 -0.06614518
