model/epoch_4.pth (torch_old, 344967 bytes, 8 tensors)

conv1.weight f4 [16, 1, 3, 3]
00000000: f734 1dbe 991f 89be f501 23be 9930 65be
00000010: db75 d5be 646f 3fbe c13b 01bf 073a c1bd
00000020: 704e cebe 964c 7e3e 2dec 613e bc1c 363c
00000030: 5391 a03e dfd3 f93e d0d9 4cbe 3dc5 2abf
00000040: 1d84 c3be f3dc 5dbc fb61 83bd c244 5d3e
00000050: f039 063f 7a6f 21be e823 b53e 5704 473e
00000060: 56cc a73e 8c3f ac3e dcd9 cd3e 2bff b13d
00000070: 75d0 d13e e74f af3e 061f 2bbe 4f1c f2bd
00000080: c868 a13e be02 2ebd 57bd f7be 08ec 01be
00000090: f2ee dbbe 7ace 3cbe 489a 81be 2340 cbbe
000000a0: 4d5f 06be 6c09 15be ded4 9f3e 2201 f23d
000000b0: bc18 813d 7cff b0bc acf2 d73e de97 ca3e
000000c0: c3d4 61be 7da6 8238 d861 be3c 05b0 eebe
000000d0: 913b 503e 95e8 babd 9139 6e3e 274c 8cbe
000000e0: c14d ebbe 31a8 11bd b91c 203e 0261 b53e
000000f0: 0871 7dbd 267e 013f 26fe 913b bbfa 643d
00000100: 4d30 1c3e a0a9 503e 20cb 5a3e e35c 9f3e
00000110: d23f c7be f9d2 c93e c681 b73e f6a5 45bf
00000120: d7d8 dabe b8d4 f53d 344a f83e c170 c1be
00000130: df9d 80be 96bb 3c3e 8408 9d3d e024 703d
00000140: a483 fc3e 4373 283e 976c efbe f957 383e
00000150: 2307 66be 6304 ffbe 16a8 113e bef5 aabd
00000160: 0463 9f3e 8223 0a3f 5dfa 683e 8d23 2a3e
00000170: 1d69 ce3e 6d6a c83e e4b1 d83c d35e 79bc
00000180: 8f71 cfbc 2ad8 b1be f748 c0be 0a6c b8bd
00000190: f6f0 09be 3359 1f3f 5f60 8b3d 0223 a5be
000001a0: acb6 883e a799 443e 923f 58be cc13 cdbe
000001b0: 7b42 cbbe 21d6 23be 7b9d a73d 4b09 42be
000001c0: d3d7 bebe a614 8e3e ef5f 6fbe e3f5 87be
000001d0: e08a a13e d15d a2be ab1d 943e 7232 023e
000001e0: 2657 efbe 8678 c3bc 1808 28be 9c27 963e
000001f0: b054 0f3d 9536 0a3f c37d 503e d722 913e
00000200: 88db 8b3d 2e69 763e 81e2 b73e 9370 183e
00000210: 55ea 0fbf aeaa 513e 985f d53e 2793 c33e
00000220: 36df ae3e 7597 c83e 0a4a 78be fd6c acbd
00000230: 81b0 d4be cea3 2b3e de70 f8be 5a4a 303e
-0.15352236 -0.2678192 -0.15918715 -0.2238182 -0.4169148 -0.18694836 -0.504818 -0.09434896
-0.40294218 0.24833903 0.2206275 0.011115249 0.31360874 0.48794457 -0.20004964 -0.6670721
-0.38186732 -0.013541448 -0.06415173 0.2160826 0.52432156 -0.15765181 0.35378957 0.1943525
0.32773083 0.33642232 0.40205276 0.086912476 0.40979353 0.34240648 -0.16711053 -0.11821806
0.31525254 -0.042483084 -0.48386642 -0.12687695 -0.42955738 -0.1843814 -0.2531302 -0.3969737
-0.13122292 -0.14554375 0.31217092 0.11816622 0.06303546 -0.0216062 0.4217733 0.3956899
-0.22053818 6.229894e-05 0.023240015 -0.46618667 0.20335223 -0.09126393 0.23264147 -0.2740185
-0.4595776 -0.03556079 0.15635957 0.35425574 -0.061875373 0.5058311 0.0044553457 0.055903178
0.152528 0.20377207 0.21366549 0.31125554 -0.3891588 0.39418772 0.35841197 -0.7720636
-0.4274356 0.120034635 0.48494112 -0.37781337 -0.25120446 0.18430933 0.0766764 0.058628917
0.49319184 0.16450219 -0.46762535 0.18002309 -0.2246366 -0.49808034 0.14224276 -0.08347653
0.3113023 0.5396043 0.22751756 0.16615124 0.4031457 0.39143696 0.026452012 -0.015220362
-0.025322704 -0.34735233 -0.37555668 -0.09004982 -0.13470826 0.6224548 0.06805491 -0.3225327
0.26701868 0.19199239 -0.21118 -0.40054166 -0.39699158 -0.15999652 0.08184334 -0.18948857
-0.37274036 0.27750129 -0.2337644 -0.26554784 0.31551266 -0.317122 0.28928885 0.12714556
-0.46746176 -0.023861181 -0.16409338 0.29327095 0.034992874 0.53989536 0.20360474 0.28346893
0.06828982 0.2406356 0.35914996 0.14886694 -0.5621694 0.20475265 0.41674495 0.38198206
0.3415467 0.39178053 -0.24246994 -0.08419225 -0.41540912 0.16761705 -0.4852361 0.17215863

conv1.bias f4 [16]
00000000: 7b35 8b3e 02ad 7dbd b6a6 89bd 535e 783e
00000010: 5804 7f3e f9a1 5d3e b3d6 cc3e 085c 9a3d
00000020: 955a 9f3e bcab 4e3d c826 da3e abe6 9abc
00000030: e48a b4bd c327 963e 31e8 a73e 30f0 5e3e
0.2718924 -0.06193257 -0.06721251 0.24254732 0.24904001 0.21643819 0.40007553 0.07537085
0.31123796 0.050456747 0.42607713 -0.01890882 -0.08815554 0.2932721 0.32794335 0.21771312

conv2.weight f4 [32, 16, 3, 3]
00000000: 2d3f 64bd b459 2fbe 3822 12be f663 253c
00000010: 13ad 80bc 7df5 e73d 9d3b 253e da6c 143e
00000020: 6955 f53d 95bc 63be 17c9 8d3b 87ba 7b3c
00000030: a9a3 8a3e 4a26 8b3e 9de1 913e a308 ba3d
00000040: 8f75 77bd 0662 6cbe b143 5a3e 85ff 1c3e
00000050: b7b0 363e a74d 9f3d 8d36 05be 412a 52be
00000060: 4cdf 95be d33a 7fbe 2071 02be 57eb cdbd
00000070: 3036 d1bd 21c7 4fbc 181b 6d3e 8ab6 da3d
00000080: 35bb d03d 02de d23c d45c e8bc 77f9 5ebe
00000090: 5831 1f3d c53a 6ebd 070e 32bd 5355 f2bd
000000a0: aedc 17be aa3f a23a 8fed 893d 9a0b 683d
000000b0: 97f5 e43d 2aff febc d97c 6c3d b3a1 cb3d
000000c0: d98a 4a3e 7afd 153e c2c6 543d 672d 833d
000000d0: 44ae 05be 99e0 77be 12c9 b43d 48d0 283e
000000e0: 1306 b73d ac08 b5bd 7b6d 40be 40b8 58be
000000f0: afaa 44be e4d1 55be 2936 acbd ede0 09bd
00000100: bfaa 063e b10f 5d3e 8a22 e5bb c65a 8f3d
00000110: 5fd6 e43d b08d 4cbe bf54 85be a542 c3be
00000120: 3781 4a3d 9f00 3abd 79d0 82bd e480 1dbe
00000130: 3586 9dbd 0e2c 57be 694a 6bbe 91d0 04be
00000140: c943 03be 2c2a 763d 792d 253d 768e 0f3e
00000150: 1eb6 79be 4aa1 42be b119 64be c550 e8bd
00000160: 0f6b 71bd dd99 d7bd 2097 a1bc cfaf 113e
00000170: 6949 7d3e 5736 263e e587 093e d4be e63d
00000180: 9084 9d3d aad1 413c 81ba 43be bdee dabd
00000190: 6ae9 f0bd 050b ea3d 822c 7b3e b7ce 043e
000001a0: cb65 eb3d e365 95bc 4e1c 94be 7c2a c7be
000001b0: 2422 8bbb 86e3 06bd f674 ccbd 92e1 1bbe
000001c0: f0d4 b7bd 0a74 4bbd 0873 c73c 5883 853d
000001d0: 38ed 113c b6f3 093e 6a63 173d 2ef5 973d
000001e0: 4018 c0bd 9781 d7bd 461c e2bd 4686 c3bd
000001f0: bf62 03be 50d5 24bd f012 db3c ae16 3a3d
00000200: c2b2 9d3d 1d69 2b3e bfb5 253d 9633 643c
00000210: ffcc 8cbe 2c66 95be cb7a 91be 0566 c4bc
00000220: ba0d 82bc 8775 113d 59e9 0c3e ae34 753e
00000230: c542 773e f586 d53d 0bba b03c 5e7f 15be
00000240: cb6f 8fbd fcfd abbc 125a 66bd 90fb b1bb
00000250: 4dea 483d fb77 d4bc bedb b3bd 8399 1fbd
00000260: 557e 663c 2aee 9ebd 2983 b8bd a905 6c3c
00000270: a1e0 8d3d 1ee7 f2bc dfd8 04bd 62bd 82bd
00000280: 676d 9c3d e3e7 863d ba76 7f3b 2fe2 d5bc
00000290: 04ce 4f3c 9f33 423d ed31 7b3d 2964 053d
000002a0: ac99 8ebd e012 4bbd 9595 1d3d 498c 5dbd
000002b0: b585 84bd 0202 143d df0e b2bb 296e abbd
000002c0: c828 443d 4ef2 7abd 5a1d 7dbc a3dc 6dbd
000002d0: e460 80bc 283a ff39 957e 843d 2979 fbbc
000002e0: 578a 7a3d a722 38bd e05c 39bb 4015 17bd
000002f0: 5056 29bd 4e3f 9b3d 355c 343d 89f5 843d
00000300: 33ce a9bd d2c2 afbd 36cf 803d e899 b6bc
00000310: 4c14 4cbd c317 013d 9cdb a33b e6ee 193d
00000320: 73d8 a13b 6d93 a2bd f844 b83c 30b7 a1bc
00000330: 3ef0 10bd c0fd 54bd 6843 783c 3fd3 9cbd
00000340: 75b8 2bbd a16e 4dbd e28b 723d 5959 85bd
00000350: e78b 00bd b10b 2abd 0bff a5bd 6f23 67ba
00000360: d818 d83c df59 c5bc ec5b afbd 0fa9 68bd
00000370: 9ed3 49bd e9d9 80bd d688 863d 34f6 8fbd
00000380: bbde 8e3d faa2 64bd 9067 7a3d 5676 83bd
00000390: 3dca 233d 8d11 a83c 37f7 c13c 14fe 49bd
000003a0: 8100 b4bd b302 efbc 89ab c33c 7ac9 873d
000003b0: d1be 53bc 9106 c6bc 9aaa 7e3d af6d 9b3d
000003c0: 63db cabc 0829 83ba 8660 933c 87a3 883d
000003d0: c068 53bd be25 3c3c 4600 9c3c d604 d53c
000003e0: 4cec 853d ab02 133d 3341 b7bd da2c b23c
000003f0: 3fb1 79bd d732 893c a9a1 9abb ff8f 6b3d
-0.05572431 -0.17124063 -0.14270866 0.010094633 -0.015707528 0.1132612 0.16136022 0.14494649
0.11979181 -0.22239907 0.0043269503 0.015364296 0.27077988 0.2717765 0.28492442 0.090836786
-0.060414847 -0.23084268 0.21314885 0.15331848 0.17840849 0.07778483 -0.1300909 -0.20523931
-0.29271924 -0.24924783 -0.12738466 -0.10054653 -0.102154136 -0.012681753 0.23154867 0.10679348
0.10191957 0.025740627 -0.028364576 -0.21774851 0.038865417 -0.058161516 -0.04347041 -0.118326806
-0.14830276 0.0012378593 0.06734764 0.05665169 0.11179655 -0.031127531 0.05773625 0.09942951
0.19779529 0.14647475 0.051947363 0.06405144 -0.13054758 -0.24206771 0.088274136 0.16485703
0.089367054 -0.08839545 -0.18791763 -0.21164036 -0.19205736 -0.20880848 -0.08408768 -0.03366177
0.13151072 0.21588017 -0.006992643 0.069997355 0.111737005 -0.19975924 -0.2604122 -0.38136783
0.049439635 -0.04541075 -0.06387419 -0.15381199 -0.076916136 -0.210129 -0.22977604 -0.12970187
-0.12818827 0.060098812 0.04032657 0.14019188 -0.24385878 -0.1900684 -0.22275425 -0.113435306
-0.05893999 -0.10527394 -0.019725382 0.14227222 0.24735035 0.16231667 0.13430746 0.11266866
0.076913 0.011829773 -0.19114114 -0.10690067 -0.1176327 0.11427883 0.24528697 0.1296948
0.11494025 -0.01823706 -0.28927845 -0.388996 -0.0042460132 -0.032931827 -0.09983246 -0.15222767
-0.089761615 -0.04967121 0.024346843 0.065191925 0.008906655 0.13471875 0.036960043 0.07419811
-0.09379625 -0.10522764 -0.11040549 -0.09547095 -0.12830637 -0.040242493 0.026742429 0.045431785
0.07700111 0.16739316 0.04045653 0.013928315 -0.2750015 -0.29179513 -0.28413996 -0.023974428
-0.015875686 0.035512473 0.1376089 0.23945877 0.24146564 0.10426132 0.021573087 -0.14599368
-0.07003745 -0.020995133 -0.05623824 -0.0054316 0.04905157 -0.025936117 -0.08782147 -0.03896476
0.014068206 -0.0776027 -0.09009392 0.014405646 0.0692761 -0.02965122 -0.032433387 -0.06383778
0.07638054 0.06587198 0.0038980679 -0.02610883 0.012683395 0.04741251 0.06132691 0.032566223
-0.06962904 -0.049578547 0.03847273 -0.054088864 -0.06470815 0.036134727 -0.0054339017 -0.08370621
0.047890455 -0.061266236 -0.0154488925 -0.058071744 -0.015671201 0.0004868072 0.06469456 -0.030697422
0.061167087 -0.044954922 -0.0028284118 -0.0368855 -0.04134208 0.07580434 0.044033248 0.064921446
-0.082912825 -0.08582081 0.06289522 -0.022290185 -0.049824044 0.0315168 0.0050005447 0.037581347
0.004939133 -0.079382755 0.022493824 -0.01974067 -0.035385363 -0.051999807 0.01515279 -0.076574795
-0.04192396 -0.050154332 0.059215434 -0.06511182 -0.03138342 -0.041515056 -0.08105286 -0.00088172307
0.026379034 -0.024090705 -0.085624546 -0.05680185 -0.04927408 -0.06291563 0.06569068 -0.070293814
0.06976076 -0.05581949 0.06113392 -0.06419055 0.03998779 0.020516181 0.023677452 -0.049314573
-0.087891586 -0.029176092 0.023885505 0.066302255 -0.012923912 -0.024173053 0.062174417 0.0758928
-0.024762815 -0.0010006735 0.017990362 0.06671815 -0.05161357 0.011483608 0.0190431 0.026003283
0.06539211 0.035891216 -0.08947983 0.021749903 -0.06096005 0.016747875 -0.0047189784 0.057510372

conv2.bias f4 [32]
00000000: b655 5a3c 5045 9fbd 206b 93bd a165 0a3c
00000010: f083 753d 16d2 56bd 91f2 43bc 1dd7 ce3c
00000020: f68b b53c aad3 593c 69b6 9abd fd48 803d
00000030: f6db 86bc 625b d5bd ab45 7cbc 719c 6cbd
00000040: 02ab 263d 2f2a 6cbd d7f6 473d a8b9 88bd
00000050: 3054 ccbd 874d bdbc 6dc4 c7bb 8309 b43d
00000060: fc30 813d 686d 103d 2780 703a d02b a0bd
00000070: 4751 353d b02c 2abd bea7 3a3d 9b2d df3b
0.013326099 -0.07776892 -0.07198167 0.008447082 0.05994028 -0.052446447 -0.011959688 0.025249058
0.022161465 0.013295094 -0.07554323 0.062639214 -0.016462307 -0.104178205 -0.0153974695 -0.05776638
0.04069043 -0.057657417 0.04881939 -0.06676036 -0.09976995 -0.023108257 -0.006096414 0.08790877
0.06308171 0.035260588 0.00091743696 -0.078208566 0.044266965 -0.041546524 0.045570128 0.0068108565

fc1.weight f4 [100, 800]
00000000: 7026 a33b 0155 8a3c a2ad e73c 6235 f03c
00000010: 51e4 f9bc 2608 20bd 2711 5dbc a2f3 1cbd
00000020: c5ae 11bd 5347 a53b 1a23 a2bc 81a0 ffbc
00000030: 9daf 3cbc f39b c43b 2088 b63c c685 503c
00000040: 22be b3bc da08 d53b d836 1cbd 1bd6 913c
00000050: 3e82 75bc 4dc2 44bc 5f1e 18bd a2d9 95bc
00000060: afd6 bf3c b6d2 f23c 0093 9f3c df4d 003d
00000070: 4cd7 06bd f9e4 e1bc 8c11 b93c 81dd 8a3c
00000080: 1f10 18bb 1e46 0abd 4595 003d 420b 903c
00000090: 15c3 8c3c fa0d 983c 5973 e23c ca9e e9bc
000000a0: c002 bd3a 3e2a 073c de71 b73b 4c28 8a3c
000000b0: 172e bd3c feae 07bc 523f 853c 533e a93c
000000c0: dcc9 493c fdbf 13bb 5fd8 8fbc 4423 3dba
000000d0: 5032 a7bc 948b b9bc 4656 b1bc da71 523c
000000e0: 60ab 2fbc 4283 6ebb 1e99 6dbc a478 9a3c
000000f0: c0bd e7bc 2db9 1e3c c862 4fbc ccd9 923c
00000100: 0249 eb3c 0e9f 953b f406 183c 66d7 bb3c
00000110: e0ff 23bd aeb3 29ba 5cdc 1bbc 801e cb3c
00000120: 181a 6e3b 24dc 863c 851a 94ba 564f d83c
00000130: ba83 13bd 12b1 133c cf5e 2f3b 9160 bbbc
00000140: a4c0 adbc 0e30 19bc a379 0fbc 6de5 0cbd
00000150: dbee 623c f7bf 3bbc a27f d23c 6d2d b73c
00000160: be1d 55bc 62eb 9dbc 2989 d1bc d850 bd3c
00000170: 5528 0ebd 7c41 e4bc 84a8 79bb a8c0 d23b
00000180: f780 f73b afef 803c 2393 bbbc 0c11 59bc
00000190: a566 8a3c a2d7 dc3b dfd0 823c 0041 28bd
000001a0: 30f0 14bd 3b8e 9a3b c284 0f3c e19d 833c
000001b0: 9813 7b3c 99dd 893c 43ae 46bc b260 8a3c
000001c0: 5a42 a23b 9eeb a53c 0a03 60bc eed0 91bb
000001d0: 10a2 22bc d656 4f3c ef14 f3ba 3c6e 76bc
000001e0: f220 a53c 9dc7 53ba fbf2 563c 91be a6bc
000001f0: 796e 993c b06c 67ba fa2a c03b 2577 be3c
00000200: 75f1 09bc 5b04 b1bc acdb 19bd 09a3 d33c
00000210: ff29 b33c b0e9 08bd 7d1a 913c 3464 f93b
00000220: 55e1 a33c d67a f1bc 983d 99bb 9286 753b
00000230: aca6 65bc d50d 793c f97a d4bc 16bc a93b
00000240: 20f7 003c 5a47 b2bc 4066 f8bc fbcf a4bc
00000250: c494 aa3c e860 8cbc b943 1dbc 3b78 8abc
00000260: 9f0a 933c 644d 693a ae7e 0cbd 8b54 903c
00000270: fea4 14bd bb89 15bd de9f 2ebc c0a8 a43c
00000280: 226a 543c f240 48bc 1dc3 8e3c 83b8 f2bc
00000290: e87f 1bbd 4691 8cbc 05ee 0bbd 1870 933c
000002a0: 7b9a 883c 4f02 97bc 357f 14bd d02e 80bc
000002b0: 148e 67bc fd40 edbb 13d4 ecbc d239 36bc
000002c0: ae09 01bd 3102 18bd 5959 e2bc c342 c63c
000002d0: 45ff 10bd 2660 a23c 2068 923b 33d6 253c
000002e0: c0bc f43a 346a b7bc 5588 16bc 571d d63c
000002f0: 8b72 993c 36cc 0abd 4956 abba 30b0 793a
00000300: 0a86 c13c 05d9 b9bc 2c6c d63c e60b ab3b
00000310: 0cb2 09bd 5688 c93a a1f4 f53b eb0b b33b
00000320: 3850 e83c f076 0fbc e43a a8ba b23e 12bd
00000330: 43b8 06bc d803 16bc e221 cc3c 0bad 54bc
00000340: 92d4 bbbb c36c e43c 0bcb 803c c613 1abc
00000350: 8a36 ea3c 7705 18bb 391f ab3c 0630 b53c
00000360: 2153 bebc 0a9e 0b3c c602 a53c 07dd fcbc
00000370: d594 de3c 222a f33a 7aca 9eb9 7c87 423b
00000380: d2e4 a2bc 2682 babb 1b77 f73b c1d1 febc
00000390: deba 98bb 1c3a 1dbd 4ea0 273c 5048 d03c
000003a0: e9cc 49bb 4c26 6db9 d5e8 20bc e728 373b
000003b0: 2346 e2bc 7e0f a9bc 03c3 1fba 6d8d a6bc
000003c0: 9720 88bc ef83 673b 83cf 303c cf2a 3ebc
000003d0: a680 ffbc 6ef3 bc3c 5a36 03bd 5a92 dbbc
000003e0: cbc5 20bd 6612 9bbc 6ece 743c 2d01 433b
000003f0: a562 b23c 6da3 71bc cd4d 743c 7577 f4bb
0.0049789473 0.016886236 0.028281037 0.02932233 -0.030504378 -0.03907027 -0.013492859 -0.038318284
-0.035567064 0.005043903 -0.019792128 -0.031204464 -0.011516479 0.006000036 0.022281706 0.012727207
-0.021941248 0.0065012993 -0.03813824 0.017802289 -0.014984665 -0.012009216 -0.03713834 -0.018292252
0.023417799 0.02964149 0.019479275 0.031324264 -0.032920167 -0.027575003 0.022591375 0.016951324
-0.0023202968 -0.033758275 0.031392355 0.017583493 0.017182866 0.018561352 0.027642893 -0.0285181
0.0014420375 0.008249817 0.005598291 0.016864918 0.023093266 -0.0082814675 0.016265545 0.020659601
0.012316193 -0.0022544854 -0.017559228 -0.0007215033 -0.020409733 -0.022649564 -0.021647584 0.012844527
-0.010722011 -0.0036394154 -0.014501838 0.018856354 -0.028288722 0.009687704 -0.012657829 0.01792612
0.028721336 0.00456608 0.0092790015 0.022929858 -0.040038943 -0.0006473613 -0.009512987 0.024794817
0.003633147 0.016462393 -0.0011299407 0.026405018 -0.036014296 0.009014385 0.0026759391 -0.022873195
-0.021210022 -0.009349836 -0.008757028 -0.034398485 0.013850893 -0.011459342 0.025695626 0.022360528
-0.013007579 -0.019277278 -0.025578098 0.023109838 -0.034706432 -0.027863257 -0.0038094828 0.006431658
0.0075532156 0.01573929 -0.022897309 -0.013248693 0.016894648 0.0067395726 0.015968738 -0.041077614
-0.036361873 0.004716662 0.008759679 0.016066493 0.015324496 0.016829299 -0.012126508 0.016891811
0.0049517574 0.020253953 -0.0136726 -0.004449955 -0.009926334 0.012654981 -0.0018545667 -0.01504093
0.020157311 -0.0008078756 0.0131194545 -0.020354541 0.018729435 -0.00088281464 0.005864498 0.023250172
-0.008419384 -0.021608522 -0.03756301 0.025834577 0.021870611 -0.033425987 0.017712826 0.007610822
0.020004908 -0.029477518 -0.004676532 0.0037464243 -0.014016788 0.015201052 -0.025937544 0.0051798923
0.007871419 -0.021762539 -0.030322194 -0.020118704 0.02082289 -0.017136052 -0.009598666 -0.016903033
0.0179494 0.0008899777 -0.0343005 0.017618438 -0.03629016 -0.036508303 -0.0106582325 0.020099998
0.012964757 -0.012222515 0.017427022 -0.029628998 -0.037963778 -0.017159116 -0.03416254 0.017997786
0.016675225 -0.018433718 -0.036254127 -0.015647322 -0.014132995 -0.007240413 -0.028909719 -0.011122184
-0.031503372 -0.037111465 -0.027630495 0.024201756 -0.035399694 0.019821238 0.004467979 0.01012187
0.0018671975 -0.022389509 -0.0091877775 0.026137037 0.018731376 -0.033886157 -0.001307198 0.000952485
0.023623485 -0.02268649 0.026174627 0.0052199243 -0.033617064 0.0015375714 0.0075059687 0.005464067
0.028358564 -0.008756384 -0.0012834934 -0.035704322 -0.008222642 -0.00915619 0.0249185 -0.01298071
-0.0057321275 0.027883893 0.015721818 -0.009404128 0.02859046 -0.0023196617 0.020888912 0.022117626
-0.023232998 0.008521566 0.020142924 -0.030867113 0.027170578 0.0018551985 -0.00030286965 0.0029682806
-0.0198845 -0.0056917844 0.0075520403 -0.031105878 -0.004660948 -0.038385496 0.010231091 0.025425106
-0.0030792302 -0.00022616348 -0.0098211365 0.0027947964 -0.027621334 -0.02063727 -0.00060944277 -0.020331109
-0.016617103 0.0035326441 0.010791662 -0.011606886 -0.031189274 0.023065295 -0.032034256 -0.026803184
-0.03925113 -0.018929671 0.014941795 0.002975534 0.021775553 -0.014748436 0.014911127 -0.0074605295

fc1.bias f4 [100]
00000000: 4409 1cbd 8813 96ba 71c1 c03c c9a0 c8bc
00000010: 97f9 7bbc 1295 bf3c 9c4e 94bc 2f7b 0abd
00000020: 9e33 443d 492c 003d 92c5 c23c f213 083d
00000030: eadf 513c ee35 74bb b388 a1ba 3dd5 a03c
00000040: c884 8cbb 0466 f3bc 86f8 7b3c 31ee e1bc
00000050: e1a2 d23c f639 8ebc 74aa 34bb 1520 8e3b
00000060: 99bc c03a a31d 39bc ff27 c43c 9301 b83c
00000070: f04b 99bc 87f8 16bd f74d bc3c 53c8 bbbb
00000080: 1b90 18bd 5d7f 6e3b 419a 9cbc 2e33 0e3d
00000090: bbca 803c 5abb 273c 13b7 b8bc 3d7a 803b
000000a0: 6030 6eba c05b e3bc aa77 efbc 5fc7 f9bc
000000b0: 5077 853d 45af f8bb de5c 18bd eab5 163d
000000c0: 6078 213c aa18 263c 1654 07bd a350 8d3c
000000d0: 3ded 133d 6004 023d 68b0 24bd 9494 363c
000000e0: bbab 6cbc eb23 853c 8f34 17bd 1616 47bd
000000f0: 1c65 38bd dd21 b1ba c3eb 103d 7d6b 133c
00000100: 510a dfbc 155f d2bc d6d6 693d 0a7e f13c
00000110: 0a75 dfbc e3ad e23c 6fda fbbc 55a7 013d
00000120: 0182 943b 16e2 813c a4b6 0ebd 077c 24bd
00000130: 0ed3 e23b e35c 08bc 8fad e7bb b062 1bbd
00000140: b57f d73c a678 a6bb ee70 f23a 313b d1bc
00000150: 71b3 cfbc 116a ca3c b6cb 58bc aa9e b93b
00000160: 50a3 a73c f72e be3b 3df6 12bc 1926 223c
00000170: 4a8a 443d 7905 d33c ce82 373c 884e ac3d
00000180: ebda 8fbc 9f9d dbbc de52 a9bc a4b9 4d3b
-0.038094774 -0.0011449913 0.02352974 -0.02449073 -0.015379331 0.023386512 -0.01810389 -0.033808883
0.04790079 0.031292234 0.02377585 0.033222146 0.012809733 -0.003726359 -0.0012324065 0.01963293
-0.0042882897 -0.02971173 0.015379077 -0.027579399 0.025712432 -0.017361622 -0.0027567418 0.0043373206
0.0014704644 -0.01129857 0.023944853 0.022461688 -0.018712968 -0.036858108 0.022986395 -0.0057306676
-0.037246805 0.0036391832 -0.019116523 0.034716778 0.01572167 0.010237539 -0.022548234 0.003920822
-0.0009086188 -0.02775371 -0.029231865 -0.030490575 0.06516898 -0.007589253 -0.03719794 0.03679458
0.00985536 0.010137716 -0.033039175 0.017250365 0.03611492 0.031742454 -0.040207297 0.011143822
-0.014445241 0.016252479 -0.03691536 -0.048605047 -0.0450183 -0.001351412 0.03538109 0.008997795
-0.027226599 -0.025680104 0.05708965 0.029479045 -0.027277488 0.027670806 -0.030743806 0.03165372
0.0045320992 0.015854876 -0.03484215 -0.040157344 0.0069221323 -0.008322927 -0.0070702503 -0.037935913
0.026306013 -0.0050803004 0.001849679 -0.02554092 -0.025354119 0.02470878 -0.013232162 0.005664666
0.020463616 0.0058039385 -0.008969841 0.0098967785 0.047983445 0.025759446 0.01120062 0.08413416
-0.017560443 -0.026808558 -0.020669397 0.0031391168

fc2.weight f4 [10, 100]
00000000: 5ce7 a83d 9e4d 993d 2484 023d 0f6e c43d
00000010: b47c 673d 5a8e 9cbd f907 19be 0106 c9bc
00000020: 4c5d 463d 8cc8 97bd 70e8 3c3d bae2 8f3b
00000030: b4a2 e23c d30c 1dbd b87c a43c 422c 05bc
00000040: 5b13 223e b6d5 b33c bbca d53c 09fe 17bd
00000050: d3a3 8d3c e138 a1bd be22 863b 82fd 0e3c
00000060: f3b5 f23c 7df6 35be c11b 803c 211e a6bd
00000070: c5c5 bcbd 1db5 b23d de98 afbd 4511 3fbd
00000080: 7d02 e4bd a40d 38bd 1822 49bd 1cee f3bc
00000090: a734 0b3e e77f d3bd ab0e 5bbb b3f1 91bd
000000a0: 2261 193d 5c84 a3bd 6620 bbbd 6a98 7bbd
000000b0: 863e 9b3d 5330 a33c d892 f73c fe1e ca3d
000000c0: 4f07 993d 65d3 fb3d 0e8c b6bd 437a da3d
000000d0: c135 353e 1cfd 4c3d 2f2b 0fbe cfe5 eebb
000000e0: 3c29 b43d 8150 fc3b b22f bcbd 06c0 f8bc
000000f0: 5fb8 2abb 5964 95bd e136 07be b9e9 acbd
00000100: 9a6f 313d 1339 083e 7b84 ab3d f4fe e03d
00000110: bba6 16be c6ac 3bbd d424 0dbd b256 15be
00000120: 9846 bbbc ca5a 833d 298d 4ebc 36dd bf3c
00000130: 6e2b 893c cfef cd3d a320 bd3d fdf1 f63c
00000140: 2c2a a53d acb0 46bb dfce 3fbd 775d 91bd
00000150: ab49 5a3d 2538 c4bc 64e1 c4bd 4ee5 bdbd
00000160: 0af4 a5bd 8b2d 1d3c 381f 77be 6fb1 e33d
00000170: d430 d23c bc7e 2cbd ffb6 3cbc d29e 3c3d
00000180: 0b8b 1fbe c41a a73d 70f2 b83d e9f9 a23d
00000190: b1f4 bd3d 27cd 2bbd ca03 89bc a10c 8e3d
000001a0: 07dd 0bbe 07ec 05be 4572 8a3d aaed 903d
000001b0: 01cb cdbc c244 103e 7e51 76bd c06f d33d
000001c0: 5991 7e3b 4cf7 a039 ae1c 673d f2e7 b2bd
000001d0: 3658 f73d 6777 1f3b c5e8 093c d83e 5cbd
000001e0: 8e02 f3bd 9410 623d 0e15 15be 4ba9 0a3d
000001f0: 12cb 1a3e 4024 a43d 9590 e1bc 4f23 d0bd
00000200: 82cd 813d dab1 88bb 4a21 883d 0a04 f7bd
00000210: 761f c5bb ba6b 8dbd 1f4d 5bbb 3d19 073e
00000220: 508d d2bd e7d6 e73d 89a4 47bb b105 adbd
00000230: c51b b23d 0810 1ebc 4250 c4bd 4002 8bbc
00000240: 02db 2fbd fd7a 4ebe f967 b73d e8b1 933c
00000250: f82b d03d 0463 12be aa5e 2cbe 6e14 213d
00000260: fabb 8c3d abc4 233e b633 10be 5c24 96bc
00000270: 6322 90bd 9dc0 66be 9a8b 88bd 0e25 84bd
00000280: 6caa 8dbc 4531 913d 9777 bd3c d3cb 5abb
00000290: 3a50 dfbc f765 05be 9f28 4a3d c9a5 8a3d
000002a0: 2434 753e 1c8c 05bd 68e3 7f3c dcad b93d
000002b0: 3bbe 913d d729 63be c4cb 223d 49b5 44bd
000002c0: d746 b53d 9aff dabd 0545 db3c ad24 1f3d
000002d0: 8e48 643c d527 303e 702f a3bd 81e2 323d
000002e0: cd44 933d 9c1d acbd dd06 0bbd c600 ec3c
000002f0: e292 22bd f726 923d 6338 4ebe 4253 cbbd
00000300: db31 773d e766 f73d b7de 39be 49ca 413e
00000310: 7820 803d b1ff febd 9775 903b 2e1d 1fbe
00000320: 0f19 6c3d 4b8c 96bd c2bb e3bc 3a61 813d
00000330: 5b9f f53c de19 093d adb7 1fbe 2590 52bd
00000340: 9af6 aa3d c03b eebd 46c4 a03d b282 74be
00000350: d789 253d dab7 823c 9ba0 dc3d 84de f03d
00000360: 7810 3d3e 52df 31bd d7ce ea3c 72bc 8dbc
00000370: a4b7 483d ee79 703d b3b3 053e 8e55 5d3d
00000380: 0b98 9b3d ee9f edbd e3d3 6ebb 08ad 563c
00000390: 56a5 253d 7118 653c 6266 253d 18d0 45bd
000003a0: a860 c6bd 78f3 1fbe 2e90 1cbd 30f1 13be
000003b0: 5c8d 813c da9f 453c e5d1 faba dd92 9a3c
000003c0: bbed 6f3d 8e0f 8fbd 79da 8a3d 8b30 c9bd
000003d0: 83e9 95bd b4e5 d73d 8eb2 bbbd f9ae 5f3d
000003e0: 6c80 32bd 6c45 ec3c c50d 053d 0afa 33be
000003f0: 0ba8 0a3d 18f1 ae3d 0c44 973d b002 3e3d
0.08247253 0.074855074 0.0318643 0.095913045 0.05651541 -0.07644339 -0.14944448 -0.024538996
0.04842882 -0.07411298 0.046120107 0.0043910416 0.027665474 -0.03834231 0.020079002 -0.008128228
0.15827696 0.021952491 0.026097646 -0.0371075 0.017290032 -0.07872177 0.004093497 0.008727433
0.029627776 -0.17769809 0.015638234 -0.081112154 -0.09217409 0.08725951 -0.08574079 -0.04664733
-0.11133287 -0.044934884 -0.04910478 -0.029776625 0.13594304 -0.1032713 -0.003342549 -0.071261786
0.03744615 -0.0798423 -0.09137039 -0.06142465 0.07580285 0.019920504 0.030221388 0.098691925
0.07472097 0.1229618 -0.08913432 0.10667851 0.17696287 0.05004607 -0.13981317 -0.007290579
0.08796927 0.0077000265 -0.09188785 -0.030365001 -0.0026049835 -0.072945304 -0.13204528 -0.084430166
0.043319322 0.13303022 0.08374878 0.109861284 -0.1471204 -0.045819066 -0.03445895 -0.14583853
-0.02286081 0.06413801 -0.012606897 0.023420911 0.016744342 0.100555055 0.092347406 0.030144686
0.08064684 -0.0030317707 -0.046828147 -0.07097905 0.05329291 -0.023952553 -0.09613302 -0.09272252
-0.081031874 0.009593378 -0.24133003 0.11117827 0.025658049 -0.04211305 -0.011518239 0.0460499
-0.15580384 0.08159402 0.09030616 0.07957823 0.09275187 -0.041943695 -0.01672544 0.069360025
-0.13658534 -0.13078319 0.067600764 0.07076581 -0.025121214 0.14088729 -0.06013631 0.10324049
0.0038843958 0.0003070183 0.056423835 -0.08735646 0.12077372 0.0024332644 0.008417313 -0.05377087
-0.11865722 0.05519159 -0.14558813 0.033852857 0.15116528 0.08014727 -0.027534762 -0.101629846
0.06338026 -0.004171592 0.066469744 -0.12061317 -0.0060157133 -0.06905313 -0.0033462716 0.13193221
-0.102808595 0.11320286 -0.003046306 -0.08448351 0.08696703 -0.009647377 -0.095856205 -0.016968846
-0.04293347 -0.20164104 0.08955378 0.018029168 0.101646364 -0.14295584 -0.16832986 0.039326124
0.06871791 0.15992992 -0.14082226 -0.018327884 -0.07037809 -0.22534414 -0.06667252 -0.0645238
-0.017293178 0.070894755 0.023128314 -0.003338565 -0.027259935 -0.13027178 0.049355146 0.06769902
0.23945671 -0.03260432 0.015618183 0.09066364 0.07116362 -0.2218393 0.039745107 -0.04802445
0.08851402 -0.106932834 0.02676631 0.038853336 0.013933314 0.17202695 -0.07968032 0.043673042
0.07190857 -0.08404085 -0.033942092 0.028808963 -0.03969086 0.07136338 -0.20138697 -0.099279895
0.06035028 0.12080174 -0.18151365 0.18924822 0.06256193 -0.12451113 0.004408549 -0.15538475
0.057641085 -0.073509775 -0.02779949 0.063173726 0.029983213 0.033471934 -0.1559741 -0.051407
0.08347817 -0.1163249 0.07849936 -0.23877981 0.040414657 0.015956808 0.107728206 0.117611915
0.18463314 -0.043425865 0.028663082 -0.017301772 0.04900326 0.05871003 0.13056831 0.05403667
0.07597359 -0.1160277 -0.0036442212 0.013102777 0.04044088 0.013982878 0.040380843 -0.048294157
-0.096864045 -0.1562022 -0.038223438 -0.14447474 0.015814476 0.012062037 -0.001913604 0.018868858
0.058576327 -0.06985389 0.067799516 -0.09823712 -0.073199295 0.10541859 -0.09164916 0.054610226
-0.043579504 0.028841697 0.032483835 -0.17575851 0.033851665 0.08542079 0.07386026 0.04638928

fc2.bias f4 [10]
00000000: f3d9 9cbd 274c 063e 9c5e 593d 6df3 79bd
00000010: 6946 adbd 4411 e4bd 5025 5a3d ea4c df3d
00000020: 06a5 8abd f287 8bbd
-0.07658758 0.13114987 0.053068742 -0.061023165 -0.08460695 -0.11136106 0.05325824 0.10903342
-0.06769757 -0.06813039
