model/epoch_7.pth (torch_old, 344967 bytes, 8 tensors)

conv1.weight f4 [16, 1, 3, 3]
00000000: eef7 35be 16f6 84be 41b9 27be bc93 76be
00000010: a25e d6be c348 64be 72f7 06bf e43c 00be
00000020: 58e2 d1be 1182 893e 7b97 5f3e 1835 ed3c
00000030: 6ee9 a33e 840d fa3e a79e 32be febf 3bbf
00000040: 65cd eabe c60c 0ebd 8103 97bd 0afe 6e3e
00000050: ade9 0b3f e0dd 08be 42f8 c03e 8017 483e
00000060: 6a6a b83e 4c80 b53e 3ed4 c53e 0c2c d03d
00000070: 1861 dd3e 3ec5 c43e f7ad 40be d50b 01be
00000080: 0589 b53e aabe a8bd c9d1 07bf 6a5b f6bd
00000090: 722e dfbe 0945 58be 6bfc 88be 24bf cbbe
000000a0: f8b2 19be 4a71 0ebe 47dc b83e 566b 253e
000000b0: ca0e 183e e783 0fbb f35c e63e 12e3 d73e
000000c0: 68db 89be cd13 ddbc fa41 323d 553f 02bf
000000d0: bd11 3a3e 562f 88bd 4412 823e f0ef 9dbe
000000e0: 5505 07bf d7be 80bc 9ba3 413e 6712 b53e
000000f0: d51e 95bd 4581 083f d58c 0ebb c5a2 35bb
00000100: e793 493e 25b2 5e3e 162f 603e ffe7 b43e
00000110: 6293 e8be 6bd5 d43e e707 af3e 7ee9 5abf
00000120: d9bd e1be 43b8 d83d 09cf fc3e e807 cabe
00000130: b9ee 89be b437 7b3e 81ce 8d3d 1d9e 7a3d
00000140: c57f 033f 7f3e 4a3e 3938 f8be 22d2 393e
00000150: 070d 81be 85e7 0bbf 7cd3 463e 06db bebd
00000160: 4c27 9e3e 19c1 133f 299d 663e b240 5c3e
00000170: 7547 e13e 28b0 d73e e120 8a3d 5e41 99bc
00000180: 9845 56bd f0aa c3be 0993 d5be 1ac2 f3bd
00000190: 0666 09be fc85 283f d13f 823d 4968 b7be
000001a0: 51c1 893e e501 733e 5e77 6ebe fa2f dabe
000001b0: 9ed0 c7be 0305 23be a8b5 c53d 9f05 49be
000001c0: e7bb bebe ad1d 9f3e 6f63 85be e0fb 86be
000001d0: 4cbc be3e 5265 9fbe 2816 913e 5b71 e03d
000001e0: 77c4 00bf d93a 85bd 8800 0abe 8244 903e
000001f0: 44ca 5bbb 2d62 153f 0b37 843e 973f a83e
00000200: e85c bbbc ac45 5e3e 7f06 cf3e 7415 203e
00000210: 6e65 1dbf 904e 563e 8c67 ed3e c868 d63e
00000220: 0ba8 cc3e e361 d23e ff20 61be e663 acbd
00000230: 0f92 f1be 35c1 263e 5289 fabe d42f 153e
-0.17770359 -0.25969 -0.16379263 -0.24079794 -0.41869074 -0.22293381 -0.5272132 -0.12523228
-0.40993 0.26857045 0.21835129 0.028955981 0.3201403 0.48838437 -0.17443334 -0.7333983
-0.4585983 -0.03468015 -0.07373715 0.23339096 0.54653436 -0.13365889 0.37689406 0.19540215
0.36018687 0.35449445 0.3863849 0.10164651 0.4323814 0.38431734 -0.18816362 -0.1260217
0.354561 -0.08239491 -0.5305448 -0.120291546 -0.43590122 -0.21120085 -0.2675508 -0.39794266
-0.15009677 -0.13910404 0.36105558 0.16154227 0.14849392 -0.0021898688 0.4499279 0.42165428
-0.26925206 -0.02698698 0.04351995 -0.50877887 0.18170829 -0.066496536 0.2540456 -0.3084712
-0.5274251 -0.015716 0.18910067 0.35365602 -0.07281271 0.5332225 -0.0021751423 -0.0027715426
0.19685327 0.21747644 0.21892962 0.3533325 -0.45424944 0.41569075 0.34185717 -0.8551253
-0.44090155 0.1058202 0.49376705 -0.39459157 -0.26939943 0.24532968 0.06924153 0.061185945
0.51366836 0.19750403 -0.48480394 0.18146566 -0.25205252 -0.54650146 0.19416612 -0.09319119
0.30889356 0.5771652 0.2252089 0.21509054 0.4399983 0.42126584 0.067445524 -0.018707927
-0.052312464 -0.38216352 -0.4171374 -0.11902256 -0.13417825 0.65829444 0.06359828 -0.3582175
0.269053 0.23731191 -0.23287722 -0.42614728 -0.3902635 -0.1591988 0.09653789 -0.1963105
-0.37252733 0.31077328 -0.26052424 -0.2636404 0.37253034 -0.3113199 0.28337216 0.10959121
-0.5029978 -0.06505365 -0.13476765 0.28177267 -0.0033537308 0.5835293 0.25823244 0.32861015
-0.02287145 0.21706265 0.40434644 0.15633184 -0.61482894 0.20928407 0.46368062 0.41876817
0.39971957 0.41090307 -0.21985243 -0.084174916 -0.47181746 0.1628464 -0.48932892 0.14569026

conv1.bias f4 [16]
00000000: 0a08 833e 8c4f 2ebd 0e0b 4ebd adf6 773e
00000010: 75ed 693e 761a 613e 018b c83e ad73 be3d
00000020: adc1 993e 48f9 173d bfe9 da3e 825f fdbb
00000030: bd2c b7bd 37ea 873e 44a3 b33e 159b 523e
0.2559207 -0.04255633 -0.05030351 0.24215193 0.22844489 0.2198275 0.39168552 0.09299407
0.30030575 0.037102968 0.4275646 -0.0077323327 -0.0894408 0.2654588 0.350855 0.20566972

conv2.weight f4 [32, 16, 3, 3]
00000000: efd9 82bd 76ec 4bbe 4fa4 1abe a850 903c
00000010: ea9d 90bc 4755 f53d 8989 223e 70a3 163e
00000020: 6026 e93d 75e1 52be 1023 cf3b 0504 153d
00000030: bc60 8c3e 1cf9 983e 8830 9f3e 7e71 8f3d
00000040: 000f 8fbd 8c0c 81be ad20 6b3e fbd5 553e
00000050: 2a23 673e 94b2 8b3d 0b08 f8bd 1bf9 63be
00000060: e4cf 8bbe 0cec 82be 3bc8 cabd 58f9 93bd
00000070: 46a8 d3bd 7a40 a1bc bc68 853e 14e9 0a3e
00000080: f91f a63d 9d59 203c 3667 29bd fb55 86be
00000090: 1339 a13c f071 adbd 257c 9abd fa67 f2bd
000000a0: 6664 2bbe 15fd fa39 40a2 8b3d bad4 703d
000000b0: 529c e93d 2c0e 243c 0a58 ae3d a6cc c33d
000000c0: 5b7d 613e c711 2f3e 763b 033d bddd 5f3d
000000d0: 7d18 14be 6dcd 96be adca af3d eba2 303e
000000e0: c316 963d f321 f2bd f6db 63be d363 87be
000000f0: 54bd 46be cf2d 5bbe 8e7c 32bd b7f5 98bd
00000100: acef 1d3e 513a 933e 939b 92bc afa1 ac3d
00000110: 7eb6 2a3e 2b8f 5fbe 8155 87be 4ff5 f4be
00000120: ac53 553d 4566 f6bc 2d81 5cbd b527 0cbe
00000130: 013d 76bd c745 82be 6ef4 7ebe db20 1abe
00000140: 749c 05be b506 863d 0694 423d 5a63 fa3d
00000150: 7776 7abe 58cc 42be ac1e 6bbe 9720 29be
00000160: 05a0 6abd a478 92bd a220 abbc da29 233e
00000170: ddd5 963e c5fb 333e a9ef 1d3e 8d29 093e
00000180: 69c2 683d 92ae 3f3c b20a 81be 0e9f bbbd
00000190: c52d 15be 895d f03d 428c 8c3e 77be 133e
000001a0: 412d ab3d e35d 5cbd be90 9dbe 5218 f0be
000001b0: 6cbd 9ebb e6b5 2dbd e1a7 dbbd 27a4 0cbe
000001c0: a144 b4bd 70a6 81bd db48 3d3c b9ae 7f3d
000001d0: 2cce 703c a1e1 013e a5af 423d ca31 5b3d
000001e0: 6aaf c2bd 3bff c6bd f742 05be 2a70 d0bd
000001f0: 5087 0fbe 0225 02bd f671 743d 2f1b 8f3d
00000200: ae6c 7a3d aa37 233e 2dda 353d c3f8 c7bc
00000210: 83c2 8fbe 21d1 a8be 8d42 93be 0548 acbc
00000220: d8c0 24bc bc1a 8d3d 7be4 183e 490b 863e
00000230: c4da 853e a79a c73d 56ef fa3c 8080 37be
00000240: cb6f 8fbd fcfd abbc 125a 66bd 90fb b1bb
00000250: 4dea 483d fb77 d4bc bedb b3bd 8399 1fbd
00000260: 557e 663c 2aee 9ebd 2983 b8bd a905 6c3c
00000270: a1e0 8d3d 1ee7 f2bc dfd8 04bd 62bd 82bd
00000280: 676d 9c3d e3e7 863d ba76 7f3b 2fe2 d5bc
00000290: 04ce 4f3c 9f33 423d ed31 7b3d 2964 053d
000002a0: ac99 8ebd e012 4bbd 9595 1d3d 498c 5dbd
000002b0: b585 84bd 0202 143d df0e b2bb 296e abbd
000002c0: c828 443d 4ef2 7abd 5a1d 7dbc a3dc 6dbd
000002d0: e460 80bc 283a ff39 957e 843d 2979 fbbc
000002e0: 578a 7a3d a722 38bd e05c 39bb 4015 17bd
000002f0: 5056 29bd 4e3f 9b3d 355c 343d 89f5 843d
00000300: 33ce a9bd d2c2 afbd 36cf 803d e899 b6bc
00000310: 4c14 4cbd c317 013d 9cdb a33b e6ee 193d
00000320: 73d8 a13b 6d93 a2bd f844 b83c 30b7 a1bc
00000330: 3ef0 10bd c0fd 54bd 6843 783c 3fd3 9cbd
00000340: 75b8 2bbd a16e 4dbd e28b 723d 5959 85bd
00000350: e78b 00bd b10b 2abd 0bff a5bd 6f23 67ba
00000360: d818 d83c df59 c5bc ec5b afbd 0fa9 68bd
00000370: 9ed3 49bd e9d9 80bd d688 863d 34f6 8fbd
00000380: bbde 8e3d faa2 64bd 9067 7a3d 5676 83bd
00000390: 3dca 233d 8d11 a83c 37f7 c13c 14fe 49bd
000003a0: 8100 b4bd b302 efbc 89ab c33c 7ac9 873d
000003b0: d1be 53bc 9106 c6bc 9aaa 7e3d af6d 9b3d
000003c0: 63db cabc 0829 83ba 8660 933c 87a3 883d
000003d0: c068 53bd be25 3c3c 4600 9c3c d604 d53c
000003e0: 4cec 853d ab02 133d 3341 b7bd da2c b23c
000003f0: 3fb1 79bd d732 893c a9a1 9abb ff8f 6b3d
-0.06389224 -0.19914421 -0.15101741 0.017616585 -0.017653424 0.11979156 0.15872778 0.14710784
0.113842726 -0.20593818 0.0063213184 0.036380786 0.27417552 0.29877555 0.31091714 0.07004069
-0.06985283 -0.25204885 0.22961684 0.20882408 0.22572008 0.068211704 -0.12110909 -0.22262995
-0.27307045 -0.25570714 -0.09901472 -0.07225293 -0.1033483 -0.019684065 0.26056468 0.13565475
0.08111567 0.0097869905 -0.041358195 -0.26237473 0.019680535 -0.084689975 -0.0754321 -0.11836238
-0.16737518 0.00047872277 0.06818056 0.05879662 0.11406769 0.010013144 0.08512886 0.09560518
0.22020476 0.17096625 0.03203913 0.054654825 -0.14462467 -0.29453602 0.08583579 0.17249648
0.0732856 -0.118228815 -0.22251877 -0.26443347 -0.1940816 -0.21404193 -0.043575816 -0.074687414
0.15423459 0.2875543 -0.01789645 0.08429276 0.16671178 -0.21831958 -0.26432422 -0.47843406
0.05208175 -0.030078063 -0.05383413 -0.13687022 -0.06011677 -0.2544386 -0.2489793 -0.15051596
-0.13047963 0.06544248 0.047504447 0.12225981 -0.24459253 -0.19023263 -0.22960919 -0.16516338
-0.057281513 -0.071519166 -0.020889584 0.15933934 0.2946004 0.17576511 0.15423454 0.13394757
0.05682603 0.011699336 -0.25203472 -0.09161197 -0.14568241 0.117365904 0.27450758 0.14428125
0.08358241 -0.053800475 -0.30774492 -0.46893555 -0.004844358 -0.0424098 -0.1072538 -0.13734494
-0.088021524 -0.063305736 0.011553015 0.062422488 0.014697593 0.12683727 0.04753079 0.05351428
-0.09506114 -0.0971665 -0.13013826 -0.101776436 -0.14016461 -0.031773575 0.059678994 0.06987607
0.0611388 0.15939203 0.04439752 -0.024410611 -0.28078088 -0.32972053 -0.28761712 -0.021030435
-0.010055743 0.06889865 0.14930908 0.26180485 0.26143467 0.097462945 0.030631702 -0.17920113
-0.07003745 -0.020995133 -0.05623824 -0.0054316 0.04905157 -0.025936117 -0.08782147 -0.03896476
0.014068206 -0.0776027 -0.09009392 0.014405646 0.0692761 -0.02965122 -0.032433387 -0.06383778
0.07638054 0.06587198 0.0038980679 -0.02610883 0.012683395 0.04741251 0.06132691 0.032566223
-0.06962904 -0.049578547 0.03847273 -0.054088864 -0.06470815 0.036134727 -0.0054339017 -0.08370621
0.047890455 -0.061266236 -0.0154488925 -0.058071744 -0.015671201 0.0004868072 0.06469456 -0.030697422
0.061167087 -0.044954922 -0.0028284118 -0.0368855 -0.04134208 0.07580434 0.044033248 0.064921446
-0.082912825 -0.08582081 0.06289522 -0.022290185 -0.049824044 0.0315168 0.0050005447 0.037581347
0.004939133 -0.079382755 0.022493824 -0.01974067 -0.035385363 -0.051999807 0.01515279 -0.076574795
-0.04192396 -0.050154332 0.059215434 -0.06511182 -0.03138342 -0.041515056 -0.08105286 -0.00088172307
0.026379034 -0.024090705 -0.085624546 -0.05680185 -0.04927408 -0.06291563 0.06569068 -0.070293814
0.06976076 -0.05581949 0.06113392 -0.06419055 0.03998779 0.020516181 0.023677452 -0.049314573
-0.087891586 -0.029176092 0.023885505 0.066302255 -0.012923912 -0.024173053 0.062174417 0.0758928
-0.024762815 -0.0010006735 0.017990362 0.06671815 -0.05161357 0.011483608 0.0190431 0.026003283
0.06539211 0.035891216 -0.08947983 0.021749903 -0.06096005 0.016747875 -0.0047189784 0.057510372

conv2.bias f4 [32]
00000000: 3dbd 223c 5045 9fbd 1b1d 9cbd 220d 4a3c
00000010: d0cf 623d f732 3ebd 417c 95bc be11 243d
00000020: c832 3a3c c5e9 833c aa5d adbd c961 593d
00000030: b753 0bbd 208c cabd 285a 86bc 6f33 88bd
00000040: fa75 0b3d 7b22 77bd df20 173d 8c0a 8fbd
00000050: 3054 ccbd 61ef 5fbc 7349 d7bb c439 bb3d
00000060: 26d7 673d 0b0b 0e3d 45c5 f2bb 7b67 b8bd
00000070: f267 353d f656 46bd 2d57 1b3d 0d07 4a3c
0.009932813 -0.07776892 -0.07622739 0.012332233 0.055373967 -0.046435323 -0.018247725 0.040055983
0.011364646 0.016102681 -0.084651306 0.05307177 -0.034015384 -0.09890008 -0.016400412 -0.06650435
0.034048058 -0.060335618 0.036896583 -0.069844335 -0.09976995 -0.013667912 -0.006570035 0.09141877
0.056601666 0.0346785 -0.0074087703 -0.09004112 0.044288583 -0.048422776 0.037924934 0.012330783

fc1.weight f4 [100, 800]
00000000: 7026 a33b 0155 8a3c a2ad e73c 6235 f03c
00000010: 51e4 f9bc 2608 20bd 2711 5dbc a2f3 1cbd
00000020: c5ae 11bd 5347 a53b 1a23 a2bc 81a0 ffbc
00000030: 9daf 3cbc f39b c43b 2088 b63c c685 503c
00000040: 22be b3bc da08 d53b d836 1cbd 1bd6 913c
00000050: 3e82 75bc 4dc2 44bc 5f1e 18bd a2d9 95bc
00000060: afd6 bf3c b6d2 f23c 0093 9f3c df4d 003d
00000070: 4cd7 06bd f9e4 e1bc 8c11 b93c 81dd 8a3c
00000080: 1f10 18bb 1e46 0abd 4595 003d 420b 903c
00000090: 15c3 8c3c fa0d 983c 5973 e23c ca9e e9bc
000000a0: c002 bd3a 3e2a 073c de71 b73b 4c28 8a3c
000000b0: 172e bd3c feae 07bc 523f 853c 533e a93c
000000c0: dcc9 493c fdbf 13bb 5fd8 8fbc 4423 3dba
000000d0: 5032 a7bc 948b b9bc 4656 b1bc da71 523c
000000e0: 60ab 2fbc 4283 6ebb 1e99 6dbc a478 9a3c
000000f0: c0bd e7bc 2db9 1e3c c862 4fbc ccd9 923c
00000100: 0249 eb3c 0e9f 953b f406 183c 66d7 bb3c
00000110: e0ff 23bd aeb3 29ba 5cdc 1bbc 801e cb3c
00000120: 181a 6e3b 24dc 863c 851a 94ba 564f d83c
00000130: ba83 13bd 12b1 133c cf5e 2f3b 9160 bbbc
00000140: a4c0 adbc 0e30 19bc a379 0fbc 6de5 0cbd
00000150: dbee 623c f7bf 3bbc a27f d23c 6d2d b73c
00000160: be1d 55bc 62eb 9dbc 2989 d1bc d850 bd3c
00000170: 5528 0ebd 7c41 e4bc 84a8 79bb a8c0 d23b
00000180: f780 f73b afef 803c 2393 bbbc 0c11 59bc
00000190: a566 8a3c a2d7 dc3b dfd0 823c 0041 28bd
000001a0: 30f0 14bd 3b8e 9a3b c284 0f3c e19d 833c
000001b0: 9813 7b3c 99dd 893c 43ae 46bc b260 8a3c
000001c0: 5a42 a23b 9eeb a53c 0a03 60bc eed0 91bb
000001d0: 10a2 22bc d656 4f3c ef14 f3ba 3c6e 76bc
000001e0: f220 a53c 9dc7 53ba fbf2 563c 91be a6bc
000001f0: 796e 993c b06c 67ba fa2a c03b 2577 be3c
00000200: 75f1 09bc 5b04 b1bc acdb 19bd 09a3 d33c
00000210: ff29 b33c b0e9 08bd 7d1a 913c 3464 f93b
00000220: 55e1 a33c d67a f1bc 983d 99bb 9286 753b
00000230: aca6 65bc d50d 793c f97a d4bc 16bc a93b
00000240: 20f7 003c 5a47 b2bc 4066 f8bc fbcf a4bc
00000250: c494 aa3c e860 8cbc b943 1dbc 3b78 8abc
00000260: 9f0a 933c 644d 693a ae7e 0cbd 8b54 903c
00000270: fea4 14bd bb89 15bd de9f 2ebc c0a8 a43c
00000280: 226a 543c f240 48bc 1dc3 8e3c 83b8 f2bc
00000290: e87f 1bbd 4691 8cbc 05ee 0bbd 1870 933c
000002a0: 7b9a 883c 4f02 97bc 357f 14bd d02e 80bc
000002b0: 148e 67bc fd40 edbb 13d4 ecbc d239 36bc
000002c0: ae09 01bd 3102 18bd 5959 e2bc c342 c63c
000002d0: 45ff 10bd 2660 a23c 2068 923b 33d6 253c
000002e0: c0bc f43a 346a b7bc 5588 16bc 571d d63c
000002f0: 8b72 993c 36cc 0abd 4956 abba 30b0 793a
00000300: 0a86 c13c 05d9 b9bc 2c6c d63c e60b ab3b
00000310: 0cb2 09bd 5688 c93a a1f4 f53b eb0b b33b
00000320: 3850 e83c f076 0fbc e43a a8ba b23e 12bd
00000330: 43b8 06bc d803 16bc e221 cc3c 0bad 54bc
00000340: 92d4 bbbb c36c e43c 0bcb 803c c613 1abc
00000350: 8a36 ea3c 7705 18bb 391f ab3c 0630 b53c
00000360: 2153 bebc 0a9e 0b3c c602 a53c 07dd fcbc
00000370: d594 de3c 222a f33a 7aca 9eb9 7c87 423b
00000380: d2e4 a2bc 2682 babb 1b77 f73b c1d1 febc
00000390: deba 98bb 1c3a 1dbd 4ea0 273c 5048 d03c
000003a0: e9cc 49bb 4c26 6db9 d5e8 20bc e728 373b
000003b0: 2346 e2bc 7e0f a9bc 03c3 1fba 6d8d a6bc
000003c0: 9720 88bc ef83 673b 83cf 303c cf2a 3ebc
000003d0: a680 ffbc 6ef3 bc3c 5a36 03bd 5a92 dbbc
000003e0: cbc5 20bd 6612 9bbc 6ece 743c 2d01 433b
000003f0: a562 b23c 6da3 71bc cd4d 743c 7577 f4bb
0.0049789473 0.016886236 0.028281037 0.02932233 -0.030504378 -0.03907027 -0.013492859 -0.038318284
-0.035567064 0.005043903 -0.019792128 -0.031204464 -0.011516479 0.006000036 0.022281706 0.012727207
-0.021941248 0.0065012993 -0.03813824 0.017802289 -0.014984665 -0.012009216 -0.03713834 -0.018292252
0.023417799 0.02964149 0.019479275 0.031324264 -0.032920167 -0.027575003 0.022591375 0.016951324
-0.0023202968 -0.033758275 0.031392355 0.017583493 0.017182866 0.018561352 0.027642893 -0.0285181
0.0014420375 0.008249817 0.005598291 0.016864918 0.023093266 -0.0082814675 0.016265545 0.020659601
0.012316193 -0.0022544854 -0.017559228 -0.0007215033 -0.020409733 -0.022649564 -0.021647584 0.012844527
-0.010722011 -0.0036394154 -0.014501838 0.018856354 -0.028288722 0.009687704 -0.012657829 0.01792612
0.028721336 0.00456608 0.0092790015 0.022929858 -0.040038943 -0.0006473613 -0.009512987 0.024794817
0.003633147 0.016462393 -0.0011299407 0.026405018 -0.036014296 0.009014385 0.0026759391 -0.022873195
-0.021210022 -0.009349836 -0.008757028 -0.034398485 0.013850893 -0.011459342 0.025695626 0.022360528
-0.013007579 -0.019277278 -0.025578098 0.023109838 -0.034706432 -0.027863257 -0.0038094828 0.006431658
0.0075532156 0.01573929 -0.022897309 -0.013248693 0.016894648 0.0067395726 0.015968738 -0.041077614
-0.036361873 0.004716662 0.008759679 0.016066493 0.015324496 0.016829299 -0.012126508 0.016891811
0.0049517574 0.020253953 -0.0136726 -0.004449955 -0.009926334 0.012654981 -0.0018545667 -0.01504093
0.020157311 -0.0008078756 0.0131194545 -0.020354541 0.018729435 -0.00088281464 0.005864498 0.023250172
-0.008419384 -0.021608522 -0.03756301 0.025834577 0.021870611 -0.033425987 0.017712826 0.007610822
0.020004908 -0.029477518 -0.004676532 0.0037464243 -0.014016788 0.015201052 -0.025937544 0.0051798923
0.007871419 -0.021762539 -0.030322194 -0.020118704 0.02082289 -0.017136052 -0.009598666 -0.016903033
0.0179494 0.0008899777 -0.0343005 0.017618438 -0.03629016 -0.036508303 -0.0106582325 0.020099998
0.012964757 -0.012222515 0.017427022 -0.029628998 -0.037963778 -0.017159116 -0.03416254 0.017997786
0.016675225 -0.018433718 -0.036254127 -0.015647322 -0.014132995 -0.007240413 -0.028909719 -0.011122184
-0.031503372 -0.037111465 -0.027630495 0.024201756 -0.035399694 0.019821238 0.004467979 0.01012187
0.0018671975 -0.022389509 -0.0091877775 0.026137037 0.018731376 -0.033886157 -0.001307198 0.000952485
0.023623485 -0.02268649 0.026174627 0.0052199243 -0.033617064 0.0015375714 0.0075059687 0.005464067
0.028358564 -0.008756384 -0.0012834934 -0.035704322 -0.008222642 -0.00915619 0.0249185 -0.01298071
-0.0057321275 0.027883893 0.015721818 -0.009404128 0.02859046 -0.0023196617 0.020888912 0.022117626
-0.023232998 0.008521566 0.020142924 -0.030867113 0.027170578 0.0018551985 -0.00030286965 0.0029682806
-0.0198845 -0.0056917844 0.0075520403 -0.031105878 -0.004660948 -0.038385496 0.010231091 0.025425106
-0.0030792302 -0.00022616348 -0.0098211365 0.0027947964 -0.027621334 -0.02063727 -0.00060944277 -0.020331109
-0.016617103 0.0035326441 0.010791662 -0.011606886 -0.031189274 0.023065295 -0.032034256 -0.026803184
-0.03925113 -0.018929671 0.014941795 0.002975534 0.021775553 -0.014748436 0.014911127 -0.0074605295

fc1.bias f4 [100]
00000000: 4409 1cbd 8813 96ba 581f b13c 7aa6 bcbc
00000010: d9ef f2bc 1205 363c 3435 84bc 2f7b 0abd
00000020: b227 483d e56c 2e3d 8352 3c3d 9289 113d
00000030: eadf 513c ee35 74bb ecbf 03bc 00a8 013c
00000040: d70b c0bb 0466 f3bc ef6d 213c 31ee e1bc
00000050: 2cf2 963c f639 8ebc 077c b8bb 1520 8e3b
00000060: 4671 653c f074 14bc ff27 c43c 4a75 813c
00000070: a513 bdbc 87f8 16bd 21a7 bc3c 3403 86bc
00000080: 384e 25bd 8d19 e3bb 419a 9cbc 2e39 343d
00000090: f9c8 b43c 5811 e73b 13b7 b8bc 3d7a 803b
000000a0: a638 6eba 13b6 fbbc aa77 efbc 5fc7 f9bc
000000b0: b931 a23d 4e6d b8bc de5c 18bd c0f8 343d
000000c0: b8cd f63c 0e02 103c 6625 37bd dc66 1e3d
000000d0: 2f2a 2c3d ef1a 313d ab1c 50bd 9494 363c
000000e0: aaa8 8ebc 38d9 383c 8f34 17bd 6d9d 3fbd
000000f0: 1c65 38bd 32ce 61bb 9b58 1d3d 3d6e 943c
00000100: 8306 c9bc 75b0 1ebd 8267 793d f048 543d
00000110: 05e9 1bbd e3ad e23c 60da fbbc 5804 b23c
00000120: d649 aa3b ce86 193c a4b6 0ebd b8a1 32bd
00000130: 0ed3 e23b 472f 133b 25d2 c2bc b062 1bbd
00000140: 20a5 e93c a5ca 02bb ee70 f23a 013f d1bc
00000150: 71b3 cfbc 116a ca3c 0b9a c0bc 6092 583b
00000160: f647 a63c f72e be3b 05e2 d1bc aaeb 003c
00000170: d0b2 593d e1d4 043d 24f6 ad3a 82ed d63d
00000180: fa15 37bc 1737 19bd 15f7 2ebd 8f09 d7bb
-0.038094774 -0.0011449913 0.021621391 -0.023028601 -0.029655384 0.011109607 -0.01613865 -0.033808883
0.04886598 0.04258432 0.045977127 0.035531588 0.012809733 -0.003726359 -0.008041363 0.0079135895
-0.0058607864 -0.02971173 0.00985287 -0.027579399 0.018426023 -0.017361622 -0.0056300196 0.0043373206
0.014004057 -0.009061083 0.023944853 0.015802998 -0.023080656 -0.036858108 0.023028912 -0.01635895
-0.0403578 -0.006930536 -0.019116523 0.043999843 0.022068487 0.007051628 -0.022548234 0.003920822
-0.0009087421 -0.030726468 -0.029231865 -0.030490575 0.0791964 -0.022513058 -0.03719794 0.04418254
0.030127391 0.008789552 -0.0447134 0.038672313 0.042032417 0.043238577 -0.05080859 0.011143822
-0.01741441 0.011282258 -0.03691536 -0.046780992 -0.0450183 -0.0034455177 0.03841458 0.018118972
-0.024539238 -0.0387425 0.06088973 0.05182737 -0.03806402 0.027670806 -0.030743778 0.021730587
0.00519679 0.009370519 -0.03484215 -0.04361126 0.0069221323 0.00224586 -0.023781845 -0.037935913
0.02852112 -0.0019957211 0.001849679 -0.025542738 -0.025354119 0.02470878 -0.023510953 0.003304623
0.020297986 0.0058039385 -0.02562047 0.007868687 0.053149045 0.03242958 0.0013272208 0.1049452
-0.011174673 -0.037406053 -0.042716105 -0.006562419

fc2.weight f4 [10, 100]
00000000: 5ce7 a83d 9e4d 993d fe58 eb3c d08b da3d
00000010: 2000 6a3d d452 9ebd 506f 1abe 0106 c9bc
00000020: 2de4 3f3d 688c acbd 881c 163e 67c1 8b3a
00000030: b4a2 e23c d30c 1dbd 99f9 253d 421f 4bbc
00000040: e25f 2c3e b6d5 b33c b84b 153d 09fe 17bd
00000050: 1a97 433c e138 a1bd 87ea f93b 82fd 0e3c
00000060: 965b 0a3d d350 49be c11b 803c 55c1 87bd
00000070: bdcd bcbd 1db5 b23d de98 afbd c971 21bd
00000080: 146f 08be 50e3 79bd 1822 49bd 8ab3 02bd
00000090: 6120 123e 8561 ecbd ab0e 5bbb b3f1 91bd
000000a0: 2261 193d 5c84 a3bd 6620 bbbd 6a98 7bbd
000000b0: 7e04 8c3d 7357 f23c d892 f73c 7e6f cd3d
000000c0: 17b5 943d 2377 ff3d 8da8 06be 9e7b fd3d
000000d0: df27 373e 7e6e 943d d9af 32be cfe5 eebb
000000e0: 9655 c63d 1c62 4b3c b22f bcbd 495b 15bc
000000f0: 5fb8 2abb 935e 52bd f88b 0abe f3a2 99bd
00000100: c203 c23c b633 0c3e 7888 a23d c4e4 fb3d
00000110: 933e 1bbe c6ac 3bbd da24 0dbd dd6a 2abe
00000120: b093 17bd 354e 823d 298d 4ebc 23dd bf3c
00000130: 6e2b 893c 694f ae3d a1ce 553d fdf1 f63c
00000140: 363d a83d 48fe 33bc dfce 3fbd 775d 91bd
00000150: ab49 5a3d 2538 c4bc bc3f a5bd d57f b8bd
00000160: 7f1b a4bd 8b2d 1d3c 25f4 a0be 3182 ee3d
00000170: 80e0 ce3c a212 7abd 245d 7fbc 81de 443d
00000180: b4c0 44be ee46 c23d 07fe d33d d6ff 8f3d
00000190: b1f4 bd3d 27cd 2bbd a03d a9ba 7eb4 913d
000001a0: 7aa8 0fbe e5de 23be 965e 8e3d aaed 903d
000001b0: ae99 ebbc 2a6d 0e3e 5144 06bc bbad 073e
000001c0: 5991 7e3b 4cf7 a039 0b4c 763d e742 bfbd
000001d0: 0194 e63d 6777 1f3b ecd9 093c d83e 5cbd
000001e0: 3d87 e1bd 9410 623d c8de 11be 4ba9 0a3d
000001f0: 4139 203e 9839 b93d 9590 e1bc 9350 d5bd
00000200: a2d2 313d dab1 88bb b835 883d d9ad cdbd
00000210: fc19 cabb d7ef 93bd 1f4d 5bbb f81f 1c3e
00000220: ca29 f5bd 2e7c fd3d 89a4 47bb b105 adbd
00000230: c51b b23d 278a f23b 4250 c4bd 4002 8bbc
00000240: 8c52 ad3b 9573 63be f967 b73d 5681 053d
00000250: 81db d83d c8cd 18be fd3b 2fbe 5409 973d
00000260: c32b 8c3d 711d 253e 158f 0bbe 5c24 96bc
00000270: 9a48 f6bd ecac 80be 9a8b 88bd cbcc a5bd
00000280: 6caa 8dbc 02ef b33d de9b b03c 0a6e 403d
00000290: efb3 12bd 1fd2 24be 1fe3 133d cb35 8f3d
000002a0: 9d2d a03e 1c8c 05bd 68e3 7f3c b506 cf3d
000002b0: 6a25 d13d 5a23 6abe c4cb 223d 49b5 44bd
000002c0: d746 b53d 2589 dbbd 5999 cb3c ad24 1f3d
000002d0: 8435 353b 8fa1 243e 702f a3bd 81e2 323d
000002e0: cd44 933d 9c1d acbd 8a14 cbbc e6aa d73c
000002f0: c396 22bd f726 923d 8afe 4bbe 131f fabd
00000300: 9487 743d 2c71 023e 56ab 44be 6ef6 393e
00000310: 5bfd 5b3d edf4 f6bd 05c5 41bb 6efa 37be
00000320: 0f19 6c3d 4b8c 96bd 6cdb f3bc e71c 833d
00000330: bb4d fd3c dea0 453d 8da0 3dbe 2590 52bd
00000340: 54c3 cb3d ca89 eabd 5251 073e 71b9 89be
00000350: d789 253d dab7 823c 5f62 ee3d e43c e83d
00000360: de28 563e 52df 31bd f30e ea3c 72bc 8dbc
00000370: 22da 193d ee79 703d 0c46 0b3e 8e55 5d3d
00000380: 284d a93d e77e 0bbe e3d3 6ebb 6e58 d23c
00000390: eb3a 903d 7118 653c 3866 253d 0c0a 62bd
000003a0: 7ebc acbd 5e41 27be 2e90 1cbd 749b 2bbe
000003b0: 01ca 8f3c 2eae 653c e5d1 faba dd92 9a3c
000003c0: bbed 6f3d 1010 8fbd 79da 8a3d 8b30 c9bd
000003d0: 78df ddbd 3ee7 d93d 8eb2 bbbd ee13 6e3d
000003e0: ad37 7bbd 005f 123d 5118 913c 5c0f 7dbe
000003f0: 9090 2d3d cea3 d63d 504d 7a3d b002 3e3d
0.08247253 0.074855074 0.028728958 0.10671198 0.057129025 -0.07730642 -0.15081525 -0.024538996
0.046848465 -0.08425218 0.14659321 0.0010662497 0.027665474 -0.03834231 0.040521238 -0.012397589
0.16833451 0.021952491 0.036449164 -0.0371075 0.011937881 -0.07872177 0.007626835 0.008727433
0.03377875 -0.19659738 0.015638234 -0.06628672 -0.09218929 0.08725951 -0.08574079 -0.039415155
-0.13323623 -0.061007798 -0.04910478 -0.031909503 0.14270164 -0.11542038 -0.003342549 -0.071261786
0.03744615 -0.0798423 -0.09137039 -0.06142465 0.06836794 0.029582715 0.030221388 0.10031031
0.07261103 0.124738954 -0.13150235 0.12377094 0.17886303 0.07247637 -0.17449893 -0.007290579
0.09684293 0.012413528 -0.09188785 -0.009116002 -0.0026049835 -0.051359724 -0.13529956 -0.07501783
0.023683432 0.13691601 0.079361856 0.12299493 -0.15160589 -0.045819066 -0.034458973 -0.16642328
-0.03700608 0.06362573 -0.012606897 0.023420876 0.016744342 0.0851124 0.05219901 0.030144686
0.082148 -0.010985918 -0.046828147 -0.07097905 0.05329291 -0.023952553 -0.08068797 -0.09008757
-0.08013057 0.009593378 -0.31436267 0.11645926 0.025253534 -0.061052926 -0.015586171 0.04806376
-0.19214135 0.09486185 0.10351186 0.07031219 0.09275187 -0.041943695 -0.0012912042 0.07114504
-0.14029112 -0.16002996 0.069516346 0.07076581 -0.028759804 0.1390883 -0.008194999 0.13249867
0.0038843958 0.0003070183 0.060131114 -0.093389325 0.11258698 0.0024332644 0.008413773 -0.05377087
-0.11012123 0.05519159 -0.1424514 0.033852857 0.1564684 0.09044188 -0.027534762 -0.10415759
0.043413766 -0.004171592 0.06650871 -0.100429244 -0.0061676484 -0.0722348 -0.0033462716 0.1524657
-0.11970861 0.12377201 -0.003046306 -0.08448351 0.08696703 0.007401723 -0.095856205 -0.016968846
0.0052893814 -0.2221206 0.08955378 0.032594047 0.10588742 -0.1492225 -0.17112727 0.07374826
0.068442844 0.16124512 -0.136288 -0.018327884 -0.120255664 -0.2513193 -0.06667252 -0.08095702
-0.017293178 0.087858215 0.021558698 0.04697994 -0.03581613 -0.1609578 0.03610527 0.06992682
0.312848 -0.03260432 0.015618183 0.10108701 0.10212214 -0.22865048 0.039745107 -0.04802445
0.08851402 -0.107195176 0.024853395 0.038853336 0.0027650306 0.16077255 -0.07968032 0.043673042
0.07190857 -0.08404085 -0.024790067 0.026326608 -0.03969456 0.07136338 -0.19921318 -0.12212958
0.05969961 0.12738484 -0.19205984 0.18160412 0.053708415 -0.12058435 -0.0029566896 -0.17966625
0.057641085 -0.073509775 -0.029767714 0.06401997 0.030920854 0.048249118 -0.18518277 -0.051407
0.09949365 -0.114520624 0.13214615 -0.26899293 0.040414657 0.015956808 0.116398565 0.11339739
0.20914027 -0.043425865 0.028571581 -0.017301772 0.037561543 0.05871003 0.1360094 0.05403667
0.082666695 -0.13622628 -0.0036442212 0.025676932 0.07042488 0.013982878 0.040380687 -0.055185363
-0.084343895 -0.1633353 -0.038223438 -0.1675852 0.017552378 0.014018578 -0.001913604 0.018868858
0.058576327 -0.069854856 0.067799516 -0.09823712 -0.10833639 0.10639809 -0.09164916 0.058124475
-0.061332393 0.03573513 0.01771179 -0.2471289 0.042374194 0.10480462 0.061108887 0.04638928

fc2.bias f4 [10]
00000000: 2229 8abd 33e1 223e 7206 4d3d 6f2f 77bd
00000010: ebe8 aabd 44a7 f0bd 8c70 543d 16a5 c33d
00000020: 2dfe 8fbd 7fba 8fbd
-0.06746127 0.15906219 0.050054975 -0.06034797 -0.08345207 -0.117506534 0.051865146 0.09552972
-0.07030902 -0.07017993
