model/epoch_6.pth (torch_old, 344967 bytes, 8 tensors)

conv1.weight f4 [16, 1, 3, 3]
000000 e4 3e 32 be c3 0d 83 be 90 d4 22 be cf cc 77 be
       -0.17406803 -0.25596437 -0.15901399 -0.24199222
000010 73 74 d3 be 37 5d 58 be 3b c6 05 bf 97 fb ec bd
       -0.4129978 -0.21129309 -0.522556 -0.115714245
000020 dc 35 d2 be 5f aa 80 3e 2b 4d 5e 3e 39 9b c8 3c
       -0.41056716 0.25129983 0.21709125 0.024488078
000030 31 bf 9c 3e d5 c3 fa 3e 96 c2 2e be 85 31 3a bf
       0.30614617 0.48977533 -0.17066416 -0.7273181
000040 c6 43 df be 86 59 9c bc bc c2 94 bd 57 6e 70 3e
       -0.43606395 -0.019085657 -0.07263705 0.23479591
000050 dd 8b 0c 3f 9d e2 07 be aa 71 c0 3e e6 a9 50 3e
       0.54900914 -0.1327004 0.3758672 0.20377311
000060 4d 37 b3 3e b9 5b b4 3e c9 6d cd 3e 96 93 cf 3d
       0.3500313 0.3522623 0.40122822 0.10135572
000070 50 1f db 3e ff e4 bd 3e 3c 83 3e be bc f3 f0 bd
       0.42797327 0.37088773 -0.1860475 -0.11765239
000080 62 10 b3 3e 6b fa 9e bd aa ea 03 bf 66 cf ed bd
       0.34973437 -0.07762607 -0.51529944 -0.11611824
000090 ad 91 db be d1 56 49 be a2 91 83 be 3b 65 ca be
       -0.4288458 -0.19662024 -0.25697047 -0.39530358
0000a0 eb b7 13 be 84 ff 07 be bd 4c af 3e 5d 63 16 3e
       -0.14425628 -0.13281065 0.34238234 0.14686342
0000b0 c7 39 00 3e 03 f2 84 bc 15 79 e0 3e af 60 d5 3e
       0.1252204 -0.016228681 0.43842378 0.41675326
0000c0 41 36 85 be c3 14 6e bc a9 f6 45 3d 69 39 00 bf
       -0.26017955 -0.014531317 0.048330937 -0.500876
0000d0 00 b2 43 3e 8c 9d 89 bd 6d 9c 82 3e f6 0d 96 be
       0.1911087 -0.06719503 0.25509968 -0.29307526
0000e0 f6 d4 04 bf 99 d4 8c bc 9f 9e 37 3e 73 3d aa 3e
       -0.5188745 -0.017191218 0.17931603 0.33250007
0000f0 ed 73 8c bd aa 2d 06 3f e2 7a e8 bb 1d 66 60 3c
       -0.068580486 0.5241343 -0.007094727 0.013696221
000100 63 3a 3f 3e 88 31 5e 3e 28 ac 63 3e e1 4d b2 3e
       0.18674617 0.21698582 0.22233641 0.34825042
000110 b2 de de be 3b f9 d3 3e 41 7e b1 3e 0b 7e 54 bf
       -0.43529278 0.41401085 0.34666637 -0.83004826
000120 69 e6 e1 be bc c3 d2 3d 4e 5c f9 3e f8 ff c7 be
       -0.44121101 0.102912396 0.48703235 -0.39062476
000130 fb 8c 88 be 93 87 69 3e 85 81 92 3d 91 82 7c 3d
       -0.2667006 0.22805624 0.0715361 0.061647955
000140 11 46 02 3f 3f 30 3b 3e b3 9f f8 be 9e 62 2e 3e
       0.5088816 0.18280123 -0.4855934 0.17029807
000150 cc 30 80 be c7 5e 0a bf e6 ea 2c 3e 16 2c d0 bd
       -0.2503723 -0.5405087 0.16886482 -0.10164659
000160 4d 2d 96 3e b1 cc 0b 3f b3 55 61 3e ea 86 47 3e
       0.29331437 0.5460921 0.22005348 0.1948506
000170 67 19 da 3e c6 ad d0 3e ed cd 6e 3d 75 ad 97 bc
       0.42597505 0.4075758 0.058301855 -0.018515328
000180 c2 97 48 bd d0 e2 bc be 0f 01 cc be 7d f2 db bd
       -0.048972853 -0.36891794 -0.39844558 -0.1073961
000190 ac f2 04 be f5 99 26 3f d4 c9 8b 3d e0 5d b0 be
       -0.12983197 0.6507867 0.06825605 -0.3444662
0001a0 72 d3 8f 3e 69 c0 69 3e 09 82 64 be 8e ac d0 be
       0.28091007 0.22827305 -0.2231523 -0.4075665
0001b0 5b 4f ca be 37 26 24 be b7 38 bc 3d 5c c2 46 be
       -0.39513668 -0.16030203 0.09190505 -0.1941008
0001c0 36 ba bd be 1c 57 a0 3e 5a 39 81 be 4a b9 83 be
       -0.3705613 0.3131646 -0.25239068 -0.25727302
0001d0 f1 97 b8 3e d0 e1 9c be b4 3e 91 3e f1 85 e8 3d
       0.36053422 -0.3064103 0.2836815 0.11353672
0001e0 de bb fc be d5 1b 56 bd d9 51 14 be f3 04 93 3e
       -0.4936208 -0.052272636 -0.14484347 0.28714713
0001f0 56 9e 65 3c 94 91 13 3f bf c0 79 3e 80 86 9e 3e
       0.014014801 0.5764401 0.24389933 0.3096199
000200 81 db 89 bc 68 f7 66 3e 05 24 cc 3e f8 42 1d 3e
       -0.0168283 0.22555315 0.3987123 0.15357578
000210 e1 bf 19 bf 8b 6e 4b 3e 27 c5 e8 3e 24 2e ce 3e
       -0.6005841 0.19866388 0.45462915 0.40269578
000220 14 61 c3 3e 60 b4 cf 3e ad 58 67 be 10 56 9e bd
       0.38160002 0.40567303 -0.22592421 -0.07731259
000230 75 72 e3 be 47 8f 22 3e 0e ee f9 be 4c ef 25 3e
       -0.4442326 0.15874968 -0.48814434 0.16204566

conv1.bias f4 [16]
000000 eb 35 82 3e b1 63 32 bd 2c e9 4e bd 00 e8 73 3e
       0.2543176 -0.043552104 -0.05051534 0.2381897
000010 37 06 69 3e 41 ab 60 3e b4 cf c4 3e 77 c0 bf 3d
       0.22756277 0.21940328 0.38439715 0.09362882
000020 c2 74 9b 3e 8c ea 1a 3d d2 bd da 3e 30 02 8c bc
       0.30362517 0.037821338 0.42722946 -0.017090887
000030 4d 0e b2 bd 5d cc 85 3e 3a b6 b4 3e 74 3b 50 3e
       -0.08694134 0.2613248 0.35295278 0.2033518

conv2.weight f4 [32, 16, 3, 3]
000000 73 e2 57 bd 9f 14 42 be ef d2 17 be f3 8b d1 3c
       -0.052706193 -0.18953179 -0.14826559 0.025579428
000010 5c fb 62 bc 68 80 f3 3d ca 19 2c 3e cb 27 1b 3e
       -0.013853874 0.11889726 0.16806713 0.15151899
000020 14 6f f6 3d 66 cc 5b be 25 51 b7 39 a9 54 04 3d
       0.12032905 -0.2146469 0.00034964937 0.0323073
000030 f7 fb 8a 3e 95 eb 94 3e 26 90 9f 3e 2a ce a7 3d
       0.2714536 0.29085985 0.31164664 0.081936195
000040 d5 03 4b bd e3 d0 73 be c9 77 6c 3e 70 b0 53 3e
       -0.0495642 -0.23810153 0.2309257 0.20672774
000050 56 fb 6d 3e 4f 8a 97 3d e6 c8 e7 bd 94 0b 4b be
       0.23240408 0.07399427 -0.11317615 -0.19828635
000060 7d d5 8f be 71 57 75 be 32 c6 c2 bd b3 cd a3 bd
       -0.28092566 -0.23959137 -0.09510459 -0.079982184
000070 81 73 c6 bd 6a df 14 bc 62 1c 82 3e 87 48 06 3e
       -0.09689999 -0.009086469 0.2541228 0.13113604
000080 d5 10 c8 3d d0 4e d7 3c f7 78 be bc b4 f2 70 be
       0.097688355 0.026282698 -0.02325104 -0.23530084
000090 fc 65 f3 3c 71 40 a1 bd 5c 81 93 bd 6a 37 e8 bd
       0.029711716 -0.07873619 -0.07202408 -0.113386944
0000a0 aa a0 23 be 0b 69 84 39 8e 7d 94 3d d8 63 7a 3d
       -0.15979257 0.00025255265 0.0725051 0.061130375
0000b0 1c a2 ea 3d 8e 5a 70 3a e9 de b3 3d 4e d1 d9 3d
       0.11456701 0.0009168767 0.08782751 0.10635625
0000c0 aa 10 5d 3e 91 9e 2c 3e fb 9d 48 3d ef 00 83 3d
       0.21588388 0.16857363 0.048978787 0.063966624
0000d0 09 63 f7 bd 9a 64 87 be e1 9e a8 3d 0f 31 30 3e
       -0.12079436 -0.2644394 0.08233429 0.17206214
0000e0 f0 b5 ab 3d ad 5e e7 bd d7 63 4d be d9 b1 6f be
       0.08384311 -0.11297355 -0.20057617 -0.23407687
0000f0 a1 f3 53 be 51 46 59 be 24 d9 7c bd 81 70 74 bd
       -0.20698406 -0.2121823 -0.06173052 -0.059677605
000100 bd 50 1a 3e 3c 0e 90 3e 62 5e cb bc 48 10 af 3d
       0.15069862 0.2813586 -0.024825279 0.08548027
000110 06 59 2c 3e 3f 4d 65 be dc d4 86 be 36 ff de be
       0.16830835 -0.22392748 -0.26334274 -0.43554085
000120 63 12 6b 3d 39 0f ca bc 5f 26 3d bd 4f 0b 0a be
       0.05739058 -0.024665462 -0.04617917 -0.13480876
000130 02 85 34 bd 77 48 5e be 03 f5 71 be f8 e2 08 be
       -0.04407216 -0.2170733 -0.23628621 -0.13367832
000140 24 da ff bd f0 ad 86 3d f4 6c 53 3d b6 b9 09 3e
       -0.12492779 0.06576145 0.051617578 0.1344975
000150 77 3f 75 be 4e fb 2d be 4a 20 51 be 8a 68 17 be
       -0.23949991 -0.16990396 -0.20422474 -0.14785972
000160 17 ef 66 bd d4 81 ac bd a7 13 ab bc de 90 1f 3e
       -0.056380358 -0.084232 -0.020883394 0.15582606
000170 28 e2 92 3e 1d b6 2b 3e 9c 67 18 3e 37 b9 0c 3e
       0.2868817 0.1676869 0.14883274 0.13742529
000180 37 05 7f 3d 8e 8a b2 3c 32 13 62 be fa df b4 bd
       0.062260833 0.021794584 -0.22077635 -0.08831783
000190 e3 40 07 be 30 66 f6 3d 33 42 89 3e e4 73 17 3e
       -0.13208346 0.120312095 0.26808318 0.14790303
0001a0 58 2c c9 3d b1 dd ed bc 86 b3 93 be da 89 db be
       0.09822911 -0.029036375 -0.28847903 -0.4287861
0001b0 1f 7f e1 3b c5 82 f3 bc f8 b8 cf bd 58 a3 05 be
       0.006881609 -0.029725442 -0.10142702 -0.13050592
0001c0 d1 3b a1 bd 8f 70 5d bd 3d e0 d3 3c 17 2c 8a 3d
       -0.07872737 -0.054062422 0.025863761 0.06746691
0001d0 e1 0a 83 3c 64 d5 05 3e 4d f8 45 3d 5b d7 84 3d
       0.015996398 0.13069683 0.0483325 0.06486388
0001e0 cb a7 b8 bd 7e d6 a4 bd 1d 74 d6 bd b1 fd cc bd
       -0.09016379 -0.08048724 -0.104713656 -0.10009325
0001f0 fa dc 01 be 70 c9 07 bd f3 90 61 3d 2f b5 99 3d
       -0.12681952 -0.03315109 0.055069875 0.07505261
000200 54 c0 a6 3d 12 53 2b 3e 74 c4 68 3d 85 83 6b 3a
       0.081421524 0.16730908 0.056827977 0.00089841365
000210 38 d6 90 be 0f 4c 9b be be 25 8e be 0b f3 e3 bc
       -0.28288436 -0.30331466 -0.2776317 -0.027825853
000220 5b 8f 29 bc cb 8e 88 3d 43 84 11 3e 6d c9 82 3e
       -0.01034912 0.066678606 0.1421061 0.255443
000230 73 29 85 3e 1c c5 d1 3d e0 09 11 3d d5 43 1e be
       0.26008186 0.10242674 0.03540981 -0.15455563
000240 cb 6f 8f bd fc fd ab bc 12 5a 66 bd 90 fb b1 bb
       -0.07003745 -0.020995133 -0.05623824 -0.0054316
000250 4d ea 48 3d fb 77 d4 bc be db b3 bd 83 99 1f bd
       0.04905157 -0.025936117 -0.08782147 -0.03896476
000260 55 7e 66 3c 2a ee 9e bd 29 83 b8 bd a9 05 6c 3c
       0.014068206 -0.0776027 -0.09009392 0.014405646
000270 a1 e0 8d 3d 1e e7 f2 bc df d8 04 bd 62 bd 82 bd
       0.0692761 -0.02965122 -0.032433387 -0.06383778
000280 67 6d 9c 3d e3 e7 86 3d ba 76 7f 3b 2f e2 d5 bc
       0.07638054 0.06587198 0.0038980679 -0.02610883
000290 04 ce 4f 3c 9f 33 42 3d ed 31 7b 3d 29 64 05 3d
       0.012683395 0.04741251 0.06132691 0.032566223
0002a0 ac 99 8e bd e0 12 4b bd 95 95 1d 3d 49 8c 5d bd
       -0.06962904 -0.049578547 0.03847273 -0.054088864
0002b0 b5 85 84 bd 02 02 14 3d df 0e b2 bb 29 6e ab bd
       -0.06470815 0.036134727 -0.0054339017 -0.08370621
0002c0 c8 28 44 3d 4e f2 7a bd 5a 1d 7d bc a3 dc 6d bd
       0.047890455 -0.061266236 -0.0154488925 -0.058071744
0002d0 e4 60 80 bc 28 3a ff 39 95 7e 84 3d 29 79 fb bc
       -0.015671201 0.0004868072 0.06469456 -0.030697422
0002e0 57 8a 7a 3d a7 22 38 bd e0 5c 39 bb 40 15 17 bd
       0.061167087 -0.044954922 -0.0028284118 -0.0368855
0002f0 50 56 29 bd 4e 3f 9b 3d 35 5c 34 3d 89 f5 84 3d
       -0.04134208 0.07580434 0.044033248 0.064921446
000300 33 ce a9 bd d2 c2 af bd 36 cf 80 3d e8 99 b6 bc
       -0.082912825 -0.08582081 0.06289522 -0.022290185
000310 4c 14 4c bd c3 17 01 3d 9c db a3 3b e6 ee 19 3d
       -0.049824044 0.0315168 0.0050005447 0.037581347
000320 73 d8 a1 3b 6d 93 a2 bd f8 44 b8 3c 30 b7 a1 bc
       0.004939133 -0.079382755 0.022493824 -0.01974067
000330 3e f0 10 bd c0 fd 54 bd 68 43 78 3c 3f d3 9c bd
       -0.035385363 -0.051999807 0.01515279 -0.076574795
000340 75 b8 2b bd a1 6e 4d bd e2 8b 72 3d 59 59 85 bd
       -0.04192396 -0.050154332 0.059215434 -0.06511182
000350 e7 8b 00 bd b1 0b 2a bd 0b ff a5 bd 6f 23 67 ba
       -0.03138342 -0.041515056 -0.08105286 -0.00088172307
000360 d8 18 d8 3c df 59 c5 bc ec 5b af bd 0f a9 68 bd
       0.026379034 -0.024090705 -0.085624546 -0.05680185
000370 9e d3 49 bd e9 d9 80 bd d6 88 86 3d 34 f6 8f bd
       -0.04927408 -0.06291563 0.06569068 -0.070293814
000380 bb de 8e 3d fa a2 64 bd 90 67 7a 3d 56 76 83 bd
       0.06976076 -0.05581949 0.06113392 -0.06419055
000390 3d ca 23 3d 8d 11 a8 3c 37 f7 c1 3c 14 fe 49 bd
       0.03998779 0.020516181 0.023677452 -0.049314573
0003a0 81 00 b4 bd b3 02 ef bc 89 ab c3 3c 7a c9 87 3d
       -0.087891586 -0.029176092 0.023885505 0.066302255
0003b0 d1 be 53 bc 91 06 c6 bc 9a aa 7e 3d af 6d 9b 3d
       -0.012923912 -0.024173053 0.062174417 0.0758928
0003c0 63 db ca bc 08 29 83 ba 86 60 93 3c 87 a3 88 3d
       -0.024762815 -0.0010006735 0.017990362 0.06671815
0003d0 c0 68 53 bd be 25 3c 3c 46 00 9c 3c d6 04 d5 3c
       -0.05161357 0.011483608 0.0190431 0.026003283
0003e0 4c ec 85 3d ab 02 13 3d 33 41 b7 bd da 2c b2 3c
       0.06539211 0.035891216 -0.08947983 0.021749903
0003f0 3f b1 79 bd d7 32 89 3c a9 a1 9a bb ff 8f 6b 3d
       -0.06096005 0.016747875 -0.0047189784 0.057510372

conv2.bias f4 [32]
000000 23 df 87 3c 50 45 9f bd 73 77 99 bd 50 cd a7 3b
       0.016585892 -0.07776892 -0.07493486 0.0051209107
000010 3b 4e 61 3d da d1 66 bd 41 c3 1f bc 4d c5 c1 3c
       0.055006247 -0.056352474 -0.009751142 0.02365365
000020 74 2f 26 3c b0 ff a7 3c aa 77 c0 bd e2 5d 67 3d
       0.01014315 0.020507663 -0.09397824 0.056486018
000030 65 90 98 bc d1 73 e0 bd 12 35 94 bc 3f bb 87 bd
       -0.01862354 -0.1095959 -0.018091712 -0.06627511
000040 1a ff 09 3d f1 27 8f bd 52 dd ee 3c f2 2a 91 bd
       0.03369055 -0.0699004 0.029158268 -0.07088269
000050 30 54 cc bd 11 89 81 bc d3 38 8f bb 5b 9a c0 3d
       -0.09976995 -0.015812429 -0.0043707876 0.09404441
000060 d2 76 70 3d 4f 7c 18 3d bf 40 35 bc 2e de c8 bd
       0.058707066 0.037227925 -0.0110628 -0.098080024
000070 5f c9 2e 3d 66 a8 49 bd 26 6d 31 3d 1b e8 d4 3b
       0.04267251 -0.049232863 0.043316983 0.0064973957

fc1.weight f4 [100, 800]
000000 70 26 a3 3b 01 55 8a 3c a2 ad e7 3c 62 35 f0 3c
       0.0049789473 0.016886236 0.028281037 0.02932233
000010 51 e4 f9 bc 26 08 20 bd 27 11 5d bc a2 f3 1c bd
       -0.030504378 -0.03907027 -0.013492859 -0.038318284
000020 c5 ae 11 bd 53 47 a5 3b 1a 23 a2 bc 81 a0 ff bc
       -0.035567064 0.005043903 -0.019792128 -0.031204464
000030 9d af 3c bc f3 9b c4 3b 20 88 b6 3c c6 85 50 3c
       -0.011516479 0.006000036 0.022281706 0.012727207
000040 22 be b3 bc da 08 d5 3b d8 36 1c bd 1b d6 91 3c
       -0.021941248 0.0065012993 -0.03813824 0.017802289
000050 3e 82 75 bc 4d c2 44 bc 5f 1e 18 bd a2 d9 95 bc
       -0.014984665 -0.012009216 -0.03713834 -0.018292252
000060 af d6 bf 3c b6 d2 f2 3c 00 93 9f 3c df 4d 00 3d
       0.023417799 0.02964149 0.019479275 0.031324264
000070 4c d7 06 bd f9 e4 e1 bc 8c 11 b9 3c 81 dd 8a 3c
       -0.032920167 -0.027575003 0.022591375 0.016951324
000080 1f 10 18 bb 1e 46 0a bd 45 95 00 3d 42 0b 90 3c
       -0.0023202968 -0.033758275 0.031392355 0.017583493
000090 15 c3 8c 3c fa 0d 98 3c 59 73 e2 3c ca 9e e9 bc
       0.017182866 0.018561352 0.027642893 -0.0285181
0000a0 c0 02 bd 3a 3e 2a 07 3c de 71 b7 3b 4c 28 8a 3c
       0.0014420375 0.008249817 0.005598291 0.016864918
0000b0 17 2e bd 3c fe ae 07 bc 52 3f 85 3c 53 3e a9 3c
       0.023093266 -0.0082814675 0.016265545 0.020659601
0000c0 dc c9 49 3c fd bf 13 bb 5f d8 8f bc 44 23 3d ba
       0.012316193 -0.0022544854 -0.017559228 -0.0007215033
0000d0 50 32 a7 bc 94 8b b9 bc 46 56 b1 bc da 71 52 3c
       -0.020409733 -0.022649564 -0.021647584 0.012844527
0000e0 60 ab 2f bc 42 83 6e bb 1e 99 6d bc a4 78 9a 3c
       -0.010722011 -0.0036394154 -0.014501838 0.018856354
0000f0 c0 bd e7 bc 2d b9 1e 3c c8 62 4f bc cc d9 92 3c
       -0.028288722 0.009687704 -0.012657829 0.01792612
000100 02 49 eb 3c 0e 9f 95 3b f4 06 18 3c 66 d7 bb 3c
       0.028721336 0.00456608 0.0092790015 0.022929858
000110 e0 ff 23 bd ae b3 29 ba 5c dc 1b bc 80 1e cb 3c
       -0.040038943 -0.0006473613 -0.009512987 0.024794817
000120 18 1a 6e 3b 24 dc 86 3c 85 1a 94 ba 56 4f d8 3c
       0.003633147 0.016462393 -0.0011299407 0.026405018
000130 ba 83 13 bd 12 b1 13 3c cf 5e 2f 3b 91 60 bb bc
       -0.036014296 0.009014385 0.0026759391 -0.022873195
000140 a4 c0 ad bc 0e 30 19 bc a3 79 0f bc 6d e5 0c bd
       -0.021210022 -0.009349836 -0.008757028 -0.034398485
000150 db ee 62 3c f7 bf 3b bc a2 7f d2 3c 6d 2d b7 3c
       0.013850893 -0.011459342 0.025695626 0.022360528
000160 be 1d 55 bc 62 eb 9d bc 29 89 d1 bc d8 50 bd 3c
       -0.013007579 -0.019277278 -0.025578098 0.023109838
000170 55 28 0e bd 7c 41 e4 bc 84 a8 79 bb a8 c0 d2 3b
       -0.034706432 -0.027863257 -0.0038094828 0.006431658
000180 f7 80 f7 3b af ef 80 3c 23 93 bb bc 0c 11 59 bc
       0.0075532156 0.01573929 -0.022897309 -0.013248693
000190 a5 66 8a 3c a2 d7 dc 3b df d0 82 3c 00 41 28 bd
       0.016894648 0.0067395726 0.015968738 -0.041077614
0001a0 30 f0 14 bd 3b 8e 9a 3b c2 84 0f 3c e1 9d 83 3c
       -0.036361873 0.004716662 0.008759679 0.016066493
0001b0 98 13 7b 3c 99 dd 89 3c 43 ae 46 bc b2 60 8a 3c
       0.015324496 0.016829299 -0.012126508 0.016891811
0001c0 5a 42 a2 3b 9e eb a5 3c 0a 03 60 bc ee d0 91 bb
       0.0049517574 0.020253953 -0.0136726 -0.004449955
0001d0 10 a2 22 bc d6 56 4f 3c ef 14 f3 ba 3c 6e 76 bc
       -0.009926334 0.012654981 -0.0018545667 -0.01504093
0001e0 f2 20 a5 3c 9d c7 53 ba fb f2 56 3c 91 be a6 bc
       0.020157311 -0.0008078756 0.0131194545 -0.020354541
0001f0 79 6e 99 3c b0 6c 67 ba fa 2a c0 3b 25 77 be 3c
       0.018729435 -0.00088281464 0.005864498 0.023250172
000200 75 f1 09 bc 5b 04 b1 bc ac db 19 bd 09 a3 d3 3c
       -0.008419384 -0.021608522 -0.03756301 0.025834577
000210 ff 29 b3 3c b0 e9 08 bd 7d 1a 91 3c 34 64 f9 3b
       0.021870611 -0.033425987 0.017712826 0.007610822
000220 55 e1 a3 3c d6 7a f1 bc 98 3d 99 bb 92 86 75 3b
       0.020004908 -0.029477518 -0.004676532 0.0037464243
000230 ac a6 65 bc d5 0d 79 3c f9 7a d4 bc 16 bc a9 3b
       -0.014016788 0.015201052 -0.025937544 0.0051798923
000240 20 f7 00 3c 5a 47 b2 bc 40 66 f8 bc fb cf a4 bc
       0.007871419 -0.021762539 -0.030322194 -0.020118704
000250 c4 94 aa 3c e8 60 8c bc b9 43 1d bc 3b 78 8a bc
       0.02082289 -0.017136052 -0.009598666 -0.016903033
000260 9f 0a 93 3c 64 4d 69 3a ae 7e 0c bd 8b 54 90 3c
       0.0179494 0.0008899777 -0.0343005 0.017618438
000270 fe a4 14 bd bb 89 15 bd de 9f 2e bc c0 a8 a4 3c
       -0.03629016 -0.036508303 -0.0106582325 0.020099998
000280 22 6a 54 3c f2 40 48 bc 1d c3 8e 3c 83 b8 f2 bc
       0.012964757 -0.012222515 0.017427022 -0.029628998
000290 e8 7f 1b bd 46 91 8c bc 05 ee 0b bd 18 70 93 3c
       -0.037963778 -0.017159116 -0.03416254 0.017997786
0002a0 7b 9a 88 3c 4f 02 97 bc 35 7f 14 bd d0 2e 80 bc
       0.016675225 -0.018433718 -0.036254127 -0.015647322
0002b0 14 8e 67 bc fd 40 ed bb 13 d4 ec bc d2 39 36 bc
       -0.014132995 -0.007240413 -0.028909719 -0.011122184
0002c0 ae 09 01 bd 31 02 18 bd 59 59 e2 bc c3 42 c6 3c
       -0.031503372 -0.037111465 -0.027630495 0.024201756
0002d0 45 ff 10 bd 26 60 a2 3c 20 68 92 3b 33 d6 25 3c
       -0.035399694 0.019821238 0.004467979 0.01012187
0002e0 c0 bc f4 3a 34 6a b7 bc 55 88 16 bc 57 1d d6 3c
       0.0018671975 -0.022389509 -0.0091877775 0.026137037
0002f0 8b 72 99 3c 36 cc 0a bd 49 56 ab ba 30 b0 79 3a
       0.018731376 -0.033886157 -0.001307198 0.000952485
000300 0a 86 c1 3c 05 d9 b9 bc 2c 6c d6 3c e6 0b ab 3b
       0.023623485 -0.02268649 0.026174627 0.0052199243
000310 0c b2 09 bd 56 88 c9 3a a1 f4 f5 3b eb 0b b3 3b
       -0.033617064 0.0015375714 0.0075059687 0.005464067
000320 38 50 e8 3c f0 76 0f bc e4 3a a8 ba b2 3e 12 bd
       0.028358564 -0.008756384 -0.0012834934 -0.035704322
000330 43 b8 06 bc d8 03 16 bc e2 21 cc 3c 0b ad 54 bc
       -0.008222642 -0.00915619 0.0249185 -0.01298071
000340 92 d4 bb bb c3 6c e4 3c 0b cb 80 3c c6 13 1a bc
       -0.0057321275 0.027883893 0.015721818 -0.009404128
000350 8a 36 ea 3c 77 05 18 bb 39 1f ab 3c 06 30 b5 3c
       0.02859046 -0.0023196617 0.020888912 0.022117626
000360 21 53 be bc 0a 9e 0b 3c c6 02 a5 3c 07 dd fc bc
       -0.023232998 0.008521566 0.020142924 -0.030867113
000370 d5 94 de 3c 22 2a f3 3a 7a ca 9e b9 7c 87 42 3b
       0.027170578 0.0018551985 -0.00030286965 0.0029682806
000380 d2 e4 a2 bc 26 82 ba bb 1b 77 f7 3b c1 d1 fe bc
       -0.0198845 -0.0056917844 0.0075520403 -0.031105878
000390 de ba 98 bb 1c 3a 1d bd 4e a0 27 3c 50 48 d0 3c
       -0.004660948 -0.038385496 0.010231091 0.025425106
0003a0 e9 cc 49 bb 4c 26 6d b9 d5 e8 20 bc e7 28 37 3b
       -0.0030792302 -0.00022616348 -0.0098211365 0.0027947964
0003b0 23 46 e2 bc 7e 0f a9 bc 03 c3 1f ba 6d 8d a6 bc
       -0.027621334 -0.02063727 -0.00060944277 -0.020331109
0003c0 97 20 88 bc ef 83 67 3b 83 cf 30 3c cf 2a 3e bc
       -0.016617103 0.0035326441 0.010791662 -0.011606886
0003d0 a6 80 ff bc 6e f3 bc 3c 5a 36 03 bd 5a 92 db bc
       -0.031189274 0.023065295 -0.032034256 -0.026803184
0003e0 cb c5 20 bd 66 12 9b bc 6e ce 74 3c 2d 01 43 3b
       -0.03925113 -0.018929671 0.014941795 0.002975534
0003f0 a5 62 b2 3c 6d a3 71 bc cd 4d 74 3c 75 77 f4 bb
       0.021775553 -0.014748436 0.014911127 -0.0074605295

fc1.bias f4 [100]
000000 44 09 1c bd 88 13 96 ba 74 d6 ad 3c ca c9 a9 bc
       -0.038094774 -0.0011449913 0.021220423 -0.020726103
000010 44 41 dd bc a6 fb 94 3c 5d 6d c8 bc 2f 7b 0a bd
       -0.02700866 0.018186402 -0.024466211 -0.033808883
000020 57 c2 4f 3d f0 5b 03 3d 32 3b e3 3c 2c db 17 3d
       0.050722446 0.0320701 0.027738187 0.037074253
000030 ea df 51 3c ee 35 74 bb 84 17 5e bc 7f 1b 88 3c
       0.012809733 -0.003726359 -0.013555411 0.016614674
000040 4e c3 8d bb 04 66 f3 bc 8f 6b 21 3c 31 ee e1 bc
       -0.0043262606 -0.02971173 0.009852304 -0.027579399
000050 73 5d 98 3c f6 39 8e bc 5a 7e b1 bb 15 20 8e 3b
       0.018599248 -0.017361622 -0.0054166736 0.0043373206
000060 c3 04 94 3c ab 35 8f bc ff 27 c4 3c 88 10 8b 3c
       0.018068677 -0.017481646 0.023944853 0.016975656
000070 a5 13 bd bc 87 f8 16 bd 48 54 bc 3c 3b 41 79 bc
       -0.023080656 -0.036858108 0.022989407 -0.015213306
000080 22 f9 10 bd 8f 0b 60 3a 41 9a 9c bc 73 08 0c 3d
       -0.03539384 0.0008546644 -0.019116523 0.034187745
000090 21 12 92 3c a7 6c 4c 3c 13 b7 b8 bc 3d 7a 80 3b
       0.01783091 0.012477077 -0.022548234 0.003920822
0000a0 4b 35 6e ba 13 b6 fb bc aa 77 ef bc 5f c7 f9 bc
       -0.0009086921 -0.030726468 -0.029231865 -0.030490575
0000b0 b8 f0 a0 3d df 77 85 bc de 5c 18 bd 21 c6 3d 3d
       0.078584135 -0.01629251 -0.03719794 0.04633153
0000c0 12 7c ca 3c c9 b4 fa 3b 36 7b 23 bd a4 ec 12 3d
       0.024717364 0.007650946 -0.039912425 0.03587021
0000d0 51 57 42 3d ed 35 1e 3d d6 f2 48 bd 94 94 36 3c
       0.047446553 0.038625646 -0.04905971 0.011143822
0000e0 da 80 fb bb 9e 06 12 3c 8f 34 17 bd ce b5 5b bd
       -0.0076752724 0.0089127105 -0.03691536 -0.05364018
0000f0 1c 65 38 bd 49 17 bf ba de 92 15 3d b0 c6 2c 3c
       -0.0450183 -0.0014579083 0.036517017 0.010545418
000100 60 6a e1 bc 08 85 00 bd 5a 4a 82 3d 66 7e 4b 3d
       -0.027516544 -0.03137687 0.06361838 0.04968109
000110 b1 c3 0f bd e3 ad e2 3c 60 da fb bc 23 d3 d4 3c
       -0.035098735 0.027670806 -0.030743778 0.025979584
000120 d9 85 21 3c b7 4b 68 3c a4 b6 0e bd b8 a1 32 bd
       0.009858572 0.014178208 -0.03484215 -0.04361126
000130 0e d3 e2 3b 81 44 6f b9 25 d2 c2 bc b0 62 1b bd
       0.0069221323 -0.00022818336 -0.023781845 -0.037935913
000140 ab fa cb 3c 68 03 8b ba ee 70 f2 3a 01 3f d1 bc
       0.024899801 -0.0010605874 0.001849679 -0.025542738
000150 71 b3 cf bc 11 6a ca 3c 7f 92 9b bc a2 f7 91 3b
       -0.025354119 0.02470878 -0.018990753 0.004454569
000160 e4 ac a7 3c f7 2e be 3b 78 50 8b bc ea 0e 42 3c
       0.020468183 0.0058039385 -0.017006144 0.011844376
000170 bd 3e 54 3d 2a 0c ee 3c 94 a7 ac ba c7 b2 c3 3d
       0.051817644 0.029058535 -0.0013172501 0.095555834
000180 ff 41 8d bc dc b5 0a bd 03 46 a9 bc 35 74 ab 3b
       -0.017243383 -0.03386484 -0.020663267 0.005232359

fc2.weight f4 [10, 100]
000000 5c e7 a8 3d 9e 4d 99 3d 25 ea c2 3c 28 37 c9 3d
       0.08247253 0.074855074 0.02379329 0.09824973
000010 ce cc 62 3d 32 cd a4 bd 01 d0 1f be 01 06 c9 bc
       0.0553711 -0.080469504 -0.15606691 -0.024538996
000020 bd 88 4e 3d 2d 22 a5 bd 6f 7b d9 3d 48 fa d7 3b
       0.050423373 -0.08063159 0.10619246 0.006591115
000030 b4 a2 e2 3c d3 0c 1d bd f6 e8 02 3d 7f ac 65 bc
       0.027665474 -0.03834231 0.03196045 -0.014018177
000040 e2 d6 25 3e b6 d5 b3 3c b8 4b 15 3d 09 fe 17 bd
       0.16195253 0.021952491 0.036449164 -0.0371075
000050 10 eb 1d 3c e1 38 a1 bd 47 c4 31 3b 82 fd 0e 3c
       0.009638563 -0.07872177 0.0027125047 0.008727433
000060 61 30 0f 3d 1d e9 41 be c1 1b 80 3c c6 53 8f bd
       0.034958247 -0.18936582 0.015638234 -0.069984004
000070 bd cd bc bd 1d b5 b2 3d de 98 af bd 23 9d 16 bd
       -0.09218929 0.08725951 -0.08574079 -0.03677095
000080 95 3f 0b be 2c 96 60 bd 18 22 49 bd 92 55 e6 bc
       -0.13598473 -0.054830715 -0.04910478 -0.028116975
000090 66 14 0d 3e 07 15 e9 bd ab 0e 5b bb b3 f1 91 bd
       0.13777313 -0.11380964 -0.003342549 -0.071261786
0000a0 22 61 19 3d 5c 84 a3 bd 66 20 bb bd 6a 98 7b bd
       0.03744615 -0.0798423 -0.09137039 -0.06142465
0000b0 6f a7 9b 3d cd 75 c3 3c d8 92 f7 3c c9 2d c4 3d
       0.07600295 0.023859883 0.030221388 0.09579045
0000c0 0f ca 8b 3d d0 d4 f5 3d 33 1b f3 bd 5b 87 fe 3d
       0.06825649 0.120034814 -0.11870422 0.12428161
0000d0 eb 71 3d 3e 54 28 81 3d 83 6d 2b be cf e5 ee bb
       0.18500488 0.0630652 -0.16740994 -0.007290579
0000e0 63 f0 c1 3d f6 5b e0 3b b2 2f bc bd d9 7f a0 bc
       0.09469678 0.0068469 -0.09188785 -0.019592213
0000f0 5f b8 2a bb 25 9d 53 bd 9e b5 04 be 28 30 a0 bd
       -0.0026049835 -0.051663537 -0.12959906 -0.07821685
000100 d6 8d f0 3c 5a a0 07 3e cf cf ab 3d 99 20 f3 3d
       0.029364508 0.13244763 0.08389246 0.11871452
000110 2a 20 22 be c6 ac 3b bd da 24 0d bd 9c 68 26 be
       -0.15832582 -0.045819066 -0.034458973 -0.16250843
000120 f3 f0 f2 bc 67 34 71 3d 29 8d 4e bc 23 dd bf 3c
       -0.02965591 0.058887865 -0.012606897 0.023420876
000130 6e 2b 89 3c 34 a4 bc 3d a1 ce 55 3d fd f1 f6 3c
       0.016744342 0.09211007 0.05219901 0.030144686
000140 65 c1 a1 3d d0 4a f1 bb df ce 3f bd 77 5d 91 bd
       0.07898215 -0.0073636547 -0.046828147 -0.07097905
000150 ab 49 5a 3d 25 38 c4 bc f6 3d bf bd 05 ab b4 bd
       0.05329291 -0.023952553 -0.0933799 -0.08821682
000160 0a f4 a5 bd 8b 2d 1d 3c 9d 00 98 be a6 89 e5 3d
       -0.081031874 0.009593378 -0.29687968 0.11207895
000170 48 0a f2 3c 79 46 77 bd 4f 35 a5 bc ac a4 34 3d
       0.029545918 -0.060369942 -0.020167021 0.044102356
000180 fc c0 37 be 53 f8 a5 3d 2d f2 b8 3d 2d 96 8e 3d
       -0.17944711 0.08104005 0.09030566 0.069622375
000190 b1 f4 bd 3d 27 cd 2b bd d4 66 59 bc 5a ce 95 3d
       0.09275187 -0.041943695 -0.013269145 0.07314749
0001a0 d7 73 0a be e2 11 1f be 2d 7a 82 3d aa ed 90 3d
       -0.13520752 -0.15534166 0.063709594 0.07076581
0001b0 d3 1f 12 bd a2 cc 06 3e ee e4 4d bd 59 39 f8 3d
       -0.03567488 0.13163999 -0.050267152 0.12120313
0001c0 59 91 7e 3b 4c f7 a0 39 6d 30 6e 3d fe fd a3 bd
       0.0038843958 0.0003070183 0.05815165 -0.080074295
0001d0 26 67 f2 3d 67 77 1f 3b ec d9 09 3c d8 3e 5c bd
       0.1183608 0.0024332644 0.008413773 -0.05377087
0001e0 8a dc 02 be 94 10 62 3d 58 50 08 be 4b a9 0a 3d
       -0.12779441 0.05519159 -0.13311899 0.033852857
0001f0 7a de 1f 3e 94 e6 a0 3d 95 90 e1 bc 48 29 cd bd
       0.15612212 0.07856479 -0.027534762 -0.100176394
000200 a2 d2 31 3d da b1 88 bb 0b 22 88 3d a4 ae e9 bd
       0.043413766 -0.004171592 0.06647118 -0.11410263
000210 a1 4a fe bb a0 60 84 bd 1f 4d 5b bb 50 e6 17 3e
       -0.0077603613 -0.06463742 -0.0033462716 0.14833951
000220 d5 3f e0 bd 5c 44 fa 3d 89 a4 47 bb b1 05 ad bd
       -0.10949675 0.1222007 -0.003046306 -0.08448351
000230 c5 1b b2 3d 27 8a f2 3b 42 50 c4 bd 40 02 8b bc
       0.08696703 0.007401723 -0.095856205 -0.016968846
000240 ec 5e 3a bc 62 f4 59 be f9 67 b7 3d 55 70 0f 3d
       -0.01137517 -0.21284631 0.08955378 0.035019238
000250 c0 f8 db 3d 61 2b 27 be 22 13 34 be 04 f0 75 3d
       0.10740805 -0.16325141 -0.17585424 0.06004335
000260 f4 47 a4 3d a1 6f 26 3e 1e 2c 08 be 5c 24 96 bc
       0.080215365 0.1625352 -0.1329808 -0.018327884
000270 fe d5 fd bd 63 aa 80 be 9a 8b 88 bd 93 9a a7 bd
       -0.123943314 -0.25129995 -0.06667252 -0.081837796
000280 6c aa 8d bc 96 bc 99 3d 00 2e b7 3c 9b ac 7a 3c
       -0.017293178 0.07506673 0.022360802 0.015299941
000290 27 21 25 bd 1c 1e 12 be df 52 36 3d 37 54 85 3d
       -0.04031482 -0.14269298 0.044512626 0.06510203
0002a0 4c 55 93 3e 1c 8c 05 bd 68 e3 7f 3c 62 43 ca 3d
       0.28776014 -0.03260432 0.015618183 0.098761335
0002b0 d3 54 b6 3d 56 07 6c be c4 cb 22 3d 49 b5 44 bd
       0.08902898 -0.23049673 0.039745107 -0.04802445
0002c0 d7 46 b5 3d 55 be e2 bd 59 99 cb 3c ad 24 1f 3d
       0.08851402 -0.11071459 0.024853395 0.038853336
0002d0 c7 b0 99 bb 6c fb 21 3e 70 2f a3 bd 81 e2 32 3d
       -0.004690263 0.15818566 -0.07968032 0.043673042
0002e0 cd 44 93 3d 9c 1d ac bd 0d c9 ec bc 47 47 a4 3c
       0.07190857 -0.08404085 -0.028904462 0.020053519
0002f0 e2 92 22 bd f7 26 92 3d 76 ad 44 be 8d 2b de bd
       -0.03969086 0.07136338 -0.19206795 -0.108481504
000300 b1 c4 5b 3d 59 a5 f5 3d cb ca 3c be 0c 6a 39 3e
       0.053654376 0.11994428 -0.18436734 0.1810686
000310 e9 16 56 3d af 24 fb bd 41 6a 90 3b 00 ef 32 be
       0.052267943 -0.12262856 0.0044071977 -0.17473984
000320 0f 19 6c 3d 4b 8c 96 bd 32 64 dc bc ac c2 92 3d
       0.057641085 -0.073509775 -0.026903246 0.07166037
000330 9a 24 fe 3c 85 69 24 3d e6 52 2c be 25 90 52 bd
       0.031023312 0.040139694 -0.16828498 -0.051407
000340 9d 49 b9 3d d7 ad e2 bd 2d 78 03 3e 63 a5 85 be
       0.09047244 -0.110683136 0.12838812 -0.26102743
000350 d7 89 25 3d da b7 82 3c 5e 63 e8 3d 09 4a ec 3d
       0.040414657 0.015956808 0.11347078 0.115375586
000360 a3 26 56 3e 52 df 31 bd f3 0e ea 3c 72 bc 8d bc
       0.20913176 -0.043425865 0.028571581 -0.017301772
000370 90 cf 37 3d ee 79 70 3d bb cb 09 3e 8e 55 5d 3d
       0.04487568 0.05871003 0.13456623 0.05403667
000380 e4 99 a6 3d b5 05 fb bd e3 d3 6e bb c0 a2 cb 3c
       0.08134821 -0.12256948 -0.0036442212 0.024857879
000390 eb 3a 90 3d 71 18 65 3c 3f 66 25 3d 9b ed 55 bd
       0.07042488 0.013982878 0.040380713 -0.05222855
0003a0 4a 61 c6 bd 07 a9 25 be 2e 90 1c bd e4 ce 2a be
       -0.09686525 -0.1617776 -0.038223438 -0.16680485
0003b0 21 0f a1 3c 4c 64 46 3c e5 d1 fa ba dd 92 9a 3c
       0.019660534 0.012108874 -0.001913604 0.018868858
0003c0 bb ed 6f 3d 10 10 8f bd 79 da 8a 3d 8b 30 c9 bd
       0.058576327 -0.069854856 0.067799516 -0.09823712
0003d0 5e 50 ca bd 8f 34 df 3d 8e b2 bb bd 04 78 6b 3d
       -0.0987861 0.10898697 -0.09164916 0.057487503
0003e0 4a 99 3b bd e0 50 09 3d 26 a0 c7 3c 96 cb 63 be
       -0.045800485 0.033524394 0.024368357 -0.2224563
0003f0 e7 fa e1 3c 83 71 c7 3d 0c 65 87 3d b0 02 3e 3d
       0.02758546 0.097384475 0.0661107 0.04638928

fc2.bias f4 [10]
000000 9b df 8a bd ad 15 16 3e 5d c2 4a 3d 45 fd 6c bd
       -0.067809306 0.14656706 0.049501766 -0.057858724
000010 3b 55 ac bd 1e a4 ef bd 5c 8a 46 3d 6f 22 d2 3d
       -0.08414694 -0.11701225 0.048471794 0.10260474
000020 49 ad 91 bd bf fa 87 bd
       -0.0711313 -0.06639623
